BirdNet_Trained_Model/trained_model_classifiers/Custom_Classifier5.tflite (tflite, 111776 bytes, 2 tensors)

sequential/dense/BiasAdd/ReadVariableOp f4 [27]
000000 68 1d da bb 62 f5 5d 3a a4 06 a7 bd 4c b1 25 bd
       -0.0066563375 0.0008467046 -0.081555635 -0.040452287
000010 00 b1 19 bf 61 f7 c7 bd 84 f3 4b be 73 0b 21 be
       -0.60035706 -0.09763981 -0.19917113 -0.15727024
000020 70 dd 57 be c3 77 21 bb ab d7 a6 bd 3e 06 b0 bd
       -0.21080565 -0.0024638034 -0.08146604 -0.085949406
000030 9c ce 0c be cd 39 2d be 75 e2 9f bd a9 e1 fa bc
       -0.1375069 -0.1691658 -0.07806865 -0.030625181
000040 3e 3a 12 3c 0a ef e4 bd bc d6 01 be 75 ea e1 bd
       0.008925019 -0.111784056 -0.12679571 -0.11031047
000050 0f 8c dc bc 5b a1 1a be 26 5d 8c be 9a ac 16 be
       -0.026922254 -0.15100615 -0.27414817 -0.1471428
000060 16 f1 60 bd 36 93 ba bc 6c 98 95 bd
       -0.054917417 -0.022775274 -0.07304463

sequential/dense/MatMul f4 [27, 1024]
000000 09 96 b9 be fb ff c8 3e 63 6d 61 3e 73 5b 7e bd
       -0.3624728 0.39257798 0.22014384 -0.06209893
000010 96 74 e1 be 6f 80 3e bf ff 47 9b 3e 39 31 e4 bf
       -0.4403426 -0.74414724 0.30328366 -1.7827522
000020 83 31 30 3f d0 b8 15 3e 67 78 54 3d b4 ec 4e c0
       0.6882555 0.14621282 0.051872637 -3.2331972
000030 50 56 20 be da 5a 0f 3e 2c 7e c1 be 2d be 44 3f
       -0.15657926 0.13999501 -0.37791574 0.76852685
000040 21 aa 0f bf e3 0e 99 bf fe c3 80 be 4e 6b fb bc
       -0.5611897 -1.1957668 -0.2514953 -0.030690815
000050 ad af b1 3f 6a 4d 80 3f 0d 62 f6 3e 1d df bc be
       1.3881737 1.0023625 0.48121682 -0.36888972
000060 18 63 c3 be bd c0 d2 3e d3 a7 0a be 8b 68 82 3e
       -0.3816154 0.41162673 -0.13540582 0.25470385
000070 27 8d f8 3f ef b2 61 be 3a eb 09 3f 90 a1 d0 3e
       1.9418076 -0.22040914 0.5387455 0.40748262
000080 a5 6b 0e 3f cb 4c 96 3c 9b 39 11 bf 77 b8 18 bf
       0.55633 0.018347165 -0.56728524 -0.5965647
000090 59 65 8f bf b2 eb 13 40 72 9e 95 bf 17 ff 69 3f
       -1.1202804 2.3112607 -1.1688979 0.9140486
0000a0 09 91 26 3e 67 50 a9 3f a4 29 6c c0 d2 2d 1e bd
       0.16266264 1.3227662 -3.6900415 -0.038617916
0000b0 9f eb be be 98 75 98 be 9a 40 3e 3f 17 37 55 3d
       -0.3728914 -0.29777217 0.74317324 0.05205449
0000c0 86 13 51 c0 dd dd 9e 3d 19 69 9b 3d 06 93 f3 3e
       -3.2668166 0.07757161 0.07588405 0.47573107
0000d0 a9 f9 e7 bf e7 d5 bf 3e 43 cd 3b 40 7c 02 33 3e
       -1.8123065 0.37467882 2.9344032 0.17481416
0000e0 68 4c e7 bf bb 09 5e bf e2 a5 e5 3d c3 30 af bf
       -1.8070192 -0.867336 0.1121328 -1.3686756
0000f0 94 ce 01 40 40 56 72 be f8 0b 7b be 4a 3c 62 3f
       2.0282335 -0.23665714 -0.24516284 0.88373244
000100 2f 60 9b bf 7f de 19 bf 0a 74 57 3f 0b 5d ac 3f
       -1.2138728 -0.6010513 0.84161437 1.3465894
000110 6a 08 05 bf 90 7c 64 bf 76 1a d8 bc c0 f8 b4 3e
       -0.51965964 -0.8925257 -0.026379805 0.3534603
000120 1b 2e dd be 44 4d 86 3f ae c7 b5 3e 09 ee 88 3f
       -0.43199238 1.049233 0.35503906 1.0697643
000130 a6 bc d9 bf d1 3c 62 3e a5 b1 4c 3f 39 b7 b3 3e
       -1.7010696 0.22093512 0.79958564 0.35100725
000140 47 d5 7f bf 41 02 a7 be b7 5e db bf e0 86 e0 3c
       -0.9993481 -0.32618907 -1.713828 0.027408063
000150 52 40 f2 3f cb 14 4b bf 8c df 4c bf d4 09 95 bf
       1.8925879 -0.793286 -0.80028605 -1.1643624
000160 27 d4 06 40 0f 3d aa bb 04 3b f6 bf 4d 1a f4 bf
       2.1066988 -0.005195267 -1.923676 -1.9070526
000170 e2 07 a5 be 79 da 0f 3f b1 4d 94 3d 4e 57 f1 3f
       -0.32232577 0.5619274 0.07241381 1.8854768
000180 88 cf 8a 3f fe 32 1f 3f 1c dc 5d bf 6c 00 e1 3e
       1.0844584 0.6218718 -0.86663985 0.43945634
000190 9b bb d3 3c 7e 51 9d bf ad 9c 81 3d 2f ff 38 bf
       0.025846293 -1.2290494 0.06328712 -0.7226438
0001a0 41 31 93 3e db 2b 72 3e fc 75 d8 be 1d 8c ab be
       0.28748515 0.23649542 -0.42277515 -0.33505335
0001b0 42 42 d1 3e 27 60 38 bf 67 e6 d6 bf f6 32 3e bf
       0.40870863 -0.72021717 -1.6789063 -0.7429651
0001c0 3f 42 0f bf 90 5a 87 be 37 df 90 3d 35 a3 2c c0
       -0.5596046 -0.2643628 0.07073825 -2.6974614
0001d0 20 30 26 bf 91 ef 30 3f 7b 74 38 bf 9f db 98 be
       -0.6491718 0.6911555 -0.72052735 -0.29855058
0001e0 bf 8f ba 3d c6 6d be bd 85 a7 2b bf a6 25 06 bd
       0.09109449 -0.09298281 -0.6705249 -0.032750748
0001f0 3d ea 64 c0 1d 56 3a bf f1 f5 62 40 5f f4 03 3e
       -3.5767968 -0.7278765 3.546261 0.12886189
000200 90 09 69 bf c5 3b 07 40 e4 36 56 3f 34 ea bc bf
       -0.91030216 2.113023 0.83677506 -1.4758973
000210 58 0f 7d 3f 5f 9e 9f bf e4 5f 86 3f 24 1a 48 bf
       0.9885154 -1.2470206 1.0498013 -0.7816489
000220 90 11 45 bf 39 9c d1 3e 00 4d 2a bf 8d 39 09 be
       -0.76979923 0.409395 -0.6652374 -0.1340086
000230 4d 4e 18 3e f1 a6 b4 bf 59 71 47 c0 7c 68 47 c0
       0.1487362 -1.4113446 -3.1162932 -3.1157522
000240 32 5f 4f b9 22 d2 95 be dd 7c cf bf e0 98 4c bf
       -0.00019776521 -0.2926188 -1.620998 -0.7992077
000250 c7 89 81 3b 9c eb d7 3f 37 83 61 3e 9e 44 0f 40
       0.003953192 1.6868777 0.2202271 2.238563
000260 1c 22 7b 3f 20 55 27 3f 59 95 5f 3f 5a 15 d5 be
       0.9809892 0.65364265 0.8733726 -0.41617852
000270 dd 9c fb be 21 01 3f bf e2 7f 9b 3d fa 34 e3 bd
       -0.49143115 -0.746111 0.07592751 -0.11094089
000280 63 ee de bf 7d 9c 13 c0 c9 31 47 bf 89 22 2c c0
       -1.74165 -2.3064263 -0.7781034 -2.6896079
000290 9c e0 2a 3f 9a 25 8a be 50 b4 7a 3c ae 5f 6f 3e
       0.66748977 -0.26981813 0.015301779 0.23376343
0002a0 90 d8 ee be 85 5b 9c 3f 95 01 61 bf 6f 4e f9 bf
       -0.466496 1.221543 -0.8789304 -1.9477061
0002b0 4e c9 9c 3f 10 34 2a 3e 87 72 0a 3f 6b d4 a1 be
       1.2248933 0.16621423 0.54081005 -0.31607375
0002c0 ac 2a c4 bd c6 dd a2 bf e0 19 66 bf d2 6f 6c be
       -0.095784515 -1.272393 -0.8988323 -0.23089531
0002d0 9c 58 8f bf c9 2a 5e bf 73 d0 c7 3f ac a0 20 3d
       -1.1198916 -0.86784035 1.5610489 0.03921573
0002e0 3d a3 94 3e 8c 45 eb 3f b2 21 ab bf 3e 2f b0 bd
       0.2903079 1.8380599 -1.3369658 -0.08602761
0002f0 45 f7 84 bf 11 dd 79 40 11 f4 13 c0 4f f3 94 40
       -1.0387961 3.9041178 -2.3117716 4.6547008
000300 11 8d 9e bf a4 88 49 3e e5 ab 15 3e 8a 3e a9 3f
       -1.23868 0.1968103 0.14616354 1.322221
000310 50 c9 71 3f 34 06 f5 bf 15 d3 2a c0 0e c4 81 bf
       0.94447803 -1.9142518 -2.6691334 -1.0137956
000320 3d be 4b 3e 60 f8 47 be a0 d9 f5 be 26 77 65 3d
       0.19896789 -0.19528341 -0.48017597 0.056021832
000330 b4 bd 43 40 dd 06 68 be 60 2e 82 3d 89 b8 43 be
       3.0584536 -0.22658868 0.063565016 -0.19113363
000340 c3 c9 3e bf 08 13 98 3d d5 04 84 bd d2 78 dc 3f
       -0.74526614 0.07425505 -0.06446234 1.7224371
000350 e2 8f cd bf 45 d9 72 40 17 8f 1f 40 5f f9 e1 bf
       -1.6059535 3.794511 2.4931085 -1.7654227
000360 1b 55 b9 3d b5 8d a9 bf c9 70 ed 3e a6 8c a0 3d
       0.09049436 -1.324637 0.4637511 0.078393266
000370 f6 b6 2d c0 e8 da 2f 3e 6a 13 81 bf 3d 52 88 3e
       -2.714292 0.1717335 -1.008405 0.26625243
000380 5f 53 8a 3f 53 f3 d4 3d b3 38 0f bf 1a 1a 75 bf
       1.0806693 0.10397973 -0.5594589 -0.9574295
000390 b9 df 91 3f cc b0 59 3b 8a 99 71 bf 2f 6d cc 3e
       1.13964 0.0033216951 -0.94374907 0.3992705
0003a0 94 61 7e bf 28 64 e7 bf 15 5c 02 3f 88 ad 0c 3f
       -0.9936764 -1.807744 0.50921756 0.5495229
0003b0 8f 34 f0 be 58 eb 28 3d c5 b0 3e bf 22 84 94 3f
       -0.469151 0.041240066 -0.7448848 1.1602824
0003c0 27 c1 0f 3e f4 70 48 3f a7 9f 60 3f 43 8f e6 bd
       0.14038526 0.7829735 0.8774361 -0.11257794
0003d0 36 e2 60 bf fe fc 27 3e 59 a1 27 bc 19 6c 5f 3c
       -0.8784517 0.16405103 -0.010231339 0.013636612
0003e0 e9 ad 8e bf ef 21 bc 3f de ed 50 3f 92 eb 86 bf
       -1.1146823 1.4697856 0.81612957 -1.054064
0003f0 78 8e 3c c0 1c 57 de be 80 a8 0d bf de 88 00 3f
       -2.9461956 -0.43425834 -0.55335236 0.5020884
