BirdNet_Trained_Model/trained_model_classifiers/Custom_Classifier4.tflite (tflite, 111776 bytes, 2 tensors)

sequential/dense/BiasAdd/ReadVariableOp f4 [27]
0	0xbc82e50f	-0.015978364
1	0xbbd217a7	-0.006411511
2	0xbcaa396f	-0.02077934
3	0xbcbf0ca2	-0.023321453
4	0xbd14a8cf	-0.0362938
5	0xbcc3833d	-0.02386629
6	0xbd0e69b7	-0.034768786
7	0xbce18d1e	-0.02753311
8	0xbce28347	-0.027650489
9	0xbbd09026	-0.00636484
10	0xbce195f6	-0.027537327
11	0xbcd69cd5	-0.02619783
12	0xbd20c6de	-0.039252155
13	0xbd096709	-0.033545528
14	0xbc9f032a	-0.019410688
15	0xbc8d43ff	-0.017244337
16	0xbc497a23	-0.012297186
17	0xbc9db84b	-0.019252917
18	0xbcee52f4	-0.02909229
19	0xbd08717d	-0.033311356
20	0xbc827f4e	-0.015929844
21	0xbd301cba	-0.042996146
22	0xbd182088	-0.0371404
23	0xbd22a77b	-0.039710503
24	0xbc71e5e6	-0.014764285
25	0xbc88cf88	-0.016700521
26	0xbcbbc224	-0.022919722

sequential/dense/MatMul f4 [27, 1024]
0	0x3d1bf8f0	0.038079202
1	0x3e4f3e49	0.20238604
2	0x3d623c54	0.055233315
3	0x3cfaa2aa	0.030595142
4	0xbe17280f	-0.14761375
5	0xbe06199c	-0.13095707
6	0x3d2a830b	0.04162888
7	0xbe16347e	-0.14668462
8	0x3cc01580	0.023447752
9	0x3dc5cb5e	0.0965793
10	0xbd04c9ef	-0.03241914
11	0xbf0f3484	-0.5593951
12	0xba7e2d27	-0.0009696059
13	0x3d43c506	0.047795318
14	0xbd576db2	-0.052594848
15	0x3dd3af34	0.10336152
16	0xbe089e96	-0.13341746
17	0xbdbd8c66	-0.092552945
18	0xbdd39ab7	-0.10332244
19	0xbde49141	-0.111605175
20	0x3e345c3e	0.17613313
21	0x3e3d93e9	0.18513454
22	0x3dee5129	0.11636574
23	0xbdb48492	-0.08814348
24	0xbe047fea	-0.1293942
25	0x3d97c66e	0.07410894
26	0xbdc0a812	-0.09407057
27	0xbbb2fa72	-0.0054619843
28	0x3e9015bc	0.28141582
29	0xbdd99904	-0.106248885
30	0x3d3256e5	0.0435399
31	0x3e24529d	0.1604714
32	0x3d4b8a21	0.049692277
33	0xbcffb263	-0.031212991
34	0xbe1408a9	-0.14456429
35	0xbdc30443	-0.09522297
36	0xbe114bad	-0.14189024
37	0x3e459eac	0.1929881
38	0xbe4cf8f8	-0.20016849
39	0x3dda25c3	0.10651734
40	0xbd1261a8	-0.035737664
41	0x3dca90ee	0.098909244
42	0xbf11d76a	-0.5696932
43	0xbea1b665	-0.31584468
44	0xbe38383f	-0.17990206
45	0xbe587b8b	-0.21140878
46	0x3d1c6352	0.038180657
47	0x3e46ebce	0.1942589
48	0xbf12e551	-0.5738116
49	0xbcaa75d5	-0.02080814
50	0xbc7912c1	-0.015202225
51	0x3da6ed33	0.08150711
52	0xbea2cd66	-0.31797332
53	0x3c52331d	0.012829569
54	0x3e728af4	0.23685819
55	0x3d29c348	0.041446
56	0xbe4a89bd	-0.19779105
57	0xbe0f2924	-0.13980538
58	0x3d8d3db7	0.06896537
59	0xbe2214e0	-0.15828276
60	0x3e4b2bbf	0.19840907
61	0xbdfadbb7	-0.122489385
62	0xbe3b7409	-0.18305983
63	0x3d944982	0.07240583
64	0xbe39f0ad	-0.18158217
65	0xbd67a4c3	-0.056553613
66	0x3df20638	0.118175924
67	0x3e01b2ec	0.1266591
68	0xbe3b5c64	-0.18296963
69	0xbd2db424	-0.042408124
70	0xbd8a7c35	-0.06761972
71	0x3df7ef4f	0.12106191
72	0xbda3e19b	-0.08002015
73	0x3e57374a	0.21017185
74	0x3d5e0e8a	0.054213084
75	0x3e60371c	0.21896023
76	0xbf066147	-0.52492183
77	0x3e0013db	0.12507574
78	0x3e116165	0.1419731
79	0x3aba6e90	0.0014223624
80	0xbee28e27	-0.4424908
81	0xbd423567	-0.04741421
82	0xbe989b14	-0.29805815
83	0xbd09a9b9	-0.033609126
84	0x3e92d77d	0.2868003
85	0xbdc7b59b	-0.09751435
86	0xbcd3dc45	-0.025861869
87	0xbe066340	-0.13123798
88	0x3eab9386	0.3351099
89	0x3d225323	0.039630067
90	0xbead280a	-0.3381961
91	0xbec89ada	-0.39180642
92	0xbdb48dcc	-0.08816108
93	0x3d99d52c	0.075113624
94	0x3bdd42c0	0.006752342
95	0x3e1da5c7	0.1539527
96	0x3dc62b91	0.096762784
97	0x3ad246fb	0.0016042882
98	0xbe5b74dc	-0.21431297
99	0x3d91e97d	0.071246125
100	0xbcc24a3d	-0.02371704
101	0xbe5b4a8b	-0.21415155
102	0x3d0ede86	0.034880184
103	0xbde2b43f	-0.110695355
104	0xbba6eee1	-0.0050943946
105	0xbd8dc677	-0.0692262
106	0xbdd8817e	-0.10571574
107	0xbc206f4b	-0.009792159
108	0x3e031c35	0.12803729
109	0xbdbc1831	-0.09184302
110	0xbe898baf	-0.26864383
111	0xbe046feb	-0.12933318
112	0xbe2489f7	-0.16068254
113	0x3d3d7a5d	0.046259273
114	0x3df24488	0.118294775
115	0xbf1421e2	-0.578642
116	0xbe5853fa	-0.21125785
117	0x3e0e71de	0.13910624
118	0xbe077021	-0.13226368
119	0xbd3208dd	-0.043465484
120	0x3de13370	0.10996139
121	0xbcd7a4a8	-0.026323631
122	0xbdfd0635	-0.123546995
123	0xbc2d5be7	-0.010580993
124	0xbf190cb3	-0.59785
125	0xbe0896e3	-0.13338809
126	0x3e96917d	0.29407874
127	0x3ddc7ce3	0.10766008
128	0xbe9107f7	-0.2832639
129	0x3e98bf01	0.29833224
130	0x3e221d1c	0.15831417
131	0xbe86824e	-0.2627129
132	0x3e43d9eb	0.19126098
133	0xbe56565f	-0.20931385
134	0x3e13ded9	0.14440478
135	0xbdadeb34	-0.08492127
136	0xbd8b1a6e	-0.067921504
137	0x3d7da77a	0.061927296
138	0xbe2a6696	-0.16640696
139	0xbd5f5105	-0.054520626
140	0x3d959a2e	0.07304798
141	0xbe148ddb	-0.14507239
142	0xbec33274	-0.3812443
143	0xbf0fb7fa	-0.561401
144	0xbd913b37	-0.070913725
145	0xbd4a5fe1	-0.049407844
146	0xbee6261a	-0.44950944
147	0xbdba1953	-0.090868615
148	0xbc8a8cee	-0.016912904
149	0x3e054f31	0.1301849
150	0x3dc62a38	0.09676021
151	0x3ea5da01	0.32392886
152	0x3e45d9e9	0.19321407
153	0x3d23a4a1	0.039951924
154	0x3dc11743	0.09428265
155	0xbe011e0a	-0.12609115
156	0xbe28b5cd	-0.16475601
157	0xbdefc99b	-0.11708375
158	0x3d03e07a	0.0321965
159	0xbc5adfa6	-0.013358986
160	0xbe5e2335	-0.21693118
161	0xbed7a648	-0.4211905
162	0xbdd7b335	-0.10532228
163	0xbef7102e	-0.48254532
164	0x3e572551	0.21010329
165	0xbe050df1	-0.129936
166	0xbcb68096	-0.022278111
167	0x3ded1732	0.1157669
168	0xbd367a5f	-0.044550296
169	0x3e3c41f0	0.18384528
170	0xbe6b9416	-0.23005709
171	0xbeacd116	-0.3375327
172	0x3e2eb8ef	0.17062734
173	0x3cff65e8	0.031176522
174	0xbb1620d9	-0.0022907762
175	0x3d9738e8	0.07383901
176	0xbd87f970	-0.06639373
177	0xbe247d61	-0.16063453
178	0xbe1a13c9	-0.1504661
179	0xbe0ad208	-0.13556683
180	0xbe244897	-0.16043316
181	0xbd5e763f	-0.054311987
182	0x3e453191	0.1925719
183	0xbdf5f25b	-0.12009116
184	0xbd6d169c	-0.05788289
185	0x3e5201cf	0.20508502
186	0xbe7a49d4	-0.24442226
187	0xbb8084e0	-0.00392209
188	0xbe6a6421	-0.22889759
189	0x3e801e95	0.25023332
190	0xbeef3169	-0.46717384
191	0x3e97e60d	0.29667702
192	0xbd97fa8e	-0.074208364
193	0x3dc2f3a9	0.09519131
194	0x3e86a761	0.26299575
195	0x3e715791	0.2356856
196	0x3cc7f972	0.024410937
197	0xbeacefeb	-0.33776793
198	0xbefd36d2	-0.49455887
199	0xbe068e12	-0.13140133
200	0x3cfbf856	0.030758064
201	0x3d68cea8	0.056837708
202	0xbd90ec33	-0.070763014
203	0x3b7c8127	0.003852913
204	0x3ea42eaa	0.32066852
205	0x3c87999b	0.016552737
206	0xbbb655d7	-0.005564432
207	0xbe01940a	-0.12654129
208	0xbe40ab8f	-0.18815444
209	0x3d841e3d	0.0645108
210	0xbb812f27	-0.0039423886
211	0x3e03c10d	0.12866612
212	0xbe49bf2e	-0.19701836
213	0x3e8fe506	0.2810442
214	0x3e1b9e13	0.1519702
215	0xbe8f1db8	-0.2795236
216	0x3c4cb31b	0.012493874
217	0xbe919aae	-0.28438324
218	0x3d9297d1	0.07157863
219	0xbbb9d789	-0.0056714457
220	0xbe0b1708	-0.13583004
221	0x3d8a7aab	0.06761678
222	0xbe520229	-0.20508637
223	0xbbb9af29	-0.0056666327
224	0x3e5e1337	0.21687017
225	0xbd071928	-0.032982975
226	0xbe15921c	-0.14606518
227	0xbd3de55a	-0.046361305
228	0x3e2090a8	0.15680182
229	0xba98e339	-0.0011664397
230	0xbe79948b	-0.24373071
231	0x3d891834	0.066940695
232	0xbe235a7a	-0.15952483
233	0xbe148802	-0.14505008
234	0x3db70641	0.0893674
235	0x3dace4c6	0.084420726
236	0xbd3f396c	-0.04668562
237	0x3cc44be4	0.023961969
238	0xbe6d094e	-0.2314808
239	0x3e368ea0	0.17827845
240	0x3d37ea8b	0.044901412
241	0x3d37cd76	0.044873677
242	0x3db1f4de	0.08689283
243	0xbd397423	-0.045276772
244	0xbe05b5d7	-0.13057648
245	0x3db7cd80	0.08974743
246	0x3cd031fe	0.025414463
247	0xbda598a3	-0.08085754
248	0xbe76b60b	-0.24092881
249	0x3e66b0c2	0.22528365
250	0xbcb764d7	-0.022386951
251	0xbdc32766	-0.09528999
252	0xbf2061ee	-0.6264943
253	0xbd8c0aa1	-0.06837965
254	0xbda45105	-0.08023266
255	0x3c787c4a	0.015166352
