BirdNet_Trained_Model/trained_model_classifiers/Custom_Classifier7.tflite (tflite, 111776 bytes, 2 tensors)

sequential/dense/BiasAdd/ReadVariableOp f4 [27]
0	0xbc9264c2	-0.01787031
1	0xbb206917	-0.00244767
2	0xbd22120d	-0.039567996
3	0xbcf0cae7	-0.029393626
4	0xbd83f56c	-0.06443295
5	0xbd0cd6a9	-0.034384403
6	0xbd5cdb12	-0.05391986
7	0xbd1a0004	-0.03759767
8	0xbd30037d	-0.042972077
9	0x3b57449f	0.0032847298
10	0xbcbbd5c8	-0.022929087
11	0xbd4f303e	-0.050583117
12	0xbd98ce28	-0.07461196
13	0xbd603fe0	-0.054748416
14	0xbd309045	-0.043106336
15	0xbc6924eb	-0.014229993
16	0x3bbc9428	0.0057549663
17	0xbd42b8c1	-0.047539476
18	0xbd7d75b1	-0.061879817
19	0xbd392f17	-0.045210924
20	0xbcda47a1	-0.026645483
21	0xbd72316c	-0.059129164
22	0xbd69c843	-0.05707575
23	0xbd7b5515	-0.061360437
24	0xbd1d3e3d	-0.038389433
25	0xbce5d331	-0.028054805
26	0xbd22dbfd	-0.03976058

sequential/dense/MatMul f4 [27, 1024]
0	0xbf021c85	-0.5082477
1	0x3f0f8436	0.5606111
2	0x3e1431e7	0.14472161
3	0x3d85c2ce	0.06531297
4	0xbece6bcc	-0.40316617
5	0xbeaffb9a	-0.34371644
6	0x3df8bcec	0.12145409
7	0xbf16a68c	-0.5884788
8	0x3e7dc3f9	0.24781789
9	0x3e056804	0.1302796
10	0x3d5e6790	0.054297984
11	0xbfdc5c42	-1.7215655
12	0x3db12ff1	0.08651722
13	0x3d8c7bb3	0.06859531
14	0xbe23b385	-0.1598645
15	0x3ef07e88	0.46971536
16	0xbe9c5950	-0.3053689
17	0xbed7ae60	-0.42125225
18	0xbdd3e4c4	-0.10346368
19	0xbdcdb0cc	-0.10043487
20	0x3e9453d2	0.289702
21	0x3ed75851	0.42059568
22	0x3e9bf9a5	0.304639
23	0xbe30228e	-0.17200682
24	0xbe72d6db	-0.23714773
25	0x3e1fd8d0	0.15610051
26	0xbddbc41f	-0.107307665
27	0x3e273ee8	0.1633259
28	0x3f522302	0.8208467
29	0xbe0b0a6a	-0.13578191
30	0x3e830255	0.25587717
31	0x3ea53138	0.32264113
32	0x3e820d31	0.2540069
33	0x3d32660d	0.043554354
34	0xbe68d3d3	-0.22737055
35	0xbe2416a7	-0.16024266
36	0xbea3d623	-0.3199931
37	0x3f56564c	0.8372543
38	0xbed3b420	-0.41348362
39	0x3eaa6c77	0.33285877
40	0x3d97a564	0.07404593
41	0x3d5fca41	0.054636244
42	0xc00eb804	-2.2299814
43	0xbe2093d3	-0.1568139
44	0xbe223f70	-0.15844512
45	0xbeaa152e	-0.33219284
46	0x3ed864bc	0.42264354
47	0x3e85066f	0.2598147
48	0xbfb547fb	-1.4162592
49	0xbc98bb41	-0.018643977
50	0x3db9668a	0.09052761
51	0x3e5e536c	0.2171151
52	0xbf5e1353	-0.86748236
53	0x3e3c64a0	0.1839776
54	0x3f4a976f	0.7913732
55	0x3e286c62	0.16447595
56	0xbf3cf2f4	-0.7380822
57	0xbf17ab8a	-0.5924612
58	0x3cdc1d6d	0.0268695
59	0xbf27215d	-0.65285283
60	0x3f1528af	0.58265203
61	0xbe729a13	-0.23691587
62	0xbe0c13bb	-0.13679402
63	0x3ed7a8ce	0.42120975
64	0xbf3d1c0a	-0.7387091
65	0xbe5f260b	-0.21791856
66	0x3ec344b3	0.3813835
67	0x3eccbfd5	0.39990106
68	0xbeab9535	-0.33512273
69	0xbe9ad253	-0.3023859
70	0xbe94f756	-0.29094952
71	0x3e80b49a	0.25137788
72	0xbe2641bf	-0.16236018
73	0x3ecf570a	0.40496093
74	0x3e2be3fd	0.1678619
75	0x3ed823f4	0.4221493
76	0xbf95acee	-1.1693399
77	0x3d8b833b	0.068121396
78	0x3e8af9c0	0.2714367
79	0x3de492ad	0.11160789
80	0xbfa9ea4b	-1.3274626
81	0xbe559187	-0.20856296
82	0xbf45cc43	-0.77264804
83	0x3d79ce45	0.06098773
84	0x3f750216	0.9570631
85	0xbee22f69	-0.44176796
86	0xbed26c04	-0.41098034
87	0xbec84790	-0.39117098
88	0x3f37762b	0.71664685
89	0xbcf7ab83	-0.03023315
90	0xbf66c492	-0.9014369
91	0xbfa1c0a1	-1.2636911
92	0xbe4a4baa	-0.19755426
93	0x3e95feeb	0.2929605
94	0xbd02aecb	-0.031904977
95	0x3f1b83a1	0.60747725
96	0x3ea521db	0.32252392
97	0x3e30e130	0.17273402
98	0xbeb921f2	-0.3615871
99	0x3e3a2d02	0.18181232
100	0xbd34eb67	-0.04416981
101	0xbf19ee6c	-0.6012943
102	0x3cd04238	0.0254222
103	0xbea2debb	-0.31810555
104	0x3e16c673	0.1472414
105	0x3d387a2f	0.0450384
106	0xbea4f732	-0.32219845
107	0xbda2618f	-0.07928764
108	0x3e046f46	0.12933072
109	0xbeb8a81d	-0.3606576
110	0xbf4ffc28	-0.81244135
111	0xbe9604eb	-0.29300627
112	0xbe998210	-0.29982042
113	0x3dc5b147	0.096529536
114	0x3e8eb93f	0.27875707
115	0xbfb7c5bd	-1.435722
116	0xbe47f719	-0.19527854
117	0x3e9e2acb	0.30892023
118	0xbe81129d	-0.25209513
119	0xbd51c203	-0.051210415
120	0x3d882865	0.0664833
121	0xbb83a31a	-0.004017246
122	0xbf018a97	-0.50602096
123	0x3c89a46b	0.016802033
124	0xbfb6b6d4	-1.4274545
125	0xbea55b29	-0.32296112
126	0x3f843af7	1.0330495
127	0x3e68ecdd	0.22746606
128	0xbebdd310	-0.3707509
129	0x3f00d91c	0.5033128
130	0x3eaf2b15	0.34212556
131	0xbf792ef6	-0.9733728
132	0x3eeaef2b	0.45885596
133	0xbf274d7e	-0.6535262
134	0x3e821707	0.25408193
135	0xbecb7588	-0.39738107
136	0xbed65235	-0.41859594
137	0x3e216a8a	0.15763298
138	0xbf3cfedb	-0.7382638
139	0xbd81c2dc	-0.063359946
140	0x3dad91b4	0.08475056
141	0xbee94a68	-0.4556458
142	0xbf625804	-0.8841555
143	0xbfd91393	-1.6959099
144	0xbd34a7fa	-0.044105507
145	0x3c62cd9b	0.0138429655
146	0xbee8bb14	-0.4545523
147	0xbe8b3224	-0.27186692
148	0xbc9f08a3	-0.019413298
149	0x3ed71305	0.42006698
150	0x3e354949	0.17703737
151	0x3f4a6760	0.7906399
152	0x3ee97b0e	0.45601696
153	0x3e43f037	0.19134603
154	0x3eb8ebc4	0.36117375
155	0xbe69d917	-0.2283672
156	0xbe861c7d	-0.2619361
157	0xbe8f238e	-0.27956814
158	0x3d4c00dd	0.04980551
159	0xbd93dc44	-0.07219747
160	0xbf465d80	-0.7748642
161	0xbf0965b1	-0.53670794
162	0xbedc5747	-0.43035337
163	0xbf7b52df	-0.98173326
164	0x3ea9a28d	0.3313183
165	0xbeaf88da	-0.34284097
166	0xbd7550c8	-0.059891492
167	0x3e73a3c8	0.23792946
168	0xbe5eb3ba	-0.21748248
169	0x3e971029	0.29504517
170	0xbf683f49	-0.90721565
171	0xbf070914	-0.5274823
172	0x3f173f3f	0.5908088
173	0x3d37af29	0.04484478
174	0x3bdd9280	0.006761849
175	0x3d39dc78	0.04537627
176	0xbe55dea1	-0.20885707
177	0xbe54c1c9	-0.20777048
178	0xbec7fc2a	-0.39059573
179	0xbdfac8ba	-0.12245317
180	0xbed1ff9a	-0.4101532
181	0xbea5ba4d	-0.323687
182	0x3ee58d5d	0.44834414
183	0xbc406238	-0.011742167
184	0xbcb44b03	-0.022008425
185	0x3f59267f	0.84824365
186	0xbf1c876f	-0.61144155
187	0xbcaa554f	-0.020792631
188	0xbf3384b5	-0.7012437
189	0x3fa3f90f	1.2810382
190	0xbf8eeaea	-1.116544
191	0x3fb087c4	1.3791432
192	0xbee6bcbf	-0.45065877
193	0x3e616c87	0.22014056
194	0x3ea4b8d0	0.3217225
195	0x3eea3741	0.4574528
196	0x3e217b38	0.1576966
197	0xbf457a7b	-0.77140015
198	0xbfbe12b9	-1.4849464
199	0xbf090fa3	-0.53539485
200	0x3b173b53	0.0023076131
201	0x3e041f2e	0.12902519
202	0xbdffc4a8	-0.12488681
203	0x3e48b70f	0.19601081
204	0x3f6f6b2e	0.9352292
205	0x3bab4aac	0.0052274074
206	0x3caaa6d8	0.02083151
207	0xbea25904	-0.3170854
208	0xbeb9677c	-0.36211765
209	0xbd55596a	-0.052087225
210	0xbd191889	-0.037376914
211	0x3f24654b	0.6421706
212	0xbed8e9f5	-0.42365995
213	0x3f3a64f2	0.7281028
214	0x3f0f79bd	0.5604513
215	0xbf150be2	-0.58221257
216	0x3c0523aa	0.008126179
217	0xbed84f4b	-0.42247996
218	0x3e32159a	0.17391053
219	0xbb83be16	-0.0040204627
220	0xbf0f6414	-0.5601208
221	0xba9f2b00	-0.0012143552
222	0xbea60b59	-0.32430533
223	0x3e43c6c8	0.19118798
224	0x3ee5a2d1	0.44850782
225	0xbd7e095e	-0.062020652
226	0xbe7f88ee	-0.24954578
227	0xbeacc0fa	-0.3374098
228	0x3f0b952e	0.54524505
229	0x3d109bdc	0.03530489
230	0xbeb586a8	-0.35454297
231	0x3e35fceb	0.17772262
232	0xbec2ecc3	-0.3807126
233	0xbefc350c	-0.49259222
234	0x3e427791	0.18990923
235	0x3e676b78	0.2259959
236	0xbe28c4d5	-0.16481335
237	0xbcba9380	-0.022775412
238	0xbec4693d	-0.3836154
239	0x3ef31de5	0.47483745
240	0x3dee7216	0.11642854
241	0x3ebf8534	0.37406313
242	0x3df38f0a	0.11892517
243	0xbdf6f700	-0.1205883
244	0xbeddd85b	-0.4332913
245	0x3d8b2670	0.06794441
246	0xbc0a6cc7	-0.008448786
247	0x3bc0a6f7	0.0058792788
248	0xbf071386	-0.52764165
249	0x3f267104	0.650162
250	0x3e0ff346	0.14057645
251	0xbe24efff	-0.16107176
252	0xbfab7b8f	-1.3397082
253	0xbdc9dc2c	-0.098564476
254	0xbe747174	-0.23871404
255	0x3e8024a6	0.2502796
