BirdNet_Trained_Model/trained_model_classifiers/Custom_Classifier16.tflite (tflite, 595344 bytes, 14 tensors)

sequential/dense_1/MatMul;sequential/dense_1/Relu;sequential/dense_1/BiasAdd f4 [96]
000000 c2 08 e8 c0 5d 9d 29 c2 49 18 3d c2 a9 69 85 c0
       -7.251069 -42.403675 -47.273716 -4.169148
000010 f1 4b 43 42 8e 13 fa c1 f1 df 65 c2 2d c0 3b 42
       48.82416 -31.259548 -57.468693 46.93767
000020 6b e0 f2 41 86 9f 10 c2 da 61 f1 c1 68 da 44 41
       30.35958 -36.155785 -30.17278 12.303322
000030 58 c5 81 c2 c1 1d 85 42 0f 83 59 be 14 5f ef c0
       -64.88544 66.55811 -0.21241401 -7.480356
000040 45 a0 80 42 30 79 19 c2 cd fd 54 c2 7c e5 97 c0
       64.31303 -38.368347 -53.247852 -4.746763
000050 a9 a2 55 c2 32 1e a6 c1 a3 69 86 c0 04 5f 1f c2
       -53.408848 -20.764744 -4.200395 -39.84279
000060 27 af d6 41 03 ca f5 c1 b6 76 45 42 aa ed dc 41
       26.835524 -30.723639 49.36593 27.616047
000070 11 fc 36 40 48 2c d7 3e 3c 81 aa 41 b8 de fc 40
       2.859135 0.4202597 21.313103 7.9021873
000080 35 6f eb c1 f2 48 70 42 52 d2 ca c0 a8 30 d4 c1
       -29.4293 60.071236 -6.338174 -26.523758
000090 3c 82 c3 41 ec 07 de 3f d2 71 70 c2 b9 da 0b 42
       24.438591 1.7346168 -60.111153 34.963596
0000a0 ba 84 9e 41 10 e8 5c 41 98 47 17 42 31 77 d2 c1
       19.814808 13.806656 37.819916 -26.308199
0000b0 c8 38 7d c1 16 95 f6 41 13 49 8d 42 7c b5 24 42
       -15.826363 30.822796 70.64272 41.17723
0000c0 7d 25 f2 41 e9 b8 93 42 7e de fd c0 72 1c 64 c0
       30.268305 73.86115 -7.9334097 -3.5642362
0000d0 ed 93 41 c2 e0 40 3a 42 b6 b4 92 42 0a 32 1d c1
       -48.39446 46.563354 73.35295 -9.824717
0000e0 a1 78 3e c2 f5 1c c6 41 73 8e 31 c2 d3 2f 62 c1
       -47.6178 24.76414 -44.38911 -14.136676
0000f0 e7 22 2e c2 dd fc 86 42 b5 80 a8 c1 12 06 92 c0
       -43.534084 67.49387 -21.062845 -4.563241
000100 c3 7f 0b c2 bb d6 02 c2 74 75 27 42 d3 9f 50 c2
       -34.874767 -32.709698 41.8647 -52.15608
000110 2a 98 97 c1 c5 ea 85 c1 93 ab b0 c1 f7 06 95 42
       -18.949299 -16.739634 -22.083776 74.5136
000120 ab c7 de 41 fb 33 c9 c0 74 9d 75 41 04 2b 8e 41
       27.847494 -6.2875953 15.350941 17.771004
000130 12 7b dc c1 ee be 3a 42 59 69 ef c1 9a 4d 7f 42
       -27.560093 46.686455 -29.92644 63.825783
000140 8f 42 b4 41 fe da 23 c0 52 3b 8e 42 fd dd 05 42
       22.5325 -2.5602412 71.11586 33.466785
000150 d0 bc 8b c1 ef 22 76 c2 c9 5c f6 be 31 e5 20 41
       -17.467194 -61.534115 -0.48117664 10.055955
000160 07 b8 e2 c1 fc 17 9a 42 6f ed 1d c2 c9 ca 12 42
       -28.339857 77.046844 -39.48187 36.698032
000170 98 4a 40 c2 27 ac 3c 42 47 18 32 42 da b4 ff 41
       -48.072845 47.168118 44.52371 31.963306

sequential/batch_normalization/batchnorm/mul_1;sequential/batch_normalization/batchnorm/add_1;sequential/dense_1/MatMul;sequential/dense_1/Relu;sequential/dense_1/BiasAdd f4 [96, 96]
000000 f8 ba b7 3c 1c bd 26 3f 74 c0 ee be d9 f0 a9 bd
       0.02242802 0.6513231 -0.46631205 -0.08297891
000010 71 aa 84 bb 17 85 0f 3a 72 00 6b bd 88 bd c9 3e
       -0.0040486385 0.0005474849 -0.05737347 0.39402413
000020 35 2d ba bd fa 1f 43 bc 11 df e8 3f 97 48 e5 3f
       -0.09090654 -0.011909479 1.8193074 1.7912778
000030 33 be 0a 3f 90 f6 af 3f 74 bc a8 3d 25 e1 4b 3c
       0.5419647 1.374712 0.082390696 0.012443815
000040 a8 7a ba b8 9a ee 16 be d1 60 33 c0 3a 99 be 3f
       -8.892018e-05 -0.14739457 -2.8027842 1.4890511
000050 fd 3c 8e bb db be 7a be 95 05 ea be 55 f1 86 bb
       -0.0043407665 -0.24486868 -0.45707384 -0.0041181245
000060 05 c2 f1 bb b0 a3 77 3c 92 af 16 be 58 31 85 bb
       -0.0073778653 0.01511471 -0.14715412 -0.00406472
000070 f5 33 09 3d 3e 45 2b bd 2a bc 40 be 80 14 cf bc
       0.033496816 -0.04181408 -0.18821779 -0.02527833
000080 58 de 6c 3d 14 82 16 3f 97 c3 ad bc 5d ec f5 bf
       0.05782923 0.58792233 -0.021211429 -1.9212757
000090 12 fb ad bf d6 ff 57 3c 8a 8a 17 bf bb d3 2d 3b
       -1.3592246 0.013183555 -0.5919577 0.0026523906
0000a0 d6 fe 8d be 62 29 c4 3e 9d 1e 12 be 15 01 9c 3c
       -0.27733487 0.38312823 -0.1426949 0.019043485
0000b0 37 a5 8e bc 26 c2 07 3d 00 a4 72 bc c2 75 03 be
       -0.017412765 0.03314414 -0.014809608 -0.1283789
0000c0 a1 f1 21 3d 9c a1 32 3e 56 02 11 be f3 ff 13 bc
       0.039537076 0.17444462 -0.14161047 -0.009033191
0000d0 8c 85 c1 be c5 91 a3 3b 55 96 00 bd 6f 8d 12 bd
       -0.377972 0.0049917423 -0.031393368 -0.035779413
0000e0 3c bd 80 bc 06 d8 95 bb 4e 7a 32 bf e0 89 9e 3d
       -0.015715234 -0.004572871 -0.6971787 0.07741141
0000f0 6f 6f 3d 3d 77 32 eb 3b 70 f2 1d 40 bf f1 95 3d
       0.04624885 0.0071776467 2.4679222 0.073215
000100 6c c1 49 3b d9 e2 bf bc d0 cf 27 3b 38 e9 9c be
       0.0030785454 -0.0234236 0.0025606044 -0.30646682
000110 b2 6b c1 c0 2a 7d cd 3b be 09 9e 3c 48 2e 95 bc
       -6.0443964 0.0062710242 0.019291755 -0.018210545
000120 15 1b 26 40 d5 29 14 bb b0 cd d9 bd f8 c3 39 3d
       2.595403 -0.0022607942 -0.10634935 0.045352906
000130 20 01 c6 bb aa 87 a0 3e 35 77 07 c0 73 18 0d 3f
       -0.0060426146 0.31353503 -2.1166508 0.5511543
000140 27 3a bb be f7 1c ab bd c2 f2 fe bf 9b 97 e4 3d
       -0.36567804 -0.08355134 -1.9917834 0.11161729
000150 aa 2e ca 3e b9 3d 2d 3b 09 72 37 bf 3f 0e c2 bf
       0.39488727 0.0026434495 -0.7165838 -1.5160598
000160 be c7 46 40 89 d1 cb 3d 7a 68 99 3e 29 fc 10 bc
       3.1059413 0.09952075 0.29962522 -0.008849182
000170 df c8 b0 3c 95 4e b0 3e bd d0 6c be 94 ce bb 3c
       0.021580158 0.34434953 -0.23126502 0.022925653
000180 69 d1 de 3c bc 0b b7 be fa e8 da be 4d 39 4c be
       0.027199464 -0.3575114 -0.42755872 -0.19943734
000190 8b c0 8b 39 20 e4 91 3a 1b 22 67 3d 97 e9 50 bf
       0.00026655602 0.0011130609 0.05642901 -0.8160643
0001a0 d0 d5 b6 bc 3e bc 21 3d b0 eb 23 c0 ce 9b 9f bf
       -0.02231875 0.039486162 -2.5612602 -1.2469423
0001b0 06 36 e4 be 3e 9d 7a bf 2a 75 3d bd 07 c1 b2 bc
       -0.44572467 -0.9789618 -0.046254314 -0.021820558
0001c0 f5 29 07 39 81 d8 44 bf b1 e5 31 c0 62 3a c7 bf
       0.00012890233 -0.7689286 -2.7796443 -1.5564692
0001d0 56 47 4c 3c 92 1f fa be 8a 43 39 bf b3 0f cd 3b
       0.01246818 -0.4885221 -0.7236868 0.006257975
0001e0 62 9a 3a 3a b3 9b 5d bc ca ca 6d bf 41 0c 96 bb
       0.0007118342 -0.013525891 -0.92887557 -0.0045790975
0001f0 3a 70 f2 3c 79 ce ec 3b fb d4 38 bd 38 8c 5e 3d
       0.02959453 0.007226762 -0.04512499 0.05433294
000200 56 3c b9 3d f1 d9 a2 3e a2 1c 0c 3c b8 4a 88 3f
       0.09044711 0.318069 0.0085517485 1.0647802
000210 3d a1 ba bf b2 c3 97 3c 8d 49 c6 be ba 20 88 3a
       -1.4580456 0.018525932 -0.3872799 0.001038573
000220 97 7e 72 be b5 fd 47 3f 9d 63 6f be 46 50 6a 3c
       -0.23681103 0.781215 -0.23377843 0.014301365
000230 77 75 a3 bd b3 62 b2 bc 0c ec 36 3c c2 bc b9 bd
       -0.07981389 -0.02177558 0.011164676 -0.09069206
000240 30 be db 3c 70 6d 2b 3e cb c6 1d be 57 07 85 3c
       0.026824087 0.16740966 -0.15407865 0.016238851
000250 7e d6 30 3f 44 20 cb 3b 8e 18 3e bc 6f 5f 09 3d
       0.6907729 0.0061989147 -0.011602534 0.03353828
000260 0f 44 92 3c 74 fb d2 3c 6b 43 ee 3e b7 12 5c bd
       0.017854718 0.025754668 0.4653581 -0.053728785
000270 e0 9a 16 3d 06 12 64 3d e9 2a 27 40 69 94 7e 3d
       0.036768794 0.05568125 2.611994 0.062153254
000280 0e 9a 0e bd 02 88 7a 3c 44 e4 c9 bb b3 ea 62 be
       -0.034814887 0.015291216 -0.0061612446 -0.22159843
000290 e7 f3 9d 3f a0 55 3d bc a2 60 fa bc 79 cd 97 bc
       1.2340058 -0.011556059 -0.030563656 -0.018530594
0002a0 4b 2a f5 bf f0 6d a5 3b fb 8f cd 3c 5f f9 b3 bc
       -1.9153532 0.005048506 0.02509307 -0.021969495
0002b0 0b d7 ad bb 6f d9 e5 3e be 01 c5 bf e6 a5 a1 3f
       -0.005305176 0.4489245 -1.5391157 1.2628753
0002c0 e4 fb 48 bd a8 2d e3 bd 2d be 0a c0 ea a1 26 bf
       -0.049068347 -0.110926926 -2.1678574 -0.6509081
0002d0 2f 30 2d 3f a0 c2 85 3b 33 05 19 3f 89 fe 26 40
       0.6765165 0.004082039 0.5977356 2.6092856
0002e0 34 02 07 c0 8b 6d 77 be a0 4a f5 be fa 58 ff b9
       -2.1095095 -0.24162881 -0.47908497 -0.00048703683
0002f0 63 83 0e 3c 8f 92 b4 be af 53 07 3f e9 a3 f0 bc
       0.008698317 -0.35268065 0.52862066 -0.029375033
000300 84 70 c1 3b 5e 2f f8 be cc 44 fc 3e bd 99 77 3e
       0.0059033055 -0.48473638 0.49271238 0.2417974
000310 31 58 65 3b 29 98 35 bb e4 98 27 3d 24 02 92 3e
       0.0034995193 -0.0027709103 0.040917292 0.28517258
000320 f5 0a 9b bd 71 dc 26 3c 5a 45 ff 3f 2e 74 25 3f
       -0.07570449 0.010184393 1.994304 0.646304
000330 eb b5 08 bf 71 ec cc 3f a4 5c b2 bd 8e 2f ed bc
       -0.53402585 1.6009656 -0.08709076 -0.02895334
000340 e8 ff de 38 45 6b 1d 3e 6e 5b 1e 40 fd 0f 8c bf
       0.00010633451 0.15372951 2.4743304 -1.0942379
000350 66 d0 a5 3c 2d 1b ee 3e 90 69 12 bf f0 53 2c 3c
       0.020240974 0.46505108 -0.57192326 0.010518059
000360 12 2d 80 3b de 1f d0 3c 2f 33 29 3f 91 94 00 3a
       0.003911623 0.02540582 0.66093725 0.00049049506
000370 0d e8 14 3d 13 0b e6 bc 2b e6 a8 3d 26 4d 52 bc
       0.036354113 -0.028081452 0.08247026 -0.012835776
000380 2e bd d0 3d ec 72 09 3f e6 03 9e 3b b9 a8 c3 3f
       0.10192333 0.5369098 0.004822242 1.5285865
000390 1c 02 bb 3f 47 01 90 bc 77 b2 11 3f b4 af a9 bb
       1.4610019 -0.017578734 0.5691294 -0.005178416
0003a0 77 3f 04 3e ca 89 02 3f 01 8d 5b 3e b5 85 53 3c
       0.12914835 0.509915 0.21440507 0.012910296
0003b0 e5 fa 30 bd 2b 0f 2e 3c 9e 55 bb bc a1 95 09 3e
       -0.04320802 0.0106237335 -0.022867974 0.13435985
0003c0 b1 1c 09 3d 02 29 9e bd 28 4d 5f 3e 59 e3 61 3c
       0.033474628 -0.07722665 0.21806777 0.013787114
0003d0 0c 03 02 bf 5b a4 37 ba be c9 16 bd 84 78 be 3d
       -0.507859 -0.0007005387 -0.03681349 0.0930033
0003e0 fb fe 13 3d 19 44 c7 bc f9 0b 8a bf c0 0e 57 3e
       0.03613184 -0.024324464 -1.0784904 0.2100172
0003f0 5d 60 c3 3c cc 75 a5 3d ef 42 f5 bf 06 18 01 bd
       0.02384966 0.080791086 -1.9161052 -0.03151705

sequential/dense_2/MatMul;sequential/dense_2/Relu;sequential/dense_2/BiasAdd f4 [96]
000000 06 fb 72 c1 08 44 4c c1 3f 51 53 40 2b 41 7f c1
       -15.186285 -12.766609 3.3018339 -15.95341
000010 ca 07 e2 40 94 81 a8 c1 88 9f 32 c0 b5 05 3e 41
       7.063451 -21.06327 -2.790987 11.876393
000020 37 3a 1c c0 7b a2 76 c1 46 53 32 c1 26 18 93 41
       -2.4410532 -15.414668 -11.14533 18.386791
000030 56 48 4a c1 9a ca bf c0 20 af 65 c0 56 d1 15 bf
       -12.64266 -5.9934816 -3.5888138 -0.58522546
000040 4c b8 d7 3e 67 16 34 c1 9f bd 3c 41 48 80 dd 40
       0.42132795 -11.255469 11.796294 6.9219093
000050 75 3b 35 3f 75 2b fd 3e a7 fd 5f c1 8e 83 35 40
       0.7079385 0.49447218 -13.999427 2.8361545
000060 72 91 d5 40 39 3c 58 40 0a 0c 09 40 7a a5 51 c1
       6.6740046 3.3786757 2.1413598 -13.1029
000070 e2 e0 7d 41 81 9d 31 bf 17 b5 b6 be 1d d8 57 c1
       15.867403 -0.69380957 -0.35685036 -13.490262
000080 7d 1a 47 41 aa 33 e8 bf bd da d4 40 60 98 0d 40
       12.443967 -1.8140767 6.6517015 2.2124252
000090 76 84 2c c1 c0 44 1d c1 4c a1 c7 41 5b 77 1c 41
       -10.782339 -9.829285 24.953758 9.7791395
0000a0 ae d4 cf c0 5c 72 8a c1 00 89 b2 41 12 a1 80 41
       -6.494712 -17.30584 22.316895 16.078648
0000b0 8b 80 91 40 50 19 72 c1 84 3f 31 c1 42 75 8b 40
       4.5469413 -15.13118 -11.078007 4.3580637
0000c0 f0 c7 74 bf ea 38 23 40 49 cd d5 c0 1d 93 8c 41
       -0.9561758 2.5503488 -6.681309 17.571833
0000d0 31 39 5b c1 df ed ce 40 27 5f 59 c1 2d 71 ad 40
       -13.701463 6.466537 -13.585731 5.4200654
0000e0 b1 e5 3b 40 0b a5 30 40 e8 45 06 41 19 18 ea c0
       2.9358943 2.7600734 8.392067 -7.3154416
0000f0 a1 c1 15 c0 96 a0 c5 c0 10 14 b2 40 88 72 d8 40
       -2.3399432 -6.175853 5.564949 6.763981
000100 d7 7c a9 41 af 02 44 c1 b2 95 1f 3e 4f 3a 0a c1
       21.185957 -12.250655 0.15584448 -8.6392355
000110 33 00 09 41 96 38 2c c0 e5 a9 2c c1 bd 8b 86 c1
       8.562549 -2.6909537 -10.791478 -16.818232
000120 64 4a 00 c0 f8 53 9c bf 6c 01 32 40 28 fe a8 c0
       -2.0045404 -1.2213125 2.7813368 -5.281025
000130 0a c4 69 c1 8a 26 64 c1 a5 cb 75 40 88 82 90 c1
       -14.610361 -14.259409 3.8405545 -18.063736
000140 71 c6 59 40 97 cc 6e 41 9b 8e 98 c0 09 0e d2 3f
       3.402737 14.924949 -4.767408 1.6410533
000150 3c 27 50 41 ab 44 43 c1 63 92 3c 41 05 34 8d 40
       13.009579 -12.204265 11.785739 4.4126
000160 29 bb 29 3f 91 22 0f 41 38 15 8c c1 1d a1 a5 c1
       0.6630121 8.945939 -17.51036 -20.703669
000170 a8 a4 b5 c0 6b b9 a3 c1 db fb 81 bf 8d 35 e7 3f
       -5.6763496 -20.465536 -1.0154985 1.8063217

sequential/batch_normalization_1/batchnorm/mul_1;sequential/batch_normalization_1/batchnorm/add_1;sequential/dense_2/MatMul;sequential/dense_2/Relu;sequential/dense_2/BiasAdd f4 [96, 96]
000000 2a 06 19 3e 42 45 2c bc 02 02 4e bd a2 78 24 bb
       0.14943758 -0.010514559 -0.050294884 -0.0025096317
000010 da 8a 41 3d 69 43 22 be b1 a8 ec bb 3e 35 e9 bc
       0.04725156 -0.15846027 -0.007222258 -0.02846777
000020 c1 6d 2e 3e cd a8 c8 3d 1b 77 36 3c a2 f5 d3 bc
       0.17034055 0.09797821 0.011136795 -0.025873963
000030 3e 12 78 bc 24 47 6b 3e da d5 8b 3e aa eb a8 bd
       -0.015141068 0.22976357 0.27311593 -0.08248074
000040 52 8b 06 bd b2 2c ea bd 18 07 f2 bd 46 33 65 3d
       -0.03284771 -0.11434306 -0.11817759 0.0559571
000050 4b 05 c1 bb 5d bd b1 bd 51 8a 24 be 6e bb ce 3d
       -0.0058905235 -0.08678696 -0.16068389 0.10094343
000060 10 52 0b 3e aa fa 8a 3b a8 8c d2 3d e6 ec eb 3c
       0.13605523 0.0042413073 0.10280734 0.028799485
000070 0a 1c 8c 3d b4 49 b8 3c 61 52 de 3d 85 64 9b bd
       0.068412855 0.022496082 0.10855556 -0.07587532
000080 3c cc 9f 3e 52 b6 f4 3d 16 ba 02 3e 6a 3c f2 3e
       0.31210506 0.11948837 0.12766299 0.47311717
000090 16 52 27 be 88 26 0a bd d0 50 6a 3e cf 8d d5 3d
       -0.16339907 -0.033728153 0.2288239 0.104274385
0000a0 b4 55 4a 3b df ad 00 3e df 53 ad 3d ee 60 85 3e
       0.0030873837 0.12566327 0.08463263 0.26050514
0000b0 bf bc 79 3e 03 a0 2d 3e d5 8f 5e be 1a 75 88 bc
       0.24388407 0.16955571 -0.21734555 -0.0166574
0000c0 09 f9 66 bc 57 d4 4b 3d c5 f2 80 3d 6e 75 12 bd
       -0.014097461 0.04976305 0.062963046 -0.03575652
0000d0 97 f1 62 bc c8 8c bf 3c 7d ae 32 3e da 48 c8 bd
       -0.013851545 0.02338256 0.17449374 -0.0977952
0000e0 39 72 5c 3d be 15 e8 bb 7a 14 0c bd 34 5c 8b 3c
       0.05381987 -0.00708267 -0.034199215 0.01701174
0000f0 1e f8 83 3d 04 cb 0a 3e 98 36 6f 3e 69 29 ee bb
       0.06443809 0.13554007 0.2336067 -0.00726812
000100 1c c6 fc 3d 79 20 1a bc a5 ba fc 3c a1 5a 2c ba
       0.12342474 -0.009407156 0.030850718 -0.0006574784
000110 da 13 af 3d e1 71 65 ba b8 d7 48 be 0c be 46 be
       0.08548708 -0.0008752626 -0.1961354 -0.19408435
000120 44 5b 69 bd b8 1c 61 3e 24 b5 5a 3d 43 b4 99 3c
       -0.056971803 0.21983612 0.053395405 0.018762713
000130 ee b8 80 3d 88 fa 3f bc 3d 32 b3 3d 6c 52 87 bb
       0.062852725 -0.011717446 0.087498166 -0.0041296985
000140 aa 54 f7 3d 85 b9 55 3c 06 7c 54 bc 0f 99 ad bd
       0.12076695 0.01304472 -0.012969023 -0.08476459
000150 a4 6b 11 bd 23 98 e2 3d cc 51 0c be 44 f1 ad be
       -0.035503045 0.11064174 -0.13703078 -0.33973134
000160 53 e8 34 3c f3 0f df 3d 03 5c dd 3c 3d e6 6f bd
       0.011041719 0.10891714 0.027021414 -0.05856918
000170 37 02 f0 3d 77 f8 9a 3d b0 bd 30 3e 11 24 c9 3d
       0.117191724 0.07566922 0.1725986 0.09821332
000180 50 a9 1b be e6 ce f4 bc 50 da 0f bd 57 49 b4 3a
       -0.15201306 -0.029883813 -0.03512031 0.0013754767
000190 76 1e 97 3d 5a fa a8 3c 7e fa 10 bc d2 75 35 3c
       0.07378857 0.02062719 -0.0088487845 0.011075454
0001a0 61 77 c5 bd 23 b9 9d bd 28 39 e6 3e 98 96 22 bd
       -0.0964191 -0.07701328 0.44965482 -0.0396944
0001b0 7a d5 ad bc 74 04 2e 3e cf 16 78 be 77 58 48 be
       -0.021219958 0.16993886 -0.24227451 -0.19564997
0001c0 a9 5c 3d 3d 9d 49 59 bd d5 ab 25 3e 6d 00 ff 3c
       0.046230946 -0.05304872 0.1617883 0.031128133
0001d0 38 c3 8c 3b b4 d3 d7 3d 10 70 a4 3d 0a 95 b1 3d
       0.004295733 0.10538426 0.08029187 0.08671005
0001e0 df 03 21 bd 9d 2f a2 3b 4a a1 20 3e 50 eb 14 3d
       -0.039310332 0.0049495236 0.15686527 0.036357224
0001f0 ee fe bf bd 2e 37 55 be 41 d1 66 bd 54 6a e1 3d
       -0.09374796 -0.2082183 -0.056351904 0.110066086
000200 72 ca 4b be 5e a5 8c bc 1e 3e fc bc 8a dc 53 be
       -0.19901446 -0.017168697 -0.030791339 -0.20689598
000210 a9 05 33 3e 5e 92 b9 3c 31 dc 57 be 86 d0 96 bd
       0.17482628 0.022652801 -0.2108009 -0.073639914
000220 6c 95 86 bd e3 74 7a bd b6 b8 2d 3d ff 95 2b 3e
       -0.06571469 -0.061146628 0.042412482 0.16756438
000230 c1 dc 01 3e 85 e0 1f bd aa f3 04 3f c9 be 49 3d
       0.12681867 -0.039032478 0.519343 0.049254213
000240 e1 17 85 bd 1e d9 ca 3e a1 dc 65 3d 41 7f e1 3c
       -0.06498695 0.39618772 0.05611861 0.0275265
000250 38 9b 0d be 9b 9b 04 bd 79 a7 44 3e a1 d2 c2 bd
       -0.13828743 -0.03237496 0.19204511 -0.095128305
000260 d3 dc d9 3d c0 eb 28 3e b3 45 3d bb 33 bb 3b bd
       0.10637822 0.16496181 -0.0028880655 -0.045832824
000270 f7 f5 9e bd e4 1f 94 3d 27 a6 fb 3d 54 b5 0c bd
       -0.07761758 0.07232645 0.122875504 -0.034352615
000280 9d 95 e2 bd f5 22 36 bd 64 13 c5 bc f6 49 54 ba
       -0.11063693 -0.04446693 -0.024057098 -0.0008098179
000290 d5 ee a1 3d a7 dd 21 3b c5 25 eb be 66 77 90 bd
       0.07906882 0.0024698765 -0.45927253 -0.070540234
0002a0 7e e5 6d 3d 85 cc aa 3e 72 e5 b0 bd 3e 8a 46 bd
       0.05808019 0.3335916 -0.08637513 -0.04847168
0002b0 ee 82 d7 bc 97 32 25 3d 9d 71 55 bd 3f 41 18 3b
       -0.02630755 0.04033145 -0.052110303 0.002323225
0002c0 c5 62 4c 3e 17 6f 70 3d 2b e7 9c 3d 39 33 b8 bd
       0.19959553 0.058699694 0.07661279 -0.08994145
0002d0 70 59 63 bd 27 e3 c3 bd b5 5c cf 3d 8c f7 c7 3e
       -0.055505216 -0.0956481 0.10125104 0.3905605
0002e0 ee 63 a0 3c 74 19 bb 3d 01 49 93 bd 1c 77 64 3e
       0.0195789 0.09135714 -0.07191659 0.22311062
0002f0 c2 92 9a be 83 3c 08 bc f3 9e e1 3d 36 4a 40 3e
       -0.30190092 -0.008315208 0.11016645 0.18778309
000300 7b cc 66 3e 9c 4a 53 bb 11 09 b6 3c ef 16 2e 3a
       0.2253894 -0.0032240516 0.02222112 0.00066409906
000310 c2 3b 7a bd 0c 44 ad be 92 d1 0f 3c 15 9a af 3c
       -0.061092146 -0.33840978 0.008777993 0.021435777
000320 aa ab 0f be 3b c6 ac 3d 6b 81 5a be 5d dc 8c bd
       -0.14030328 0.08436247 -0.21338432 -0.068779685
000330 8c 24 9a 3c 3f b4 fc 3c a5 c9 58 3d 69 4f 81 3e
       0.018816255 0.030847667 0.05292668 0.25255898
000340 92 37 3c bd 76 74 d9 3d bf c6 78 3e 41 15 be 3d
       -0.045951433 0.10617916 0.24294566 0.092813976
000350 53 4c a4 ba d4 58 02 3e 39 8a 86 3e 62 6c 0b bc
       -0.0012534953 0.12729198 0.2627733 -0.008509727
000360 4f 98 04 3e 6f 46 0c 3b 75 10 26 be 7b c6 5e bd
       0.12948726 0.0021404286 -0.16217215 -0.054388504
000370 4b 0a 83 bd 0f 22 9c 3e d7 21 20 bd 6f aa 89 3d
       -0.063984476 0.30494735 -0.039094772 0.06721961
000380 a8 77 83 be 38 b7 c3 3d cf 6f 30 3d 85 b2 79 3e
       -0.25677228 0.095564306 0.04307538 0.24384506
000390 b9 10 9f 3d 6d e2 d9 3c 59 fd 6f 3e b3 bc 2c 3c
       0.077668615 0.026597226 0.23436488 0.010543036
0003a0 cf 3c 00 3e 6a 34 ae 3d ee b4 f0 3c 99 73 ea 3d
       0.12523197 0.08506091 0.029383149 0.1144783
0003b0 49 ef 4b be 9a ea 3d be 50 99 34 bf fd 07 d0 bc
       -0.19915499 -0.18546525 -0.70546436 -0.025394434
0003c0 58 d7 d6 bd 5b 6b 21 be 7f c2 55 bd 85 a0 0b bd
       -0.10490292 -0.15763609 -0.05218744 -0.03408863
0003d0 90 9c 97 3c c6 11 41 bd 95 39 59 be 0f dc b2 3d
       0.018507272 -0.04713609 -0.21213372 0.08733379
0003e0 02 e0 e4 bd 47 50 19 be ce b6 37 3d af e9 39 3c
       -0.111755386 -0.1497203 0.04485207 0.011347218
0003f0 9c 01 71 bd 4e 65 8c 3d 14 71 42 3e 22 f0 58 bc
       -0.058839425 0.0685526 0.18988448 -0.013240846

sequential/dense_3/MatMul;sequential/dense_3/Relu;sequential/dense_3/BiasAdd f4 [96]
000000 56 1c 3f 41 86 65 99 c1 90 04 0a 41 4a 95 45 41
       11.944418 -19.174572 8.626114 12.348948
000010 9a b2 9e 40 44 61 8a c0 67 99 8e 40 26 a5 05 c1
       4.959302 -4.3243732 4.456226 -8.352819
000020 e9 09 0c c0 fb 0d c8 c1 04 0d 0a c0 ba c7 10 41
       -2.1881049 -25.006826 -2.1570444 9.048761
000030 6c 67 72 c1 7d b5 4f c1 43 e8 86 c1 da 05 c7 c0
       -15.1502495 -12.981809 -16.863409 -6.2194643
000040 50 ec 96 40 a2 db 4b 3f b4 b5 e2 40 00 52 ea c0
       4.7163467 0.7963201 7.0846806 -7.32251
000050 6e 4c 61 41 3d 75 7d 41 40 c2 27 40 ef db 1a 41
       14.08116 15.841123 2.621231 9.678695
000060 22 46 c7 40 2e 1d b1 40 36 9f b1 41 c0 b7 16 c1
       6.227311 5.534812 22.20274 -9.419861
000070 3e fa 81 bf e4 f4 81 c1 e7 09 86 3c f4 b3 1c c1
       -1.0154493 -16.244576 0.016362144 -9.793934
000080 72 4d d4 3f a6 ee 1b c1 80 90 66 41 65 e7 36 c1
       1.6586134 -9.745764 14.410278 -11.431493
000090 7a e9 11 c1 99 0a 60 40 dc 78 ab 40 cd 29 cd 40
       -9.119501 3.5006468 5.3585033 6.4113526
0000a0 f0 c2 38 40 52 e6 56 c0 98 e4 8c c1 96 61 96 41
       2.886898 -3.3578076 -17.611618 18.79765
0000b0 8c d1 79 c1 48 0a 06 c0 17 db 0d c1 fc 6e 28 41
       -15.613659 -2.0943775 -8.865989 10.527096
0000c0 8c bb ac be 7f c8 b3 c0 b1 b6 ac 40 bb 9b 5c c1
       -0.33736837 -5.6182246 5.397301 -13.78802
0000d0 96 9a 83 c0 46 62 e1 40 2d 17 0a c1 cb 57 34 c1
       -4.1126204 7.0432463 -8.630658 -11.271434
0000e0 ca 8d 43 41 7c ca 2d c1 9f 19 2c 40 f9 8f 6a 40
       12.222116 -10.861935 2.6890638 3.6650374
0000f0 35 fc 36 41 eb 63 8e c1 74 6d ad c0 65 4e fd 3f
       11.436574 -17.798788 -5.419611 1.9789549
000100 cf c7 9a 41 f8 9a 15 c1 7d 95 7c 41 39 c1 8e 41
       19.347563 -9.350334 15.786496 17.844347
000110 a6 93 8c c1 eb 3c 20 c1 2e e6 6c 41 3a 56 41 c0
       -17.572094 -10.014873 14.806196 -3.0208879
000120 20 d3 2c c0 8b 19 91 40 a1 fc 01 c0 93 e9 01 c1
       -2.700386 4.534368 -2.0310442 -8.119525
000130 ae 63 0f c1 b5 5e 8e c0 bc 14 01 41 51 0f 7a 40
       -8.961836 -4.449061 8.067562 3.9071848
000140 e2 93 5b c1 f5 b6 1c 40 a6 fa 47 be 0c 7e 33 c1
       -13.723604 2.4486668 -0.19529209 -11.218273
000150 41 35 be 40 ff fb 9e 40 33 c3 eb 3f df 30 82 40
       5.9440007 4.9682612 1.8418945 4.0684657
000160 e9 3b 3b 3f 24 77 85 c1 9f 74 bc be 43 f3 35 40
       0.7313829 -16.683174 -0.36807725 2.8429725
000170 8b e8 e5 be e4 cc cb c0 9c ba 58 40 7b a1 eb c0
       -0.4490398 -6.368761 3.3863897 -7.363462

sequential/batch_normalization_2/batchnorm/mul_1;sequential/batch_normalization_2/batchnorm/add_1;sequential/dense_3/MatMul;sequential/dense_3/Relu;sequential/dense_3/BiasAdd f4 [96, 96]
000000 5f 08 35 bd d0 74 b4 bc 50 43 30 bd 19 04 1f be
       -0.044197436 -0.022028357 -0.043032944 -0.15528907
000010 5c 54 56 bd 9e 32 1c bd 8d 5c 9e 3c 9a 9f 0b 3e
       -0.052326545 -0.03813421 0.019331241 0.13635102
000020 ea 85 10 be 49 2d 94 bd 2b b9 2a be 47 ec eb 3c
       -0.14113584 -0.072352 -0.16672198 0.02879919
000030 9a 2b e5 3c 46 5e fd bd 3f 5b 1f 3e cb 7b 43 be
       0.027974892 -0.12371497 0.15562151 -0.19090192
000040 47 b6 9e 3c ff 98 b9 be 4c 36 56 bd 14 07 b0 bd
       0.019374026 -0.3624954 -0.052297875 -0.085951
000050 42 c4 0a 3b 59 71 a1 bd 46 a0 b4 bd f0 ff ad 3b
       0.0021174108 -0.078829475 -0.08819632 0.005310051
000060 f6 20 f8 3d cb 90 00 3e 2f 70 37 3e 01 5e 3b bc
       0.12115662 0.12555234 0.17913888 -0.0114359865
000070 32 5f 60 be 59 32 47 be 17 ef eb bd c0 cd 0c bd
       -0.21911314 -0.194528 -0.11520212 -0.034375906
000080 64 11 3b bd 79 ad c0 bb 32 c6 1c 3d 7c d1 85 bd
       -0.045670882 -0.0058800546 0.03827495 -0.065340966
000090 cf c3 24 be 58 e4 ce bc 42 44 28 be bd ae 11 be
       -0.1609032 -0.025255367 -0.16432288 -0.14226814
0000a0 a5 f5 96 bd 3b bd 53 3d a9 78 19 3e 3a 4f 28 be
       -0.07371072 0.051694136 0.14987434 -0.16436473
0000b0 fc 93 4a bd df 45 27 be 6c 4b 3b be 4b fd be bd
       -0.049457535 -0.16335247 -0.1829049 -0.093256555
0000c0 26 04 68 bd a5 15 d5 ba ca 01 56 be d8 d2 b5 bd
       -0.05664458 -0.0016257061 -0.2089912 -0.08878106
0000d0 f5 05 b8 bd 8b 43 b0 3c 6b 80 c3 3c e7 5c 5c 3b
       -0.08985511 0.021516582 0.023864945 0.003362471
0000e0 75 29 ab ba 6a 34 e7 bd 3e 8d 80 3e 2d 16 f8 3c
       -0.001305862 -0.11289294 0.2510776 0.030284012
0000f0 28 01 a3 3d e2 a6 90 bd 2e c3 1a be 64 98 be 3d
       0.07959205 -0.0706308 -0.15113518 0.0930641
000100 9c 08 f9 bb 8e 8f 53 be b6 f7 7e 3d 29 70 0d 3c
       -0.0075999033 -0.2066023 0.062247954 0.008632698
000110 23 fc ee 3d 03 67 4d be 76 9c 95 bd e5 34 35 bd
       0.11669185 -0.20058827 -0.07305233 -0.044239897
000120 b6 37 8d be 1a 10 36 3c 44 fa 6a bd 3f 11 81 bd
       -0.27581567 0.011112237 -0.05736758 -0.063021176
000130 8d 23 be bc 3e 6e bc bd 3b 56 9b 3d 4f fa 2b be
       -0.023210311 -0.092007145 0.075848065 -0.16794704
000140 95 21 9d bd 19 b1 0c bc 17 ec 7a bb 60 45 83 3d
       -0.07672421 -0.008587145 -0.0038287693 0.064097166
000150 26 d4 4d 3e d1 fe 0d 3e fa b6 4c 3c dc 0e 0b bd
       0.2010046 0.13866736 0.012494797 -0.033949718
000160 94 18 2a 3d a8 cd 38 be 7f eb 1d bd 7b 61 71 be
       0.041527346 -0.18047202 -0.038554665 -0.23572342
000170 c9 4a dc bd 1e 8f a2 3d 03 d5 92 bc b2 a5 b3 bd
       -0.10756452 0.07937454 -0.017923838 -0.08771838
000180 1e b8 b2 3b f9 ac dd 3c 64 e8 cd 3c 9d 3a e4 3d
       0.0054540774 0.027060019 0.025135227 0.11143992
000190 1c 3b 03 bc 5f 8d de 3c 65 3e 1b 3c be b5 33 3e
       -0.008009698 0.02716702 0.009475325 0.17549798
0001a0 a0 f7 35 3e 82 35 ac 3d d2 f2 17 be eb f0 01 be
       0.17770243 0.08408643 -0.14838722 -0.12689559
0001b0 fc b9 cd 3d 9f 90 87 bb 7e b5 27 bc f3 d9 d7 bd
       0.10045239 -0.004137113 -0.010236142 -0.105396174
0001c0 5b 4f fc bc 5c 87 d0 bd 3e c0 1d 3d 3e b4 0e 3e
       -0.030799558 -0.10182068 0.038513415 0.13935944
0001d0 74 a3 ca 3c 58 a7 1e 3e 8a 7b 7d bd 08 9e 91 3c
       0.024736144 0.15493524 -0.061885394 0.01777555
0001e0 f4 51 3f be 20 a5 68 3d b2 2d 21 3c b2 56 bc 3c
       -0.18683606 0.0567981 0.009837555 0.022990558
0001f0 fe d5 2a 3e de 30 97 3e b3 c3 08 be 8a 86 c1 3d
       0.16683194 0.2952947 -0.13355903 0.094494894
000200 3c 6b 99 bc 9c 31 46 3c 21 5e 3e bb 77 74 f5 bd
       -0.018727891 0.012096789 -0.0029047804 -0.119851045
000210 f1 e0 41 bd 1a f5 bb bc 8f be c2 bd 8c e5 a8 3d
       -0.04733366 -0.022944022 -0.095090024 0.082469076
000220 75 9b 03 be 88 73 98 3d f8 a6 05 3d 7e 5f 8d be
       -0.12852271 0.07443911 0.032629937 -0.27611917
000230 d1 00 06 3e e7 4c 5b 3e 5b a8 03 3e 29 39 2c 3d
       0.13086249 0.21416055 0.12857191 0.0420467
000240 c9 93 8d 3d e0 48 27 ba 35 79 05 bd 97 3e 65 3e
       0.069129534 -0.00063814037 -0.032586295 0.22387157
000250 08 17 36 bd ad ba 7c bc 5a 67 d4 3d 09 80 be 3d
       -0.044455558 -0.015425366 0.10371275 0.093017645
000260 ad 0e 87 ba 05 05 34 be 79 bf 45 3d 66 f7 3e be
       -0.0010304056 -0.1758004 0.048278306 -0.18649063
000270 ee 0d a7 3d ed b6 22 3e 47 a7 a1 3d 99 ed 53 3e
       0.08156954 0.15890093 0.07893234 0.20696105
000280 8a da 9b 3d da 43 40 3e 61 ce 0b 3d d0 31 87 3b
       0.076100424 0.18775883 0.034132365 0.004125811
000290 29 a0 00 bd 8f 06 0b be f3 55 20 3d 8d dc 93 3c
       -0.03140274 -0.1357672 0.039144468 0.018049503
0002a0 50 05 a3 be 12 d0 21 3e 66 32 df bd 2b 12 ad 3a
       -0.3183999 0.15802029 -0.108982846 0.0013204267
0002b0 ce fa 53 3d bd 9d 89 3d 18 06 9c 3d d8 13 60 3d
       0.051752858 0.06719539 0.0761835 0.054706424
0002c0 c5 f8 64 3d e6 ba aa 3c ff 00 e8 bb a3 59 07 3d
       0.055901308 0.020841073 -0.007080197 0.03304447
0002d0 f5 ee 6e 3e 2c 4c 54 3e 6d e4 fc bb 1c d4 6e bc
       0.23333342 0.20732182 -0.00771766 -0.014576938
0002e0 be 66 3b be 45 28 07 be c3 e7 de 3d 52 6a 78 bc
       -0.18300912 -0.13198955 0.10884049 -0.0151620675
0002f0 d7 e0 ec 3d 8b b3 2f 3e e4 1b 8b 3c 8c d6 57 be
       0.11566322 0.17158334 0.016981073 -0.21077937
000300 3c ee 34 bd 66 61 1d bd d9 58 8b bc d6 7b 3c be
       -0.04417251 -0.038422965 -0.01701014 -0.18406615
000310 26 c8 cb bd 73 ba 6c bd da 94 0b 3c 17 20 c4 3d
       -0.09950285 -0.057795 0.008519376 0.09576433
000320 e5 e0 07 be 40 8f ad 3e fe f1 fc 3d bf b7 ee 3d
       -0.13269384 0.33898354 0.12350844 0.116561405
000330 7e 94 c7 3d ae 59 fe bd e4 d2 5b be 92 ff f9 bd
       0.097451195 -0.12419449 -0.21467167 -0.12206949
000340 1b fd 96 3d d1 c2 a3 bd 88 64 ef 3b e4 ae f6 bd
       0.07372495 -0.07996143 0.0073056854 -0.120450765
000350 85 5b 18 bd f1 ae 34 3e 45 5b 4b 3c a3 e9 3e bc
       -0.037196655 0.1764486 0.012411897 -0.011652383
000360 67 3f 2c be fa 3b 2e be f6 5b c0 bc a1 9f 6b 3a
       -0.16821061 -0.17015067 -0.02348135 0.0008988325
000370 ba 90 c4 bc c3 e9 08 3e 07 d4 be bd 0d e0 06 be
       -0.023994792 0.13370423 -0.09317785 -0.13171406
000380 75 17 26 bd b5 28 7c bc df a1 c4 bc 41 86 e7 bd
       -0.040549714 -0.015390565 -0.024002967 -0.11304904
000390 f7 90 80 be e1 85 59 bc 65 6c 14 3e 53 fa 68 bd
       -0.251106 -0.013276548 0.14494474 -0.056879353
0003a0 4f b7 2c 3e 86 49 24 3d 25 4f 80 3d 76 35 5e 3c
       0.16866802 0.04010918 0.062650956 0.013562551
0003b0 4b 91 d3 3d e2 2a e8 3d 12 c1 03 3e 92 20 73 bd
       0.10330447 0.11336304 0.12866619 -0.059357233
0003c0 8c 70 c5 b8 b9 f4 9f 3a fd 06 56 3e 64 23 d4 3d
       -9.4146555e-05 0.001220367 0.20901103 0.10358313
0003d0 d0 76 95 3e 24 dc 24 bd 05 fa 98 3e 52 04 03 be
       0.2919221 -0.040249005 0.2987825 -0.12794617
0003e0 c6 31 bf 3a 81 27 fc 3d dc 97 d1 be 5a 27 70 bd
       0.0014586977 0.12312222 -0.40936172 -0.05863128
0003f0 99 c8 ce 3d ba 14 a7 3d 17 30 3d 3e 41 68 8a 3e
       0.10096855 0.0815825 0.18475376 0.27032664

sequential/dense_4/MatMul;sequential/dense_4/Relu;sequential/dense_4/BiasAdd f4 [96]
000000 75 cb c1 41 10 7b c3 c0 67 33 06 41 db 4b 1e 41
       24.224344 -6.1087723 8.387549 9.893519
000010 fa 49 6d c0 a9 72 a0 c0 19 7b 2c 3e ee 08 fd 40
       -3.7076402 -5.0139966 0.16843833 7.90734
000020 9e 2a 2e c1 54 24 22 41 87 55 79 c1 54 d8 1c c0
       -10.885405 10.133869 -15.583381 -2.4507036
000030 a6 2b c7 c0 42 bb 1a 3e 0f 2d f5 c0 48 ff 30 c1
       -6.224078 0.15110496 -7.6617503 -11.062325
000040 09 cd 13 c1 bf 17 fd bf b3 ae c1 be e0 85 2c 40
       -9.237557 -1.9772872 -0.37828597 2.695671
000050 8d 3d fb 40 53 86 0f 41 96 1c 71 c1 31 53 6a c1
       7.8512635 8.970294 -15.069479 -14.64531
000060 32 fc 12 41 65 d4 d8 40 f4 76 08 bf e8 9b 3c 40
       9.186571 6.775927 -0.5330651 2.9470158
000070 72 5d d4 40 0a f0 39 c1 39 74 c9 c0 8b 20 4d 41
       6.636407 -11.621103 -6.2954373 12.820445
000080 41 a4 39 c1 2e 9e 76 c1 67 b6 fa 40 fc d6 0f 41
       -11.602601 -15.413618 7.834766 8.989986
000090 b0 7b 8a 41 d1 e2 81 40 e3 62 ba 3f d1 c5 43 41
       17.310394 4.0589375 1.4561428 12.235795
0000a0 ee b3 fe 40 8c ba a3 c1 93 3f 35 41 4e e4 27 41
       7.959464 -20.466087 11.328021 10.493238
0000b0 7d c6 8b 40 07 03 a3 40 c7 c9 99 c0 9d e8 b8 40
       4.3679795 5.0941195 -4.805881 5.778395
0000c0 4b 16 90 c0 73 16 12 41 4b c8 6a c1 c6 db cf c0
       -4.5027213 9.130481 -14.6739 -6.495578
0000d0 65 8a f6 40 d8 08 b9 40 c3 e4 01 41 60 8f 17 41
       7.704394 5.7823296 8.11835 9.472504
0000e0 d9 11 12 41 ab 6e 31 c1 70 77 ed 40 15 89 0b 40
       9.129357 -11.089519 7.42083 2.1802418
0000f0 26 64 75 40 ae 1d 61 3f 2a 5f 9c 40 f5 3b 89 c0
       3.8342376 0.8793591 4.8866167 -4.288569
000100 26 fe 9a 40 e6 ca f2 40 1e 40 28 c1 67 65 15 41
       4.843524 7.587268 -10.515654 9.337256
000110 e0 f3 e4 c0 0f 29 34 bf 86 e7 01 c1 9c 7c a6 40
       -7.15477 -0.7037515 -8.119024 5.202711
000120 dc dd 2d c1 e7 8b 70 c1 68 8d 5f c1 df 52 2a 41
       -10.866665 -15.034156 -13.972023 10.645232
000130 11 8d 4e 41 2f 65 52 41 45 3b 85 40 ac 90 e0 40
       12.90944 13.149703 4.163485 7.01766
000140 e0 f1 19 41 ce c5 be 40 14 10 2a 41 0a c0 0e c1
       9.6215515 5.961646 10.628925 -8.921885
000150 bb 6d 56 c1 43 fb a1 40 85 df bd c0 7f 29 67 bf
       -13.40179 5.0619216 -5.933535 -0.90297693
000160 76 cd 4b be ce 9c 13 41 eb a6 e3 c0 1a 04 82 c0
       -0.19902596 9.225782 -7.1141257 -4.0630007
000170 65 f3 72 c1 7a af 25 40 86 4f 71 3f 51 f6 0d 41
       -15.1844225 2.5888352 0.9426197 8.872636

sequential/batch_normalization_3/batchnorm/mul_1;sequential/batch_normalization_3/batchnorm/add_1;sequential/dense_4/MatMul;sequential/dense_4/Relu;sequential/dense_4/BiasAdd f4 [96, 96]
000000 d2 24 28 be 4b b0 74 be b8 65 59 3e 72 16 39 3d
       -0.16420296 -0.23895375 0.21230209 0.04518742
000010 f7 11 f1 bc 53 3b b3 bc fb 01 01 bd 7a 67 f4 bd
       -0.029427512 -0.021878874 -0.03149603 -0.11933799
000020 c6 29 5c 3d 21 74 39 3c 60 df d4 3c 8a 28 d3 3b
       0.053750776 0.011319191 0.02598542 0.0064440416
000030 4f f0 71 bd 5d 94 5d be 11 53 02 be 14 e8 b9 bd
       -0.059067067 -0.21638627 -0.12727 -0.090774685
000040 ba 3c 6e be 27 19 25 be 54 1d 72 bd e9 35 f0 bd
       -0.23265353 -0.16122876 -0.05911 -0.117290325
000050 aa 4a 10 bd bd 71 85 3d 1b 4b 31 bd b4 36 c8 3c
       -0.035227455 0.065158345 -0.043284517 0.024440147
000060 57 ca f7 3c 51 7c 54 bd 35 5a 87 3d f1 ae 2c bd
       0.03024785 -0.05187637 0.066090025 -0.042159025
000070 d1 db bf 3c 43 d4 61 be 0b 6a c2 3d df be 47 3e
       0.023420246 -0.22053628 0.09492882 0.19506405
000080 e1 bc c8 3c 7f 03 6f bd 77 8f 08 bc f9 23 22 be
       0.024504127 -0.058352944 -0.008334986 -0.15834035
000090 1d f8 19 3c 87 dd 70 bd b3 2a fc bc d9 df 94 3c
       0.009397534 -0.058805015 -0.03078208 0.018173145
0000a0 28 db bb bd 9e aa d0 bd 7a 42 67 3c e2 e3 81 bd
       -0.0917266 -0.10188793 0.01411497 -0.06342293
0000b0 4f 89 25 3b d8 18 f6 3c 07 63 b3 bc a0 94 ed 3c
       0.0025258844 0.030041143 -0.021897806 0.029001534
0000c0 bf a4 2f 3d 9f 7f ac bd b4 75 34 bd fb 92 1f 3d
       0.042881723 -0.08422779 -0.044057563 0.03895853
0000d0 a9 bf ad 3d 6c 37 1b bc c0 f0 c6 bd 02 31 5f bd
       0.08483822 -0.009473663 -0.09713888 -0.054490097
0000e0 4f 50 51 bd a8 68 37 3d 2c 41 36 bd d5 17 13 3e
       -0.05110198 0.044777542 -0.044495746 0.1436456
0000f0 7b 82 01 3e 82 ec f9 bc 0d 9a b5 3b b5 ff 3c 3b
       0.1264743 -0.030508284 0.005542046 0.0028838937
000100 82 d3 81 bc 9c 73 77 be 73 59 6b 3e 18 cd 9a 3e
       -0.015847925 -0.24165195 0.22983341 0.302346
000110 6e 6d 93 bb 73 8e cb 3a 25 fc 1b be a1 ed d7 3c
       -0.004499129 0.0015530124 -0.15232904 0.026358427
000120 52 38 b3 bd c3 d2 93 be e8 5b f9 3a e4 0c 39 3e
       -0.087509766 -0.28871736 0.0019024583 0.18071324
000130 6e d5 f2 3b 38 c8 2a 3c c3 15 78 3d 35 bd 23 bc
       0.0074106967 0.010423712 0.06056763 -0.009993841
000140 8a 99 5a bc 25 6a b9 be e7 7d 1a be ff be 3d be
       -0.013342271 -0.36213794 -0.1508709 -0.1852989
000150 25 ba 2a bd a4 1c 65 bd fd 25 ec bb 20 99 31 be
       -0.041681428 -0.055935517 -0.007206677 -0.17343569
000160 bc fa 35 3c 1f e0 50 bc 91 32 85 3a 52 d6 69 3c
       0.011107143 -0.012748747 0.0010162165 0.014272289
000170 49 93 2d bf 1c a3 13 3c 35 3b 54 3e df 5f a0 ba
       -0.67802864 0.009011056 0.2072571 -0.0012235603
000180 19 4d d5 bd c0 d7 55 bd 91 86 1d be ee 12 0d bd
       -0.10415096 -0.05220771 -0.15383364 -0.03444188
000190 ad f4 11 be 5c de 30 bd 29 fd 0c 3d 8c c7 ea 3d
       -0.14253493 -0.04318081 0.03442112 0.11463842
0001a0 79 71 d5 bd d2 36 f9 3c f8 95 46 bd c6 b7 74 bb
       -0.10422034 0.030421648 -0.048482865 -0.0037340983
0001b0 b8 52 28 3c 4e 7d 6d 3d 18 95 a7 bd 60 15 c6 3d
       0.010273628 0.057980828 -0.08182734 0.09672046
0001c0 85 fc 70 bd 41 d0 94 3d 19 77 23 3e 05 0f d7 bd
       -0.05883457 0.07266284 0.15963401 -0.105009116
0001d0 fa f5 fe bd 1e 3e d4 3d 52 19 1a 3c 24 3e c3 bc
       -0.1244926 0.103634104 0.009405451 -0.023833342
0001e0 78 45 c8 bb 87 23 0e 3e e1 ef 48 be 92 6b 3a 3d
       -0.006111797 0.1388074 -0.19622757 0.045512743
0001f0 2b 4f 62 bd 06 82 e8 3d 56 b1 6d 3e d1 d5 9e 3d
       -0.05525128 0.11352925 0.2321218 0.07755626
000200 3d 94 a3 3c 21 af ab bd c8 c0 98 bc 4d 76 17 bd
       0.019968146 -0.083830126 -0.018646613 -0.036978055
000210 06 5d 05 3d 95 b3 98 3d a8 70 eb bb ed 70 e9 3c
       0.032559417 0.074561276 -0.0071850605 0.02849623
000220 dc 55 17 be 47 82 c3 bc a3 ce 00 3e e8 f8 5f be
       -0.14778847 -0.023865832 0.12578826 -0.21872294
000230 c9 9e 89 bc de 18 21 3d 09 0f 14 be 21 ea be 3d
       -0.016799347 0.039330356 -0.1445886 0.09322
000240 1b a1 1a 3d 64 5e 16 bd 42 19 ac 3e 6c d9 76 3d
       0.0377513 -0.03671111 0.3361302 0.060265943
000250 4e 25 59 be 0e 19 5f bc f6 f1 2e bd d8 ed 45 3e
       -0.21205637 -0.013616813 -0.04271122 0.19329011
000260 a0 3f e7 bc 6a 6f 60 3e 1c 1e 15 3d f5 f0 8a 3e
       -0.028228581 0.21917501 0.036405668 0.2713696
000270 ad 94 48 3e 25 f4 5d bd 49 ad c0 bc 80 51 c7 bd
       0.19587965 -0.054187912 -0.023520129 -0.09732342
000280 3e e9 3e be a1 2f 39 3e cb e1 7a be 7a 5a 4c bc
       -0.18643662 0.18084575 -0.24500196 -0.012472743
000290 a3 94 80 bb 7e d8 01 bb 12 5f ed 3c 53 c1 0a 3b
       -0.003923969 -0.0019812877 0.028975997 0.002117236
0002a0 92 f8 9b 3d b4 b2 4f be 34 00 71 3b 57 35 5c be
       0.076157704 -0.20283014 0.0036773803 -0.21504723
0002b0 e5 d4 8a bc 40 3a ba bc 5a dd 0b bd 4f fe 5d bb
       -0.01694722 -0.022732854 -0.034146644 -0.0033873504
0002c0 eb d3 89 3b 0b 62 5d bd ba a2 55 bc cb 93 c1 3d
       0.004206171 -0.05404858 -0.013039285 0.094520174
0002d0 88 65 0d 3e 8d a2 52 3d ca 08 86 bc 25 f6 8f 3d
       0.13808262 0.05142455 -0.016361613 0.0702937
0002e0 a6 54 3c bc 64 9a a5 bb 36 4f af 3b 69 cf 09 3d
       -0.011494791 -0.005053805 0.005350019 0.033645067
0002f0 c2 80 23 3e 1b 83 6c bd 07 a1 40 3d 33 82 0c bd
       0.15967086 -0.05774222 0.047028568 -0.034303855
000300 43 12 18 3e 8f ca df bd 57 6f 3c 3e 01 e0 10 be
       0.14850716 -0.10927307 0.18401848 -0.1414795
000310 36 06 c4 3c a5 ab 25 bd e2 3e 2d bd 66 dc 14 bd
       0.023928743 -0.040446896 -0.042296298 -0.036343
000320 94 70 b7 3a 23 69 89 3c 94 51 20 3d 09 f3 36 bc
       0.0013995343 0.016773766 0.0391403 -0.0111663425
000330 ba ec 87 3d 5a 93 08 3e 0c b5 07 be e3 25 16 bd
       0.06636949 0.1333746 -0.13252658 -0.036657225
000340 58 08 49 be bb 2e 20 bc 67 96 c8 bc 54 92 2f 3d
       -0.19632089 -0.009776766 -0.02448578 0.04286416
000350 ff 79 42 be 06 05 1f 3d e3 d5 3b bb b0 ac d3 3d
       -0.1899185 0.03882315 -0.0028661422 0.10335672
000360 50 55 92 3c 14 73 97 3d f6 8c 0e 3e 47 f3 e0 3c
       0.017862946 0.07394996 0.1392096 0.027459754
000370 62 56 31 3e d2 8a ee bd 96 7f bc 3e 68 ac b0 bc
       0.17318109 -0.116475716 0.3681609 -0.021566585
000380 f2 4b c3 bc f2 fa c7 bb c1 59 0c bd 36 db 92 bd
       -0.023839924 -0.006102913 -0.034265283 -0.071707174
000390 8d a0 29 bd bd 71 f4 3c 3f 3a 5d bb 0d 78 ca 3d
       -0.04141288 0.02983939 -0.0033756641 0.09886179
0003a0 54 50 7f 3d a5 29 9a bd 17 6d 5b bd 36 52 96 be
       0.062332466 -0.07527474 -0.053570833 -0.29359597
0003b0 41 25 a6 bc 41 45 d8 ba 7b 9c 2a be 47 82 fa 3c
       -0.020281436 -0.0016500131 -0.16661255 0.0305797
0003c0 eb 12 a0 3d 2d 73 23 3e 69 57 01 3e 62 75 b2 bd
       0.07816108 0.15961905 0.12631 -0.08713795
0003d0 ca 6f 1a be 6a a9 4a 3c c0 7e 8f 3d cd e6 38 bd
       -0.15081707 0.012369493 0.070065975 -0.045141984
0003e0 05 14 1a 3e d5 26 15 3e 10 96 d9 3c d1 b2 0e bd
       0.150467 0.14565594 0.026560813 -0.0348385
0003f0 d8 48 6d 3e 0c a2 f5 3d 29 22 09 bd 96 2c 43 bd
       0.23172319 0.119937986 -0.033479843 -0.047649942

sequential/dense_5/MatMul;sequential/dense_5/Relu;sequential/dense_5/BiasAdd f4 [96]
000000 cf 48 f4 40 e1 59 a2 40 b5 d4 28 c1 90 22 b8 c1
       7.633888 5.0734715 -10.55193 -23.016876
000010 c8 7c 96 c0 f0 3e 89 c0 13 11 83 c1 50 8a 72 c1
       -4.702732 -4.288933 -16.383337 -15.158768
000020 dc 29 7a 3f 19 ba 1e c0 0f 33 2d c0 77 20 00 41
       0.9772012 -2.4801085 -2.7062414 8.007926
000030 40 b3 ea 3f 9a bf 38 c1 f6 7c 62 40 8f 8e 18 c0
       1.8335953 -11.546778 3.538877 -2.383701
000040 3f 17 58 41 1f d4 09 c0 13 5e 37 41 06 f4 1e c1
       13.505675 -2.1535718 11.460467 -9.934576
000050 cb 87 9d be 3b ff 43 40 77 5e 46 41 cd b1 98 c0
       -0.30767664 3.062453 12.398063 -4.771704
000060 15 57 da 3e 44 6f 3e 41 23 ca df 3f 9b 50 a5 40
       0.42644563 11.902164 1.7483562 5.1660895
000070 50 c5 e7 c0 d4 0f 0f 41 71 84 0f 41 ff b8 04 c1
       -7.242836 8.941364 8.969834 -8.295165
000080 e3 ed b5 40 5b 9c 67 3f 28 76 82 c0 be 09 2c c1
       5.685289 0.90472955 -4.0769234 -10.752378
000090 60 3d 76 c0 03 56 a8 c0 cd 79 c1 40 25 77 5b c1
       -3.847496 -5.2604995 6.0461183 -13.716588
0000a0 93 38 8e 40 be c0 83 40 4b 30 79 c1 00 19 1d c1
       4.444406 4.117278 -15.57429 -9.8186035
0000b0 1a 57 5b c1 6d 26 59 c0 b5 59 51 c1 fa 1f 11 c1
       -13.708765 -3.3929703 -13.084401 -9.070307
0000c0 29 e7 db 41 fa b1 88 41 44 1c b5 40 22 07 b2 3e
       27.487871 17.086903 5.6597004 0.34771067
0000d0 a2 31 be 40 ec 9d 14 c1 83 4f 88 41 c8 c0 98 41
       5.9435587 -9.288555 17.038824 19.094131
0000e0 cc b0 06 40 c9 d0 a3 40 61 cc c6 40 8a 3f 6a bf
       2.1045408 5.1192365 6.2124486 -0.915032
0000f0 7a 6f 1c bf f8 22 91 40 23 55 19 c1 87 da 01 c1
       -0.611076 4.5355186 -9.583285 -8.115851
000100 e5 16 eb 3f 39 f5 36 40 cb 50 37 c1 91 17 c8 c0
       1.8366362 2.8587172 -11.457225 -6.2528768
000110 22 11 83 c1 91 3b 6b bf 05 71 c3 40 f5 e0 92 41
       -16.383366 -0.91887766 6.1075463 18.359842
000120 02 c9 eb c0 c7 1b 60 41 1a 19 3e 41 08 73 b7 c1
       -7.368287 14.006782 11.881128 -22.931168
000130 cb e6 aa 40 8c 4c 9b c1 6d b4 f3 c0 79 e6 aa 40
       5.340673 -19.412376 -7.6157746 5.340634
000140 fe 77 15 40 13 10 08 41 28 80 75 c0 bc 31 17 41
       2.3354487 8.503924 -3.835947 9.449642
000150 e6 b0 ff 3f ba 0a 3f 41 1e bd a5 41 4b 2f ef 40
       1.997586 11.940119 20.717342 7.474523
000160 fb 30 4c 41 46 93 f2 c0 59 88 87 40 e1 2e 7e c1
       12.761958 -7.5804777 4.235394 -15.886445
000170 d1 25 2e c1 7b ef b7 c0 c2 a6 2d 41 91 f6 99 40
       -10.8842325 -5.7479835 10.853212 4.8113484

sequential/batch_normalization_4/batchnorm/mul_1;sequential/batch_normalization_4/batchnorm/add_1;sequential/dense_5/MatMul;sequential/dense_5/Relu;sequential/dense_5/BiasAdd f4 [96, 96]
000000 d0 95 01 bd 87 5b 18 3d f5 74 89 bc 14 7a 30 3e
       -0.031637013 0.037196662 -0.016779402 0.17234069
000010 9f d1 72 bb 2e cb 97 bb 1e 34 6a 3d 0e 0c 0d be
       -0.0037051213 -0.004632375 0.05717861 -0.1377413
000020 5b 45 70 3a 5b 16 66 be 64 f6 ab bd d9 51 b7 bd
       0.0009165608 -0.22469465 -0.08396605 -0.08951158
000030 ca 79 89 bc e3 b0 ad bd ef a1 e3 bd 9f 52 b9 3d
       -0.016781706 -0.08481004 -0.11114871 0.09048962
000040 ce ad 22 3d a1 88 b8 3c bf 06 1b 3c ef 72 5e 3d
       0.039716534 0.022526087 0.009462058 0.054308828
000050 78 10 d8 3d fe 80 e8 3d 46 07 3c bc 9d 72 50 3e
       0.10550016 0.11352728 -0.0114763435 0.20356221
000060 80 c9 67 3e 2d 42 21 bc f5 6e cc bd c9 82 43 bc
       0.2263546 -0.009842438 -0.09982101 -0.011933037
000070 7e 9d 1c 3f f8 67 2d bd 17 38 80 3e e4 c7 09 3e
       0.61177814 -0.04233548 0.25042793 0.13455158
000080 a8 b9 81 3b c7 5d e8 bd 53 b3 1c be 67 95 e5 bd
       0.0039588995 -0.113460116 -0.15302782 -0.11210137
000090 20 a7 c3 bd 6a 6d 3f 3e ca 4e 3f 3e 0e 9f 27 3e
       -0.09553361 0.18694082 0.186824 0.16369268
0000a0 60 1f a4 3d cc 2c f7 bc 3a 30 64 3d 19 db 2a 3e
       0.08013797 -0.030172728 0.055710055 0.16685142
0000b0 63 03 24 3e ec 43 61 bd f5 95 af 3b 25 dc 0d ba
       0.16016917 -0.054996416 0.0053584524 -0.0005411527
0000c0 e8 f9 38 bd a0 65 1d 3e c0 a7 9d 3d 2a 23 04 3d
       -0.045160204 0.15370798 0.076980114 0.032260098
0000d0 09 f6 74 bc bb 24 24 bd 16 2e 9a bd 7f 26 8e be
       -0.0149512375 -0.04007409 -0.075283214 -0.27763745
0000e0 c7 18 ff bd cd 97 b5 bd 09 76 3b be 77 5a f5 3b
       -0.12455898 -0.08866844 -0.18306746 0.007487591
0000f0 46 54 0f bd 6d 55 d9 3d f0 09 e0 bd 15 da ea 3e
       -0.03499248 0.10611997 -0.109393954 0.45869508
000100 85 ca 12 3c fe 95 0d 3e 55 3b 1d 3e f8 91 05 bc
       0.008959417 0.13826749 0.15354665 -0.008152477
000110 de fe ca 3d f6 5b b9 bc d2 ba be 3c e6 19 0b be
       0.09911893 -0.022626858 0.023282442 -0.13584098
000120 50 a0 8e 3d d8 41 c6 bd 16 4a 29 bf 6a 95 1a 3d
       0.06964171 -0.096805274 -0.6612867 0.03774015
000130 7b aa 85 bd 5b 96 82 bd c9 e0 76 ba a4 91 ac bd
       -0.06526657 -0.06376334 -0.0009417651 -0.08426216
000140 3b 3c 3d be a4 e0 83 3e bd df a7 bd 50 8f 10 bc
       -0.18480007 0.25757325 -0.081969716 -0.008823231
000150 2d a5 9b bd 1c 55 8e 3d 91 a4 cd 3c 74 71 f4 bd
       -0.07599864 0.06949827 0.025102885 -0.11935702
000160 0c c6 f5 bd f5 1e 82 bd 89 74 dc 3d 98 f2 a5 3c
       -0.12000665 -0.06353561 0.10764415 0.02025728
000170 a5 ec 7a 3d b5 d4 8a 3d c7 3d 11 3f 33 f4 01 be
       0.061260838 0.06778852 0.5673489 -0.12690811
000180 88 35 1c 3e 07 ac 24 3d a7 93 ab 3c 20 9d 85 be
       0.15254796 0.04020312 0.02094443 -0.2609644
000190 cb e7 dc 3b e8 06 b4 bb 79 c5 1e bd 10 a5 68 be
       0.006741499 -0.0054939874 -0.038762543 -0.22719216
0001a0 26 ae 60 ba e8 b7 dd ba 97 21 ba bd c9 2c 89 bd
       -0.0008570872 -0.001691577 -0.09088438 -0.06697995
0001b0 ea b0 a9 bc 1f 7f 21 3d fb 0f f2 bd 0c 25 50 bd
       -0.020714242 0.039427873 -0.11819454 -0.05081658
0001c0 e0 e3 03 be 2c 8b e9 3c f8 eb 05 bc 77 3d f0 3c
       -0.12879896 0.028508745 -0.008173935 0.029326184
0001d0 cc 54 a5 bc 67 8a a3 bd fe 44 79 bc fd 16 46 3e
       -0.020182036 -0.079853825 -0.015214203 0.19344707
0001e0 36 36 34 3d 4c f5 aa 3d 35 fb d7 bd d3 b6 e6 bb
       0.043997012 0.08347568 -0.10545961 -0.0070408373
0001f0 15 28 41 bd c0 2e 1c 3b 9e ec 38 3e 7c 86 64 3d
       -0.047157366 0.0023831576 0.18059012 0.055792317
000200 b7 53 e9 bb a6 ec ae bd bd bf 30 3d 10 cf 1f be
       -0.0071205753 -0.08541231 0.043151606 -0.15606332
000210 f2 5d 2f bd 3e 04 ad 3d 68 97 de 3d 84 31 39 be
       -0.042814203 0.08448075 0.10868722 -0.18085295
000220 d5 03 20 3c e9 14 4b 3e 1a d3 87 3d 96 64 07 3e
       0.009766539 0.19832195 0.06632061 0.13221964
000230 ca 3a 95 3e bc ea 66 be 89 19 91 bb 45 1b 1f bd
       0.29146415 -0.22550482 -0.004428093 -0.038844366
000240 d1 ac 2f bd 69 96 a3 3d 09 f8 75 bd 43 1e e0 3c
       -0.04288942 0.07987673 -0.060050998 0.02735818
000250 69 e7 48 be 00 4c 75 3d 89 c5 aa ba ff 2e 93 bd
       -0.19619526 0.059886932 -0.0013028841 -0.07186698
000260 4c 63 0c 3e d3 45 95 3d 9a 59 fa bc fd b8 62 3c
       0.13709754 0.072887085 -0.030560303 0.01383805
000270 ce 99 4a 3e cc 89 0b 3d 13 61 12 3e b0 a3 4d be
       0.19785234 0.03406696 0.14294843 -0.20081973
000280 5d ae 8f bd c9 70 88 3e 09 89 81 bd da de 5a bb
       -0.07015679 0.26648548 -0.063249655 -0.003339699
000290 b2 8d cb 3d 59 3e de bc 00 42 e4 bd d8 47 0a be
       0.099391356 -0.027129339 -0.11145401 -0.13503969
0002a0 e6 53 9b bd 8b d1 e9 bd 4f ab 01 3f bf e6 90 3d
       -0.07584362 -0.1141692 0.5065202 0.07075261
0002b0 bd bb 6c bc d6 b3 e2 bd 79 2e b9 bd 4b 98 91 bc
       -0.014449057 -0.11069457 -0.09042067 -0.017772814
0002c0 8c d9 60 3e 58 2c 78 3e 4a fe 01 be bd db 93 bc
       0.21957988 0.24235666 -0.1269466 -0.018049115
0002d0 90 1b 24 be 70 03 82 3d b1 6d 26 bd 60 33 b9 3b
       -0.1602614 0.06348312 -0.040631954 0.0056518763
0002e0 7c 77 b6 bc 52 7c 49 bd f0 24 02 3e 6c c9 cd bc
       -0.022273771 -0.049190827 0.12709403 -0.02512046
0002f0 26 3a 29 bd 8c c0 2b bc 89 f1 b9 3e ee be 6f 3d
       -0.04131522 -0.0104829185 0.3631709 0.058531694
000300 77 e5 b3 bc 2a 44 85 3c 8d 04 17 3d 62 c4 80 3e
       -0.021960003 0.016267855 0.036869574 0.25149828
000310 84 51 49 bc 4e 24 ee 3b a4 4e a1 3c da 2b 4b 3e
       -0.012287501 0.0072675114 0.01969082 0.19840947
000320 be 51 96 3a e0 ef d4 bd 7c 9f 34 3d a4 27 c1 bd
       0.0011468453 -0.10397315 0.04409741 -0.09431389
000330 3b 76 40 bd 40 1c 10 3e b5 2b df bd dd c9 5f 3d
       -0.046987753 0.14073277 -0.10897008 0.05463587
000340 47 56 55 bc 7a 2a 74 bb b9 df c2 3b 5c ef 7d bd
       -0.013021058 -0.0037256763 0.00594708 -0.06199585
000350 ee 0a 6e bd f7 cd 5e be 09 ba 01 3c 15 e6 2d 3b
       -0.058115892 -0.21758257 0.007917889 0.0026534845
000360 34 e7 15 be 3a 40 16 bd 6e b4 d2 3d 77 2f 42 3b
       -0.14638978 -0.036682345 0.102883205 0.0029630342
000370 7c 6e 1d 3d 57 fe 27 3d b3 9e 99 bb 0b ad b0 3e
       0.038435444 0.04101404 -0.004688108 0.3450702
000380 5c b0 ee ba c0 e4 0e 3e 1a 17 cf bd e5 c5 9b bd
       -0.0018210518 0.13954449 -0.10111828 -0.07606105
000390 31 47 0f be 5d 4a 62 be 6b 1c 00 3d 94 59 cf 3d
       -0.13992001 -0.2209868 0.0312771 0.101245075
0003a0 90 8f 6a 3d 46 17 9d bc 5b 2f e6 bd 87 ed 03 be
       0.057265818 -0.019176137 -0.11239501 -0.12883578
0003b0 3c 1e e5 bd 0f e6 7e bd a0 0b d3 bb a7 58 83 bd
       -0.111874074 -0.06223112 -0.006440595 -0.064133935
0003c0 69 e3 a8 3c 85 72 49 be 8e 9d 89 bc e2 9a 06 bd
       0.02061625 -0.19672592 -0.01679876 -0.03286255
0003d0 f7 88 1a 3e aa ba 1f 3d 38 c4 20 bd 88 4c 0e be
       0.1509131 0.038996376 -0.03924963 -0.13896382
0003e0 93 85 a1 bd 2b fc 90 3a 5b 3d 0f 3e 20 2d f8 3a
       -0.078868054 0.001106148 0.13988249 0.0018934347
0003f0 13 9a 0d ba b4 a5 ff bc 9b 9b 24 3e 68 ba c5 bd
       -0.0005401682 -0.031206943 0.16074984 -0.09654695

sequential/dense_6/MatMul;sequential/dense_6/BiasAdd f4 [27]
000000 67 47 fd bf f0 2e 49 c0 26 7a 7c c0 bb f9 8b c0
       -1.9787415 -3.1434898 -3.9449553 -4.3742347
000010 bc a2 e7 c0 2f 9b 8a c0 30 f7 81 c0 36 5d b2 c0
       -7.238615 -4.3314433 -4.0614243 -5.5738783
000020 a1 fd 87 c0 db 7d a5 c0 22 f3 a0 c0 47 d3 23 c0
       -4.2497106 -5.171613 -5.0296793 -2.5597703
000030 82 07 98 c0 e6 96 99 c0 44 68 73 c0 e6 5d 85 c0
       -4.7509165 -4.79967 -3.8032389 -4.167712
000040 7e f6 3a c0 57 37 b6 bf 47 1b bb bf 25 1e fa bf
       -2.9212947 -1.4235638 -1.4617699 -1.9540449
000050 13 06 9d c0 65 e0 83 c0 72 88 a4 c0 90 e4 96 c0
       -4.9069915 -4.121142 -5.141656 -4.7154007
000060 e2 57 53 c0 65 af 9b c0 3a e0 8d c0
       -3.302239 -4.8651605 -4.4336214
