BirdNet_Trained_Model/trained_model_classifiers/Custom_Classifier2.tflite (tflite, 111776 bytes, 2 tensors)

sequential/dense/BiasAdd/ReadVariableOp f4 [27]
-0.009737123 -0.0037745927 -0.011260561 -0.022618476 -0.032720093 -0.017832525 -0.033068568 -0.02392235
-0.021563755 -0.007203143 -0.02460992 -0.018406747 -0.030679546 -0.030447127 -0.022896066 -0.010064901
-0.0077199806 -0.014346794 -0.027429637 -0.023683444 -0.013515045 -0.034783617 -0.030261572 -0.034970872
-0.018231358 -0.013096771 -0.020558724
00000000: 7488 1fbc 285f 77bb 377e 38bc 624a b9bc
00000010: 8105 06bd 8415 92bc e872 07bd cef8 c3bc
00000020: 79a6 b0bc 5808 ecbb be9a c9bc bfc9 96bc
00000030: ac53 fbbc 416c f9bc 8890 bbbc 41e7 24bc
00000040: e4f7 fcbb d10e 6bbc 1eb4 e0bc c803 c2bc
00000050: 356e 5dbc 4479 0ebd 1ee7 f7bc 9e3d 0fbd
00000060: ee59 95bc d793 56bc c56a a8bc

sequential/dense/MatMul f4 [27, 1024]
0.016537007 0.07076055 0.09308424 0.045393705 -0.13156594 -0.101585105 0.052860066 -0.26152152
0.01780425 0.0040288786 0.053786766 -0.42318293 -0.03466694 0.106829785 0.019563079 0.034734484
-0.14562593 -0.14797528 -0.05560823 -0.10912071 0.059653178 0.21327654 0.036611464 -0.10994199
-0.033863444 -0.04987821 -0.069145024 0.116581626 0.18659855 -0.0037518921 0.10568879 0.14085083
0.049657382 -0.012743871 -0.14850302 -0.09025259 -0.054525476 0.2153799 -0.17484546 0.10959614
0.047205333 0.07444162 -0.39862576 -0.292136 -0.09571278 -0.22957224 0.013830099 0.13889506
-0.46515566 0.06412908 -0.054347087 -0.035112362 -0.22311209 -0.06576009 0.25717425 0.006631978
0.012968703 -0.097291306 0.05027983 -0.1660491 0.11875463 -0.0828978 -0.114693135 0.011560273
-0.12990642 -0.0988273 0.13062775 0.06642757 -0.1598603 -0.08850427 -0.043959916 0.061739456
-0.13726634 0.10674282 0.006537351 0.21220376 -0.23234645 0.13438244 0.09504188 0.023962261
-0.36989173 0.0029379602 -0.19936405 -0.081397325 0.15549248 -0.100778006 -0.066736266 -0.056377597
0.21986903 0.04470983 -0.31313676 -0.45958725 0.078459084 0.11995416 0.028856903 0.13547741
0.07564479 -0.04595378 -0.08690135 0.028001348 -0.020174492 -0.2515069 0.044822417 -0.12849823
0.011962491 -0.039828572 -0.0894331 -0.09255606 0.04380162 -0.12757356 -0.1880321 0.0005698509
-0.1623191 -0.04597756 0.07897592 -0.4266017 -0.10194654 0.12662649 -0.07087707 -0.047173366
0.10556491 0.006615058 -0.09827366 -0.10262604 -0.3760152 -0.09553072 0.1938032 0.13279824
-0.2116663 0.17708458 0.16408998 -0.27213696 0.09271003 -0.1949016 -0.01465338 -0.10521416
-0.12619582 0.082258835 -0.14218225 -0.03788371 0.08392972 -0.21720958 -0.31741253 -0.3330145
-0.0789699 -0.07752654 -0.27907938 -0.11489673 -0.057494927 0.12197922 0.02513518 0.16012602
0.12005991 0.0016979234 0.13511342 -0.03073364 -0.12803651 -0.15120149 0.070662364 -0.09653153
-0.26172143 -0.31331012 -0.1217912 -0.43966898 0.20132594 -0.07243515 0.010816574 0.124299586
-0.04306271 0.11178349 -0.1503418 -0.27430177 0.14910217 -0.034518328 0.02501737 0.06011355
-0.048053876 -0.20854284 -0.018028526 -0.052236248 -0.09922772 -0.061900344 0.20026991 -0.0425636
0.0054461076 0.23654498 -0.15033402 0.025096785 -0.057548538 0.19502538 -0.38886014 0.23147173
-0.09311062 0.10302036 0.13715611 0.23429486 0.012645543 -0.18151511 -0.35092637 -0.13354321
0.018857846 0.028478352 -0.14914434 0.054776717 0.29474005 -0.0020487749 0.04638053 -0.0814834
-0.15326382 0.025174076 0.02351547 0.06015605 -0.2766474 0.14482307 0.11188788 -0.21261205
-0.051402435 -0.15168962 0.019797988 -0.009067655 -0.2301917 -0.002979428 -0.13431317 0.043718755
0.13228865 0.017751932 -0.11272394 -0.07355172 0.23264514 -0.039419096 -0.19671823 0.07208281
-0.14921997 -0.025246674 0.05262973 0.12001947 -0.050967857 0.03703765 -0.17412962 0.11092856
0.08087735 0.096541144 0.07989648 -0.098556034 -0.13968398 0.043335363 -0.066269755 0.022183085
-0.18560609 0.120314956 0.049092606 -0.028960112 -0.3896962 -0.12748735 0.054293342 0.087910175
00000000: 9e78 873c e8ea 903d f3a2 be3d c0ee 393d
00000010: 39b9 06be da0b d0bd cc83 583d 26e6 85be
00000020: 38da 913c af04 843b 834f 5c3d 6fab d8be
00000030: ecfe 0dbd 93c9 da3d c042 a03c bf45 0e3d
00000040: f71e 15be d586 17be 75c5 63bd ae7a dfbd
00000050: e456 743d 2a65 5a3e e7f5 153d 4429 e1bd
00000060: 65b4 0abd 184d 4cbd e89b 8dbd 59c2 ee3d
00000070: b113 3f3e 4ee2 75bb 5d73 d83d 333b 103e
00000080: 8a65 4b3d abcb 50bc 2d11 18be 5ad6 b8bd
00000090: 1b56 5fbd 8c8c 5c3e b00a 33be f173 e03d
000000a0: 615a 413d d974 983d ad18 ccbe da92 95be
000000b0: 1005 c4bd fc14 6bbe a497 623c 823a 0e3e
000000c0: e228 eebe 1b56 833d 0d9b 5ebd fbd1 0fbd
000000d0: 7f77 64be 3aad 86bd 58ac 833e 1051 d93b
000000e0: af7a 543c aa40 c7bd 39f2 4d3d c608 2abe
000000f0: a135 f33d 52c6 a9bd 3ce4 eabd 4d67 3d3c
00000100: 3006 05be f865 cabd 48c3 053e 2e0b 883d
00000110: 6bb2 23be ba41 b5bd 500f 34bd 83e2 7c3d
00000120: 8c8f 0cbe fb9b da3d 4637 d63b f14b 593e
00000130: 3aec 6dbe 8d9b 093e 51a5 c23d 814c c43c
00000140: 7362 bdbe cb8a 403b 1726 4cbe a4b3 a6bd
00000150: 6c39 1f3e b364 cebd 06ad 88bd 32ec 66bd
00000160: 5925 613e a821 373d 7653 a0be 054f ebbe
00000170: 28af a03d 87aa f53d 5065 ec3c 97ba 0a3e
00000180: a8eb 9a3d 083a 3cbd 56f9 b1bd 1563 e53c
00000190: fa44 a5bc 83c5 80be b697 373d 0a95 03be
000001a0: 53fe 433c 4923 23bd b328 b7bd 088e bdbd
000001b0: 5469 333d a5a2 02be 7d8b 40be 0c62 153a
000001c0: fa36 26be f752 3cbd 21be a13d 8a6b dabe
000001d0: 59c9 d0bd 60aa 013e ff27 91bd dc38 41bd
000001e0: 6a32 d83d 21c3 d83b b343 c9bd 9a2d d2bd
000001f0: 1085 c0be 9ca5 c3bd 5974 463e 43fc 073e
00000200: 0dbf 58be a955 353e 3407 283e 8955 8bbe
00000210: c2de bd3d 4994 47be bb14 70bc 867a d7bd
00000220: 7a39 01be 5277 a83d 3998 11be f32b 1bbd
00000230: 58e3 ab3d 306c 5ebe e583 a2be e080 aabe
00000240: f9ba a1bd 3cc6 9ebd 7ee3 8ebe fa4e ebbd
00000250: cd7f 6bbd 3ed0 f93d 4be8 cd3c 13f8 233e
00000260: f8e1 f53d db8c de3a 2c5b 0a3e 1dc5 fbbc
00000270: 011c 03be 90d4 1abe 6eb7 903d 53b2 c5bd
00000280: 5a00 86be 2f6a a0be aa6d f9bd 4b1c e1be
00000290: 6328 4e3e e158 94bd 0038 313c c890 fe3d
000002a0: 8662 30bd beee e43d 33f3 19be 4871 8cbe
000002b0: 3dae 183e 1763 0dbd 3af1 cc3c a039 763d
000002c0: 24d4 44bd 418c 55be 8fb0 93bc adf5 55bd
000002d0: e737 cbbd 378b 7dbd 8e13 4d3e 2b57 2ebd
000002e0: 4375 b23b d938 723e 29f1 19be c697 cd3c
000002f0: 04b8 6bbd bcb4 473e ad18 c7be ed06 6d3e
00000300: c8b0 bebd 57fc d23d a772 0c3e feea 6f3e
00000310: 402f 4f3c 19df 39be 9fac b3be 8dbf 08be
00000320: c57b 9a3c 6f4b e93c 4bb9 18be 8d5d 603d
00000330: 2be8 963e bd44 06bb 83f9 3d3d c5e0 a6bd
00000340: 31f1 1cbe dd39 ce3c 84a3 c03c 3166 763d
00000350: baa4 8dbe 804c 143e 7925 e53d f9b6 59be
00000360: 5c8b 52bd 8654 1bbe 642f a23c 8090 14bc
00000370: 5fb7 6bbe 8242 43bb 6489 09be 7012 333d
00000380: ad76 073e 806c 913c cfdb e6bd 49a2 96bd
00000390: 873a 6e3e eb75 21bd 8170 49be 27a0 933d
000003a0: 1fcd 18be 1dd2 cebc 4692 573d c5cc f53d
000003b0: acc3 50bd cab4 173d 094f 32be 832e e33d
000003c0: 06a3 a53d 5db7 c53d c4a0 a33d bfd7 c9bd
000003d0: 5109 0fbe 6c80 313d 70b8 87bd 4db9 b53c
000003e0: 860f 3ebe b067 f63d 5415 493d c23d edbc
000003f0: 4386 c7be 0b8c 02be b262 5e3d 400a b43d
