BirdNet_Trained_Model/trained_model_classifiers/Custom_Classifier8.tflite (tflite, 111776 bytes, 2 tensors)

sequential/dense/BiasAdd/ReadVariableOp f4 [27]
-0.022601018 0.028754817 -0.053353738 -0.024035199 -0.6004074 -0.09062673 -0.13510616 -0.170201
-0.13008903 -0.008295398 -0.08339437 -0.117591515 -0.1307212 -0.13380165 -0.08336726 -0.046722047
-0.043114763 -0.09574736 -0.11708642 -0.1042266 -0.057742096 -0.165731 -0.22594243 -0.16089995
-0.06565852 -0.08468766 -0.09924925
00000000: c525 b9bc 398f eb3c 7389 5abd 77e5 c4bc
00000010: 4db4 19bf 829a b9bd 4559 0abe 2c49 2ebe
00000020: 0f36 05be 6ce9 07bc abca aabd d2d3 f0bd
00000030: c7db 05be 4d03 09be 74bc aabd 9e5f 3fbd
00000040: 1b99 30bd 3117 c4bd 01cb efbd c174 d5bd
00000050: fa82 6cbd 63b5 29be 745d 67be f5c2 24be
00000060: f977 86bd b970 adbd 3143 cbbd

sequential/dense/MatMul f4 [27, 1024]
0.28127602 0.40957123 0.24560115 -0.07249058 -0.4377437 -0.55792695 0.23955533 -0.24235764
0.46969667 0.18632622 0.03309942 -2.259162 0.41991758 -0.021680757 -0.38822734 0.6594329
-0.55512345 -0.8868923 -0.25900418 0.01888777 0.36491388 0.8532988 0.61284864 -0.35144812
-0.29085216 -0.00042061307 -0.20690757 0.84193873 1.5154763 -0.20433377 0.43407905 0.474569
0.41014248 0.106028475 -0.48077267 -0.49159023 -0.8760482 2.0345774 -0.98382354 0.6552116
0.17422457 0.11508145 -5.361198 -0.3839447 -0.40979242 -0.80032814 0.9775631 0.53133714
-3.1240268 -0.002992529 0.031767223 0.2787216 -1.6588075 0.20660031 1.4741365 0.22777273
-1.6495956 -1.1349844 0.1989585 -1.1371403 1.6489382 -0.34839916 -0.46465752 0.798504
-1.0589741 -0.341804 0.63413984 1.0917952 -0.70088327 -0.59838253 -0.8822263 0.47084862
-0.3197875 0.9663659 0.6909357 0.6547171 -1.9223936 0.06281294 0.51179683 0.21538155
-1.5320414 -0.21648726 -1.6376727 0.02758593 1.0039729 -0.6617009 -0.7150768 -0.7259775
1.4835128 -0.38153374 -1.7353735 -2.3888204 -0.24729323 0.48572952 -0.074797034 1.4713094
0.36112756 0.33090022 -0.75077355 0.4783809 0.07296394 -1.2744459 -0.07385008 -0.88605857
-0.048279203 -0.29634836 -0.39244625 -0.32435215 0.42832288 -0.7312065 -0.6970944 -0.6866203
-0.5283633 -0.26718095 0.5701389 -1.9882132 -0.8581527 -0.058594026 -0.44918135 -0.4392611
0.026078705 -0.060742494 -1.0006703 -0.006650415 -1.4137529 -0.63000274 2.114871 0.20325834
-0.7421554 1.8576694 0.8098349 -0.58808637 0.47762445 -1.1602086 1.9878151 -0.71954465
-0.994943 0.427349 -0.33287466 -0.057963654 -0.11816224 -1.004029 -1.6948622 -2.0215502
-0.040329155 -0.038143862 -0.72947645 -0.5207969 -0.027460026 1.3932846 0.21647704 1.6659393
0.82703024 0.48079285 0.45511094 -0.056873478 -0.43305033 -0.5009029 0.12133789 -0.034911156
-1.2431319 -2.1856916 -0.5328118 -1.2321976 0.45084962 -0.60788 -0.028528832 0.078217335
-0.3227745 1.0547067 -1.3438243 -1.2855797 1.3931736 0.012257326 0.091661714 0.16084237
-0.26262933 -1.3719304 -0.83052415 -0.0044176425 -0.8385219 -0.11674296 0.7559256 -0.05210454
0.12510231 1.6063188 -1.0219626 0.040611394 -1.73841 2.8826754 -1.9780183 4.2736263
-0.7518139 -0.20679 0.5191672 1.0047401 0.0054066875 -1.3947625 -3.8132277 -0.96584934
0.16728818 -0.3682936 -0.47081625 0.34803912 2.5735207 -0.067915194 -0.15040094 -0.221591
-0.6060205 0.006921341 -0.22176109 1.3037654 -1.1594006 2.167403 1.2143205 -1.2047958
-0.10364383 -1.3486673 0.3440937 0.20834911 -2.7204096 0.093349956 -0.68049175 0.19388556
1.063356 -0.07093259 -0.23524195 -0.71133626 0.77166677 0.05921069 -0.52980244 0.29384893
-0.6378996 -0.8283035 0.25080177 0.3923218 -0.27010784 -0.06320958 -0.93351007 1.1971629
0.06886 0.7256254 0.42315438 -0.07359645 -0.7050494 0.16000481 0.121267416 0.12099256
-0.8581184 1.330743 0.03756029 -0.41142058 -2.6007605 -0.28556082 -0.5985836 0.48780686
00000000: 6903 903e 52b3 d13e de7e 7b3e f175 94bd
00000010: f11f e0be 4dd4 0ebf fe4d 753e 9a2c 78be
00000020: 157c f03e 4dcc 3e3e 4293 073d 1c96 10c0
00000030: 70ff d63e d89b b1bc bcc5 c6be 98d0 283f
00000040: 921c 0ebf 600b 63bf 329c 84be 86ba 9a3c
00000050: fed5 ba3e ca71 5a3f a6e3 1c3f 02f1 b3be
00000060: 93ea 94be bb85 dcb9 94df 53be 4c89 573f
00000070: 21fb c13f df3c 51be 9c3f de3e b5fa f23e
00000080: 32fe d13e 7525 d93d d627 f6be b7b1 fbbe
00000090: b244 60bf 8436 0240 dcdb 7bbf f3bb 273f
000000a0: ed67 323e d3af eb3d ef8e abc0 6694 c4be
000000b0: 50d0 d1be 4ee2 4cbf 9341 7a3f b605 083f
000000c0: 0ef0 47c0 4e1e 44bb 591e 023d 99b4 8e3e
000000d0: ce53 d4bf 088f 533e 81b0 bc3f 413d 693e
000000e0: f325 d3bf 2b47 91bf c7bb 4b3e d08d 91bf
000000f0: 6810 d33f 6061 b2be 97e7 edbe c26a 4c3f
00000100: 778c 87bf ef00 afbe fd56 223f f2bf 8b3f
00000110: 166d 33bf 992f 19bf 95d9 61bf 1213 f13e
00000120: 30bb a3be c163 773f 29e1 303f 8a9b 273f
00000130: fe10 f6bf 12a4 803d 1e05 033f fb8c 5c3e
00000140: ef19 c4bf d6ae 5dbe 429f d1bf e3fb e13c
00000150: 2f82 803f 3b65 29bf 460f 37bf a9d9 39bf
00000160: bfe3 bd3f 6458 c3be b820 debf 6fe2 18c0
00000170: 703a 7dbe 8ab1 f83e 302f 99bd de53 bc3f
00000180: b6e5 b83e c16b a93e b232 40bf 57ee f43e
00000190: 1e6e 953d 0b21 a3bf b63e 97bd bcd4 62bf
000001a0: 6ac0 45bd f9ba 97be b7ee c8be 7c11 a6be
000001b0: 234d db3e 5930 3bbf c774 32bf 59c6 2fbf
000001c0: d142 07bf f1cb 88be 9ff4 113f c57d febf
000001d0: e5af 5bbf 4a00 70bd 19fb e5be d5e6 e0be
000001e0: 02a3 d53c 1fcd 78bd f715 80bf b9eb d9bb
000001f0: dbf5 b4bf dc47 21bf 0c5a 0740 f422 503e
00000200: e5fd 3dbf 1cc8 ed3f 5751 4f3f d48c 16bf
00000210: 318b f43e b781 94bf ba70 fe3f 1434 38bf
00000220: 96b4 7ebf 7dcd da3e 8c6e aabe 4c6b 6dbd
00000230: 0bff f1bd 0684 80bf 3ff1 d8bf 1461 01c0
00000240: 2f30 25bd bd3c 1cbd f8be 3abf f252 05bf
00000250: d9f3 e0bc 2657 b23f 28ac 5d3e 803d d53f
00000260: 41b8 533f 7b2a f63e 4d04 e93e 2af4 68bd
00000270: c6b8 ddbe 2c3b 00bf 0080 f83d 00ff 0ebd
00000280: f21e 9fbf 5fe2 0bc0 5b66 08bf a7b8 9dbf
00000290: c3d5 e63e 069e 1bbf 4cb5 e9bc 6930 a03d
000002a0: b342 a5be a100 873f 6f02 acbf e08d a4bf
000002b0: 8353 b23f f4d2 483c 23b9 bb3d ddb3 243e
000002c0: 5a77 86be 6a9b afbf 3b9d 54bf dfc1 90bb
000002d0: 5fa9 56bf ef16 efbd 5784 413f 926b 55bd
000002e0: d21a 003e db9b cd3f accf 82bf 2258 263d
000002f0: 3884 debf c17d 3840 b42f fdbf 8cc1 8840
00000300: e076 40bf c2c0 53be 24e8 043f 539b 803f
00000310: 952a b13b 9487 b2bf ec0b 74c0 e741 77bf
00000320: 984d 2b3e fb90 bcbe d40e f1be 2f32 b23e
00000330: 90b4 2440 1f17 8bbd b402 1abe c0e8 62be
00000340: 2924 1bbf 6bcc e23b 5715 63be c9e1 a63f
00000350: 3d67 94bf bbb6 0a40 db6e 9b3f c036 9abf
00000360: 3743 d4bd 21a1 acbf 0d2d b03e 7859 553e
00000370: 311b 2ec0 432e bf3d b534 2ebf f089 463e
00000380: 0d1c 883f 1b45 91bd 44e3 70be 221a 36bf
00000390: f48b 453f e986 723d 22a1 07bf 5e73 963e
000003a0: 634d 23bf b30b 54bf 1769 803e 67de c83e
000003b0: 934b 8abe 0674 81bd 84fa 6ebf a23c 993f
000003c0: 7906 8d3d 96c2 393f b1a7 d83e bcb9 96bd
000003d0: 1e7e 34bf 4dd8 233e 0d5b f83d f3ca f73d
000003e0: a6ad 5bbf c955 aa3f d2d8 193d b8a5 d2be
000003f0: dc72 26c0 0735 92be c63c 19bf d2c1 f93e
