BirdNet_Trained_Model/trained_model_classifiers/Custom_Classifier21.tflite (tflite, 595344 bytes, 14 tensors)

sequential/dense_1/MatMul;sequential/dense_1/Relu;sequential/dense_1/BiasAdd f4 [96]
-14.966686 -47.64106 -5.3238053 -24.21804 -23.852716 -21.029802 11.166694 -50.03072
22.67135 -45.18012 -20.678116 31.709476 -58.76163 55.491257 -0.12234362 36.164207
65.08194 -58.266342 -81.20536 71.32311 46.887234 -13.259681 -40.37607 -1.4050521
15.111699 59.20771 -24.505999 28.057234 21.528284 40.629837 34.121113 48.289043
-22.234999 8.518677 26.238852 -3.9787407 -17.486557 32.82891 -7.6418056 -17.359236
-25.31673 14.528294 18.437569 47.26469 -61.9128 -42.2625 67.77629 -11.435293
51.20027 -43.278706 -15.289471 -5.613833 -55.84078 45.24731 18.196901 49.46475
-25.987215 -41.77679 -34.257328 15.004135 32.241306 -31.65969 -37.131588 27.472864
-15.761983 68.99469 29.0005 29.223017 33.13505 2.7730489 23.79598 33.67026
15.037919 32.730923 -16.483358 74.61143 42.110435 37.090343 3.9915197 -3.454511
-14.543162 3.3831756 -62.713615 -50.52672 -53.90751 21.889997 25.20333 -31.578136
45.05849 35.586475 53.787205 34.178764 -23.943974 -1.9729801 -1.8791615 27.30712
00000000: 8c77 6fc1 7290 3ec2 9d5c aac0 8cbe c1c1
00000010: 5dd2 bec1 093d a8c1 c7aa 3241 751f 48c2
00000020: ed5e b541 71b8 34c2 c86c a5c1 02ad fd41
00000030: e90b 6bc2 0cf7 5d42 4b8f fabd 26a8 1042
00000040: f429 8242 bc10 69c2 2569 a2c2 6fa5 8e42
00000050: 878c 3b42 a727 54c1 1881 21c2 bfd8 b3bf
00000060: 85c9 7141 b2d4 6c42 490c c4c1 3775 e041
00000070: ed39 ac41 f484 2242 057c 0842 fb27 4142
00000080: 47e1 b1c1 804c 0841 2be9 d141 b0a3 7ec0
00000090: 78e4 8bc1 ce50 0342 ac89 f4c0 b7df 8ac1
000000a0: aa88 cac1 e473 6841 2480 9341 0b0f 3d42
000000b0: b5a6 77c2 cd0c 29c2 768d 8742 f6f6 36c1
000000c0: 14cd 4c42 651d 2dc2 aca1 74c1 85a4 b3c0
000000d0: f55c 5fc2 3ffd 3442 4193 9141 e7db 4542
000000e0: d1e5 cfc1 6f1b 27c2 8107 09c2 f010 7041
000000f0: 19f7 0042 0c47 fdc1 bf86 14c2 6dc8 db41
00000100: 1531 7cc1 48fd 8942 0601 e841 bdc8 e941
00000110: 4b8a 0442 a279 3140 2b5e be41 59ae 0642
00000120: 519b 7041 77ec 0242 ebdd 83c1 0d39 9542
00000130: 1671 2842 835c 1442 0f75 7f40 b516 5dc0
00000140: cbb0 68c1 f385 5840 beda 7ac2 5c1b 4ac2
00000150: 4aa1 57c2 b71e af41 6ba0 c941 06a0 fcc1
00000160: e53b 3442 8d58 0e42 1926 5742 0eb7 0842
00000170: 428d bfc1 9d8a fcbf 5d88 f0bf fb74 da41

sequential/batch_normalization/batchnorm/mul_1;sequential/batch_normalization/batchnorm/add_1;sequential/dense_1/MatMul;sequential/dense_1/Relu;sequential/dense_1/BiasAdd f4 [96, 96]
-0.08448389 -0.01358556 -2.565626 -0.107007764 -0.010540468 0.03367308 0.8479553 -0.41050497
0.00600586 0.038118824 -0.5434943 0.039572872 0.39069885 0.3720643 0.6459368 0.6500373
-0.0074885106 0.0032229437 -0.07904271 1.8087093 0.4455295 0.048870023 0.008951673 0.026646987
-0.02254386 -2.1449583 -0.0066387802 -0.10188048 -0.007595842 0.07119639 0.15624051 0.9931794
0.000994448 0.04400466 0.01686979 -0.000927757 -3.04532 1.4487832 -1.0784826 -0.07270219
0.04863031 0.6959344 -0.009968019 0.11590743 -0.0007269818 0.0060912985 0.029385475 0.4372041
-0.12955973 0.65252566 -0.27582568 0.43452832 -0.53781563 0.04196135 -0.010599511 2.816041
0.0040113213 -0.19419906 0.013324735 -1.8811803 -0.5326218 0.013397274 0.0017683308 -0.008550754
0.0006923474 0.09666548 0.03727872 -0.008876954 -3.0711825 -1.3532363e-05 -0.0041801864 -0.3147532
-0.002418099 -2.4646363 9.2921946e-05 0.006625167 0.0016396159 0.09382676 0.0011942465 -0.07828318
-0.33628774 -1.4377527 -0.04313758 2.4144714 0.04188247 0.03471815 0.008810182 -0.032201882
-0.49874324 -2.333747 0.24380341 0.01918568 0.025088953 0.74649316 -0.0048823603 -0.8959837
-0.19722277 -0.020473871 -3.5614634 0.083912395 -0.038286544 0.0075070136 -0.48818365 -0.37194508
0.011253335 0.057967097 -3.4697757 -0.037632316 -0.58668786 -0.61265105 -0.037047196 0.61389
-0.01831873 0.05642827 -0.0156431 -1.6075134 -0.56642455 0.0021571764 -0.08444108 0.0008003395
-0.015100139 1.4095947 0.0012232577 0.14102025 0.016617032 0.03128476 0.012278374 -0.63017225
0.00055296725 0.022605576 0.02760211 -0.0005051419 2.3307729 2.2796264 -0.6020399 0.030798195
0.042484853 -0.7374892 -0.0043399567 0.6720203 -0.026415827 0.0045621158 -0.027877953 0.41981643
-0.63056237 -0.64092946 0.016020996 0.62191886 0.41862664 0.039932422 0.036430452 2.8344977
0.15466835 0.09088982 0.10350616 0.6982221 0.68132627 0.013170727 0.0039511775 -0.029807705
6.870041e-05 0.11421421 -0.018328872 -0.010850029 2.0533454 -3.939281e-06 0.008509133 0.6579022
0.109514944 2.7225237 0.0063715302 0.04544282 -0.021455077 0.052667104 0.004017645 -0.08697984
-0.51879317 0.5783462 0.0284544 -2.5869286 -0.14926314 0.033080827 -0.014642391 -0.009563651
-0.4344549 2.7358181 -0.15838595 0.03303965 0.028501596 -0.64709157 -0.0003412949 0.4304625
-0.023482168 0.026099913 -0.7315446 0.154065 0.010847201 -0.016199894 -0.6141489 -0.6066151
0.01854068 0.018048871 3.246537 0.03402355 0.39922053 0.72600424 0.6580244 0.7062585
0.036705952 0.051522765 -0.06546362 1.153642 -0.5532658 0.042930774 -0.013220743 0.10459659
-0.030572584 0.32511783 0.01224364 -0.102782406 0.0015324865 -0.07103332 0.114919394 0.65451205
0.0001284857 -0.056272663 0.027441377 0.0009773828 2.3925793 -2.5959895 0.0599583 -0.059282586
0.02039627 -0.38386756 0.0062408233 0.6238826 -0.02944557 0.0006264443 0.023294019 -0.79920566
0.7500597 -0.74362946 -0.13403977 0.64278764 0.8289369 -0.05655692 0.020015774 -4.3149176
-0.052036423 -0.22107431 -0.044060558 0.8442134 -0.61032087 -0.008249885 0.0037843997 0.018385457
00000000: e405 adbd f895 5ebc 3733 24c0 e326 dbbd
00000010: edb1 2cbc c9ec 093d 9913 593f b52d d2be
00000020: cecc c43b 7c22 1c3d 7122 0bbf 2a17 223d
00000030: ae09 c83e 367f be3e 1d5c 253f d868 263f
00000040: 2e62 f5bb 0638 533b 25e1 a1bd c983 e73f
00000050: 711c e43e ef2b 483d 0aaa 123c c84a da3c
00000060: e7ad b8bc ff46 09c0 208a d9bb b7a6 d0bd
00000070: 8ae6 f8bb 6acf 913d 83fd 1f3e 0141 7e3f
00000080: 2358 823a 3b3e 343d 8432 8a3c b834 73ba
00000090: 86e6 42c0 ba71 b93f b80b 8abf e3e4 94bd
000000a0: 9330 473d c228 323f e750 23bc e060 ed3d
000000b0: ec92 3eba 8499 c73b cfb9 f03c 37d9 df3e
000000c0: 4eab 04be ec0b 273f 0639 8dbe 7f7a de3e
000000d0: 49ae 09bf aadf 2b3d 92a9 2dbc 043a 3440
000000e0: 6771 833b 1edc 46be fd4f 5a3c 84ca f0bf
000000f0: e759 08bf 3d80 5b3c 56c7 e73a 7618 0cbc
00000100: a67e 353a 8df8 c53d 92b1 183d a570 11bc
00000110: 418e 44c0 0e09 63b7 f2f9 88bb 5527 a1be
00000120: f878 1ebb 9abc 1dc0 17df c238 ee17 d93b
00000130: 61e8 d63a 3f28 c03d 4388 9c3a ef52 a0bd
00000140: e82d acbe 4808 b8bf 08b1 30bd b386 1a40
00000150: f48c 2b3d 9e34 0e3d 9558 103c 1fe6 03bd
00000160: 465b ffbe 1c5c 15c0 9aa7 793e 4a2b 9d3c
00000170: 5987 cd3c 2d1a 3f3f 35fc 9fbb 305f 65bf
00000180: c4f4 49be d2b8 a7bc 04ef 63c0 43da ab3d
00000190: 5ad2 1cbd 65fd f53b 35f3 f9be 966f bebe
000001a0: e85f 383c e86e 6d3d ce10 5ec0 5824 1abd
000001b0: 2d31 16bf b3d6 1cbf cdbe 17bd e527 1d3f
000001c0: 2911 96bc 5421 673d f525 80bc 00c3 cdbf
000001d0: 3301 11bf 6a5f 0d3b 72ef acbd e0cd 513a
000001e0: 9366 77bc 996d b43f b855 a03a 9d67 103e
000001f0: 7120 883c 7324 003d 3c2b 493c f852 21bf
00000200: 01f5 103a 542f b93c d21d e23c 806b 04ba
00000210: 622b 1540 66e5 1140 491f 1abf 7f4c fc3c
00000220: 9904 2e3d 18cc 3cbf 3236 8ebb 8609 2c3f
00000230: 0166 d8bc cd7d 953b 4e60 e4bc 2ef2 d63e
00000240: 896c 21bf f413 24bf 773e 833c 1336 1f3f
00000250: 3b56 d63e 2e90 233d 1938 153d 6968 3540
00000260: 6161 1e3e 7124 ba3d 0afb d33d afbe 323f
00000270: 666b 2e3f 08ca 573c e178 813b 4a2f f4bc
00000280: 4013 9038 24e9 e93d 6e26 96bc 52c4 31bc
00000290: 036a 0340 2b2e 84b6 e469 0b3c 476c 283f
000002a0: 5f49 e03d d43d 2e40 45c8 d03b 4022 3a3d
000002b0: 8fc2 afbc 76b9 573d 73a6 833b 7d22 b2bd
000002c0: a1cf 04bf 7f0e 143f 3419 e93c 3d90 25c0
000002d0: 70d8 18be c37f 073d a4e6 6fbc dcb0 1cbc
000002e0: df70 debe a517 2f40 ed2f 22be 9654 073d
000002f0: 2e7c e93c cba7 25bf d3ef b2b9 9565 dc3e
00000300: ad5d c0bc 7ccf d53c 8246 3bbf 37c3 1d3e
00000310: 75b8 313c a4b5 84bc dd38 1dbf 214b 1bbf
00000320: a0e2 973c 3adb 933c 43c7 4f40 475c 0b3d
00000330: a266 cc3e 6adb 393f 4974 283f 5bcd 343f
00000340: fb58 163d 8909 533d ca11 86bd 8baa 933f
00000350: d4a2 0dbf 2ed8 2f3d d19b 58bc bd36 d63d
00000360: 5b73 fabc d875 a63e 8c99 483c 957f d2bd
00000370: b7dd c83a eb79 91bd dc5a eb3d 1a8e 273f
00000380: 1eba 0639 2a7e 66bd bdcc e03c 861b 803a
00000390: 0520 1940 b124 26c0 d696 753d 4cd2 72bd
000003a0: 1416 a73c 4a8a c4be d27f cc3b c5b6 1f3f
000003b0: d637 f1bc f737 243a 19d3 be3c be98 4cbf
000003c0: ea03 403f 805e 3ebf b941 09be bb8d 243f
000003d0: 3535 543f 3ba8 67bd 1ff8 a33c ce13 8ac0
000003e0: 2524 55bd 4e61 62be d878 34bd 5f1e 583f
000003f0: fd3d 1cbf 872a 07bc b103 783b 199d 963c

sequential/dense_2/MatMul;sequential/dense_2/Relu;sequential/dense_2/BiasAdd f4 [96]
-4.694461 -3.3402028 -9.616938 -7.054492 16.503298 -7.8183565 -3.5489287 2.0239441
28.636953 10.473583 3.9828415 12.254049 17.698706 -31.449734 -23.524664 10.908169
6.2639546 -16.779743 -4.281116 9.191091 -1.0638393 -3.8400764 12.466915 -13.432081
3.820605 0.49741796 -3.574582 -18.87717 3.6545508 -13.621114 -20.733944 -18.95728
-27.615385 20.128412 -8.309556 18.065422 9.61775 19.752283 -20.034895 3.457601
9.828773 -8.808461 -10.290242 5.905674 10.829285 -9.829119 -12.555759 -5.7067604
6.204433 -17.140356 4.6997204 12.799091 3.3750741 14.150578 -16.057163 -1.4106591
-17.971493 11.50444 -3.440082 2.657651 12.087358 -5.575298 -3.3543172 8.700486
0.48400766 -24.219198 -13.210996 27.083136 -0.9717242 1.9317266 -6.149813 -10.943861
20.704617 -1.781931 14.2227545 7.050937 -14.128808 23.335213 16.60475 -13.355877
-7.7133446 -0.094064295 6.683601 -5.89757 30.960724 3.8394523 -14.647526 7.826984
-23.767647 -5.750027 1.3804965 -13.384185 -5.6948647 0.37538818 4.8636317 -1.5146508
00000000: 0639 96c0 e2c5 55c0 fade 19c1 66be e1c0
00000010: c106 8441 fa2f fac0 a621 63c0 4d88 0140
00000020: 7b18 e541 cc93 2741 e0e6 7e40 9610 4441
00000030: f396 8d41 0e99 fbc1 8332 bcc1 dc87 2e41
00000040: 5172 c840 ea3c 86c1 e7fe 88c0 b50e 1341
00000050: e32b 88bf d0c3 75c0 7c78 4741 cee9 56c1
00000060: cb84 7440 91ad fe3e f4c5 64c0 7204 97c1
00000070: 29e4 6940 15f0 59c1 1edf a5c1 82a8 97c1
00000080: 4fec dcc1 fd06 a141 f1f3 04c1 fc85 9041
00000090: 4ee2 1941 ad04 9e41 7747 a0c1 5649 5d40
000000a0: a742 1d41 75ef 0cc1 d5a4 24c1 48fb bc40
000000b0: c044 2d41 1244 1dc1 64e4 48c1 c89d b6c0
000000c0: b78a c640 731f 89c1 1c64 9640 14c9 4c41
000000d0: 3701 5840 c468 6241 1275 80c1 7a90 b4bf
000000e0: 9ec5 8fc1 3012 3841 4e2a 5cc0 f416 2a40
000000f0: d265 4141 d768 b2c0 22ad 56c0 3135 0b41
00000100: dacf f73e ebc0 c1c1 3d60 53c1 43aa d841
00000110: ebc2 78bf d142 f73f 45cb c4c0 0e1a 2fc1
00000120: 0ea3 a541 5116 e4bf 6790 6341 47a1 e140
00000130: 990f 62c1 84ae ba41 87d6 8441 acb1 55c1
00000140: b8d3 f6c0 c8a4 c0bd 0fe0 d540 e5b8 bcc0
00000150: 90af f741 96b9 7540 445c 6ac1 a776 fa40
00000160: 2424 bec1 3900 b8c0 1cb4 b03f 9f25 56c1
00000170: 553c b6c0 e132 c03e dfa2 9b40 14e0 c1bf

sequential/batch_normalization_1/batchnorm/mul_1;sequential/batch_normalization_1/batchnorm/add_1;sequential/dense_2/MatMul;sequential/dense_2/Relu;sequential/dense_2/BiasAdd f4 [96, 96]
-0.05742614 0.021408038 0.079556145 -0.22232768 1.7357805 -0.012496535 0.2629895 -0.05907585
0.25060043 -0.008588581 0.07000844 -0.021677624 0.07620804 -0.021185389 0.08916457 0.000434989
-0.05121011 -0.026620371 0.012500814 0.020564865 0.047628835 -0.096174054 -0.057893798 -0.15814313
-0.19486691 -0.010432559 -0.0030481708 0.0740389 -0.024588538 0.04301188 0.1420115 0.2786642
0.010188536 -0.034805506 0.11216121 0.089094386 0.018573072 0.15330707 -0.012759521 -0.04958723
-0.18344873 -0.0989566 -0.036798216 -0.011692121 0.081520505 -0.11571425 -0.056323092 0.64381903
0.18621135 0.03927102 0.07762691 0.0058559855 -0.056222238 0.1618442 -0.22923252 -0.03122641
-0.29830346 -0.14620475 0.10488981 -0.0247904 0.10263127 -0.00327111 0.085579865 -0.15199906
-0.20944059 0.096028425 -0.0027281553 -0.011992639 -0.010737948 0.033092096 0.08117222 0.01628473
-0.0168002 0.4360475 0.026317948 0.049874626 -0.052630473 0.11149986 -0.0980088 0.1150824
-0.0045675347 0.073315375 -0.23340437 -0.07241366 0.1576868 0.22619161 0.1206156 0.10315688
-0.02330801 -0.03540691 0.006487473 -0.26198322 0.20873421 -0.024886811 0.45701426 0.04686501
0.06003675 0.1843638 0.08849463 -0.052198745 -0.7736171 -0.009334134 -0.3021913 -0.17407699
-0.047593538 0.00012268462 0.21402265 -0.0468847 -0.025606517 -0.029265696 0.009265038 -0.044705015
0.0016351106 0.017040947 0.013408738 -0.009766785 -0.06182579 0.13268521 0.08897035 -0.1888512
0.08261572 -0.07712155 -0.16123532 -0.021545682 -0.07608166 -0.058783405 -0.04328739 -0.16967374
-0.020811038 -0.044662204 0.0032466839 0.0004923335 -0.0051975437 -0.108351715 -0.061666775 0.00030555902
0.21774754 0.112392925 0.008840933 0.011928786 -0.030934298 0.033785656 -0.084025055 -0.27001545
-0.18543607 -0.05820206 0.07492876 -0.05165983 -0.055802695 0.020156227 -0.42041185 -0.05302633
0.2009282 -0.14694364 -0.10952747 0.04803502 -0.09431459 -0.0060394946 0.068501495 -0.074874036
-0.098916136 -0.057458896 -0.049988437 -0.008403959 0.0077241417 0.015022699 -0.038636245 0.02864708
0.012716415 -0.12284828 0.017248265 -0.016867049 0.033122636 -0.43183827 0.15610987 0.07305617
0.07907663 0.26714125 0.20901322 0.17339802 0.06625244 0.3613689 -0.017756615 0.12117498
-0.02937097 -0.14582694 -0.011970207 -0.0130314315 0.07420678 -0.2230474 -0.61273456 -0.03488638
-0.009572054 0.14172727 0.10172219 -0.08669243 0.4142718 0.0097506065 -0.32839647 -0.2798727
0.31550288 -0.010029392 0.035265878 -0.13194528 -0.07586586 0.054633982 -0.0023244687 -0.11011372
0.058027264 -0.0025793302 0.011831431 -0.0037184963 0.026990775 0.14599164 0.042483505 -0.25455812
0.10174606 0.035201 -0.018232394 -0.015625548 -0.005119713 -0.15084456 0.08580873 -0.020948058
0.010543689 0.023800649 0.1324402 0.1240237 0.06864706 -0.08586969 0.016281594 -0.048242215
0.07804118 -0.040753037 0.036571365 0.012282523 0.12957221 -0.19975875 0.12923913 1.1603899
-0.11238862 -0.030601038 0.06575608 0.04051264 -0.05726355 -0.063016616 -0.18288022 -0.012541685
0.18158339 -0.07086767 -0.014605368 0.115859605 0.035154704 0.012890175 0.08838227 -0.20643544
00000000: ac37 6bbd e95f af3c 55ee a23d dea9 63be
00000010: 0e2e de3f 44be 4cbc 8fa6 863e 85f9 71bd
00000020: b34e 803e 1fb7 0cbc 9660 8f3d 4695 b1bc
00000030: f612 9c3d fb8c adbc ea9b b63d 3c0f e439
00000040: b1c1 51bd f712 dabc 37d0 4c3c a677 a83c
00000050: 7416 433d e7f6 c4bd 0c22 6dbd 46f0 21be
00000060: 318b 47be 53ed 2abc d2c3 47bb b5a1 973d
00000070: e76d c9bc 3a2d 303d 766b 113e 13ad 8e3e
00000080: d1ed 263c 3890 0ebd c7b4 e53d 1e77 b63d
00000090: 8e26 983c 87fc 1c3e 4f0d 51bc fb1b 4bbd
000000a0: fcd9 3bbe c2a9 cabd bab9 16bd 4f90 3fbc
000000b0: 39f4 a63d 98fb ecbd 0bb3 66bd 53d1 243f
000000c0: 30ae 3e3e a6da 203d dbfa 9e3d 91e3 bf3b
000000d0: 4a49 66bd 7cba 253e eebb 6abe 87ce ffbc
000000e0: 3bbb 98be b3b6 15be 78d0 d63d 3d15 cbbc
000000f0: 5830 d23d 1e60 56bb 7f44 af3d a4a5 1bbe
00000100: 9877 56be 8daa c43d daca 32bb c67c 44bc
00000110: 38ee 2fbc 948b 073d 9f3d a63d 8e67 853c
00000120: 93a0 89bc 9e41 df3e bd98 d73c 5649 4c3d
00000130: 0d93 57bd 0a5a e43d d6b8 c8bd 52b0 eb3d
00000140: 42ab 95bb 5f26 963d 8e01 6fbe 9d4d 94bd
00000150: a678 213e c69e 673e 5005 f73d ea43 d33d
00000160: 71f0 bebc d606 11bd de94 d43b aa22 86be
00000170: 6cbe 553e 6ddf cbbc c6fd e93e 86f5 3f3d
00000180: 18e9 753d ddc9 3c3e ac3c b53d 5ace 55bd
00000190: c50b 46bf 32ee 18bc d1b8 9abe 3d41 32be
000001a0: 71f1 42bd e7a4 0039 c128 5b3e 2c0a 40bd
000001b0: c2c4 d1bc 9dbe efbc 63cc 173c 9b1c 37bd
000001c0: 3551 d63a 7599 8b3c 53b0 5b3c de04 20bc
000001d0: 0a3d 7dbd a2de 073e 1636 b63d 3562 41be
000001e0: 6e32 a93d e7f1 9dbd df1a 25be 9280 b0bc
000001f0: b4d0 9bbd dec6 70bd 1e4e 31bd f4be 2dbe
00000200: e97b aabc b7ef 36bd 51c6 543b f10f 013a
00000210: 2850 aabb 81e7 ddbd 4d96 7cbd 7033 a039
00000220: 36f9 5e3e 432e e63d 90d9 103c f470 433c
00000230: ed69 fdbc d462 0a3d 5415 acbd 773f 8abe
00000240: f4e2 3dbe 4965 6ebd 4074 993d 4299 53bd
00000250: 5e91 64bd ac1e a53c 3940 d7be 2332 59bd
00000260: 1fc0 4d3e 6578 16be f04f e0bd 5ec0 443d
00000270: 0228 c1bd f4e6 c5bb 834a 8c3d 8f57 99bd
00000280: 8b94 cabd 055a 6bbd adc0 4cbd c2b0 09bc
00000290: cc1a fd3b c421 763c 0a41 1ebd 48ad ea3c
000002a0: 8358 503c e197 fbbd 3c4c 8d3c c42c 8abc
000002b0: 9aab 073d e819 ddbe 44db 1f3e 799e 953d
000002c0: eef2 a13d bdc6 883e 9007 563e 408f 313e
000002d0: 5caf 873d 5805 b93e 5276 91bc 972a f83d
000002e0: 639b f0bc a853 15be b01e 44bc c981 55bc
000002f0: b9f9 973d 8a66 64be 2cdc 1cbf 05e5 0ebd
00000300: 1bd4 1cbc f420 113e b953 d03d cd8b b1bd
00000310: 6f1b d43e 02c1 1f3c 9523 a8be 794b 8fbe
00000320: 9889 a13e 5252 24bc f472 103d aa1c 07be
00000330: 8f5f 9bbd e2c7 5f3d 1d56 18bb 4d83 e1bd
00000340: ffad 6d3d fb09 29bb 9ed8 413c 04b2 73bb
00000350: c21b dd3c d57e 153e 2f03 2e3d 7155 82be
00000360: 3d60 d03d ec2e 103d 1a5c 95bc 2601 80bc
00000370: 44c3 a7bb ff76 1abe 7dbc af3d 439b abbc
00000380: 70bf 2c3c 94f9 c23c 679e 073e 2300 fe3d
00000390: d496 8c3d 73dc afbd fa60 853c a199 45bd
000003a0: 0ed4 9f3d a8ec 26bd dbcb 153d a33c 493c
000003b0: 94ae 043e 8f8d 4cbe 4357 043e a887 943f
000003c0: 012c e6bd 07af fabc 20ab 863d 95f0 253d
000003d0: 2f8d 6abd db0e 81bd f444 3bbe a47b 4dbc
000003e0: fff0 393e 1223 91bd 5a4b 6fbc cd47 ed3d
000003f0: 61fe 0f3d 5031 533c c301 b53d d063 53be

sequential/dense_3/MatMul;sequential/dense_3/Relu;sequential/dense_3/BiasAdd f4 [96]
-4.8949113 5.2443886 -12.791767 4.837442 14.929658 -10.251876 -2.5062816 14.07787
-15.086092 7.499386 -21.809626 11.167612 2.4179869 -6.336779 11.374891 22.193073
-5.2071056 -2.1622431 -7.350495 -12.350273 -6.517634 1.5563346 25.167286 7.7626805
-1.7723693 24.680397 18.198292 4.854525 2.8563695 -22.55937 -14.124063 -17.560091
-22.754944 4.494459 -10.491475 -7.011617 2.9474256 -8.15779 3.0961359 -6.630348
-10.450264 1.9618454 23.196568 10.343723 -0.14771745 24.658464 -12.1243725 15.651819
-0.360946 12.358364 4.65494 8.012789 -6.211846 -17.829363 0.66052365 2.7302713
-6.0482907 -1.6523046 -5.790218 4.5794654 -0.028926466 18.01511 9.721408 14.02443
-7.690303 28.742868 -16.686094 10.412759 10.908036 -14.057532 15.572502 4.6210017
4.7619524 -1.6608196 10.771238 -0.21855979 -1.8652537 3.179261 21.627054 -4.6814218
2.0671444 11.232618 -18.35585 11.306072 -14.996375 -12.917917 3.609148 4.097787
21.449741 -3.8012908 -1.7822042 -9.820513 1.8317689 5.3788214 -11.234271 -16.981216
00000000: 1da3 9cc0 08d2 a740 14ab 4cc1 53cc 9a40
00000010: e1df 6e41 af07 24c1 eb66 20c0 f53e 6141
00000020: a260 71c1 f8fa ef40 1d7a aec1 8aae 3241
00000030: 4cc0 1a40 e5c6 cac0 8eff 3541 6a8b b141
00000040: 9ca0 a6c0 3162 0ac0 4137 ebc0 b89a 45c1
00000050: 7590 d0c0 f935 c73f 9a56 c941 e167 f840
00000060: ffdc e2bf 7471 c541 1a96 9141 4558 9b40
00000070: c2ce 3640 9779 b4c1 29fc 61c1 117b 8cc1
00000080: 200a b6c1 9cd2 8f40 15dd 27c1 2b5f e0c0
00000090: 9fa2 3c40 4f86 02c1 1727 4640 d02b d4c0
000000a0: 4834 27c1 c01d fb3f 9292 b941 e47f 2541
000000b0: 3e43 17be 8944 c541 6efd 41c1 da6d 7a41
000000c0: eacd b8be dcbb 4541 45f5 9440 6234 0041
000000d0: 71c7 c6c0 89a2 8ec1 1418 293f c4bc 2e40
000000e0: 998b c1c0 b87e d3bf 7749 b9c0 fb8a 9240
000000f0: 32f7 ecbc f21e 9041 e38a 1b41 1164 6041
00000100: f616 f6c0 65f1 e541 1f7d 85c1 a99a 2641
00000110: 5187 2e41 a7eb 60c1 f828 7941 3fdf 9340
00000120: ea61 9840 bd95 d4bf fe56 2c41 23ce 5fbe
00000130: a2c0 eebf 0379 4b40 3504 ad41 35ce 95c0
00000140: 184c 0440 ceb8 3341 c8d8 92c1 ace5 3441
00000150: 27f1 6fc1 caaf 4ec1 48fc 6640 1221 8340
00000160: 1299 ab41 5948 73c0 441f e4bf d220 1dc1
00000170: 6777 ea3f 4e1f ac40 93bf 33c1 88d9 87c1

sequential/batch_normalization_2/batchnorm/mul_1;sequential/batch_normalization_2/batchnorm/add_1;sequential/dense_3/MatMul;sequential/dense_3/Relu;sequential/dense_3/BiasAdd f4 [96, 96]
0.01868043 -0.09609926 0.015519016 -0.05394661 -0.0015957061 0.03693091 0.13530892 0.03277197
-0.17960484 0.008304594 0.09723955 0.21167296 -0.31501347 -0.18939853 -0.09043263 -0.09551826
0.12222227 -0.12846465 -0.103331864 0.102663875 0.11603625 -0.000109857094 0.078963734 -0.09212472
0.024340952 0.09114617 0.16297181 0.06329401 -0.107399784 -0.053889833 0.06721813 0.028797353
-0.06764358 0.022853157 0.04839213 0.014348189 0.012724347 -0.069739036 -0.10467663 -0.1864331
-0.1621517 -0.18445744 0.37169766 0.12981081 0.0024487711 -0.017558068 0.033024643 -0.011953209
-0.053251963 0.13363451 -0.07276179 0.0041253474 0.009169451 0.029684763 0.04942758 -0.037943494
-0.061498087 0.03334955 0.01317683 -0.10689105 -0.06594422 -0.016317539 0.11885074 0.03141444
-0.13351652 -0.074794635 0.18789743 -0.004524294 0.13926105 0.07115093 -0.10270267 0.12064604
-0.069938265 -0.0010731374 -0.037816096 -0.004749992 0.04510535 -0.16551536 -0.020415947 -0.03965737
0.038187675 -0.02559996 -0.10662382 0.13659227 -0.026930891 -0.044944607 -0.2494147 0.010819012
-0.072004706 -0.0051842104 0.13233766 0.056596044 -0.04037521 0.05826288 0.16755679 0.17476784
0.007829363 0.007888106 -0.01666427 -0.051727936 -0.02670419 0.019576432 -0.2302941 0.04841288
0.32867447 -0.13615921 0.034675036 -0.3245283 0.33152762 0.48774502 -0.025207177 0.1495196
-0.016368253 -0.14366399 0.055973228 0.014227621 0.16364667 -0.0024756405 -0.062420268 0.15413587
0.119140916 -0.11525074 0.008211635 0.0649816 -0.14079584 -0.060001887 -0.19203378 -0.09399781
-0.012506352 0.01179117 0.12502147 -0.17167386 -0.024667287 0.17071857 0.06633888 -0.27416998
0.08477804 -0.06618025 -0.068275586 0.08251166 0.00011959228 -0.02871265 -0.053006936 0.010528694
0.03276047 -0.18662106 0.06136908 -0.007933783 0.06731345 0.019313255 -0.04170271 -0.09092102
-0.07610197 0.015949957 0.014126842 0.09743548 -0.059090402 0.00061381 -0.09861185 -0.12585641
0.04418017 -0.058062904 -0.20645942 -0.0031412551 -0.099444106 -0.033239875 -0.03687212 -0.14878802
-0.08866739 -0.006905858 -0.0015494494 -0.004247953 -0.09629111 -0.028731307 -0.046654563 0.02921374
-0.028698625 -0.028432751 -0.076131776 -0.021808827 -0.19418687 0.047361232 0.060835216 -0.047944702
-0.0028181714 -0.005412441 0.15531597 -0.04888548 0.04605341 0.006846444 0.23898101 0.027584322
0.019155202 0.055343382 -0.0009983699 -0.004983515 0.024013815 -0.0650735 -0.07362169 -0.010391103
-0.043548036 -0.092788376 0.08721505 -0.123444416 -0.26460582 -0.33303246 -0.016731171 0.08786248
-0.16789956 0.018471386 0.049440462 -0.08540311 -0.058375124 0.02615642 0.06781557 0.14878032
-0.0673778 -0.031328663 0.026747398 -0.12101353 0.13462351 0.25121862 0.21893042 -0.16543354
-0.0365593 0.054961454 -0.0367231 -0.044982705 -0.013230246 0.09407998 -0.01738987 -0.18834467
0.10660723 0.045221113 -0.17402677 0.14950581 0.0033880912 -0.016586311 0.14875558 0.007139752
0.06413753 0.100739636 0.060221665 -0.014306721 -0.027112959 -0.036460575 0.06941148 -0.07604319
0.10817123 -0.010231553 -0.0139776515 -0.105885126 -0.04602247 -0.012588582 -0.15747069 0.273991
00000000: b307 993c b0cf c4bd 7943 7e3c 1ff7 5cbd
00000010: 0327 d1ba de44 173d 6c8e 0a3e e73b 063d
00000020: 55ea 37be fe0f 083c 8725 c73d ccc0 583e
00000030: 7249 a1be b0f1 41be be34 b9bd 149f c3bd
00000040: ab4f fa3d 3d8c 03be a89f d3bd 7041 d23d
00000050: 6aa4 ed3d 1463 e6b8 bdb7 a13d e3ab bcbd
00000060: ad66 c73c d8aa ba3d 15e2 263e 4aa0 813d
00000070: 6bf4 dbbd 96bb 5cbd a9a9 893d 6de8 eb3c
00000080: b888 8abd 8b36 bb3c d336 463d ab14 6b3c
00000090: c879 503c 57d3 8ebd b360 d6bd 52e8 3ebe
000000a0: 180b 26be 69e2 3cbe 284f be3e 20ed 043e
000000b0: 907b 203b f0d5 8fbc d944 073d 64d7 43bc
000000c0: bb1e 5abd 7cd7 083e 2204 95bd ec2d 873b
000000d0: 773b 163c 762d f33c 9374 4a3d a36a 1bbd
000000e0: 6be5 7bbd 8a99 083d a1e3 573c b2e9 dabd
000000f0: c30d 87bd 5cac 85bc 0468 f33d 6eac 003d
00000100: 8eb8 08be ee2d 99bd 2f68 403e 8740 94bb
00000110: 739a 0e3e 94b7 913d c755 d2bd 4515 f73d
00000120: cb3b 8fbd 84a8 8cba 0de5 1abd d2a5 9bbb
00000130: 63c0 383d dc7c 29be 583f a7bc c46f 22bd
00000140: ae6a 1c3d 02b7 d1bc 975d dabd d8de 0b3e
00000150: 2c9e dcbc d617 38bd 9166 7fbe 3a42 313c
00000160: 3477 93bd 4fe0 a9bb 8683 073e 41d1 673d
00000170: 7a60 25bd 0fa5 6e3d 0294 2b3e 57f6 323e
00000180: bb46 003c 1d3d 013c 8283 88bc ace0 53bd
00000190: bfc2 dabc c15e a03c 37d2 6bbe 964c 463d
000001a0: 0548 a83e 526d 0bbe 6907 0e3d 9328 a6be
000001b0: fdbd a93e b7b9 f93e 487f cebc ab1b 193e
000001c0: b716 86bc a71c 13be 2f44 653d f81a 693c
000001d0: fe92 273e 5b3e 22bb 65ac 7fbd cbd5 1d3e
000001e0: 2700 f43d 9408 ecbd 188a 063c 1315 853d
000001f0: c92c 10be 8ac4 75bd 81a4 44be ec81 c0bd
00000200: 71e7 4cbc c02f 413c a105 003e 46cb 2fbe
00000210: 0d13 cabc d9d0 2e3e aedc 873d 0260 8cbe
00000220: 1ca0 ad3d 8389 87bd 12d4 8bbd e0fb a83d
00000230: 9ecd fa38 cb36 ebbc cd1d 59bd 8b80 2c3c
00000240: d82f 063d 9719 3fbe 255e 7b3d b3fc 01bc
00000250: a2db 893d d536 9e3c 76d0 2abd cd34 babd
00000260: 5adb 9bbd 7ca9 823c 4574 673c 418c c73d
00000270: c708 72bd 18e8 203a 02f5 c9bd 81e0 00be
00000280: 44f6 343d 5ed3 6dbd 196a 53be 84dd 4dbb
00000290: 5aa9 cbbd 8926 08bd 3807 17bd e35b 18be
000002a0: 4097 b5bd 894a e2bb e516 cbba 6a32 8bbb
000002b0: 4634 c5bd eb5d ebbc db18 3fbd a751 ef3c
000002c0: 6119 ebbc cdeb e8bc faea 9bbd 6da8 b2bc
000002d0: ecd8 46be dafd 413d 592e 793d aa61 44bd
000002e0: 12b1 38bb d95a b1bb 260b 1f3e 243c 48bd
000002f0: 80a2 3c3d 2358 e03b 70b7 743e 84f8 e13c
00000300: 5feb 9c3c beaf 623d bcdb 82ba c14c a3bb
00000310: 9fb8 c43c 4145 85bd f8c6 96bd 723f 2abc
00000320: 6d5f 32bd d507 bebd ce9d b23d 6dd0 fcbd
00000330: 6a7a 87be 3b83 aabe cf0f 89bc 3ef1 b33d
00000340: dded 2bbe 4e51 973c 1582 4a3d d3e7 aebd
00000350: c11a 6fbd fd45 d63c e4e2 8a3d de59 183e
00000360: 5ffd 89bd 7c52 00bd 5c1d db3c f1d5 f7bd
00000370: bfda 093e ba9f 803e 4c2f 603e 6967 29be
00000380: 34bf 15bd 431f 613d f66a 16bd c93f 38bd
00000390: acc3 58bc 01ad c03d 3375 8ebc 6ddd 40be
000003a0: e454 da3d c639 393d 1334 32be 0d18 193e
000003b0: bd0a 5e3b 04e0 87bc 6253 183e 95f4 e93b
000003c0: 8a5a 833d 9550 ce3d feaa 763d bd66 6abc
000003d0: ff1b debc af57 15bd 9b27 8e3d 88bc 9bbd
000003e0: e188 dd3d 3ea2 27bc 8502 65bc 4dda d8bd
000003f0: 0f82 3cbd 5740 4ebc ff3f 21be 8c48 8c3e

sequential/dense_4/MatMul;sequential/dense_4/Relu;sequential/dense_4/BiasAdd f4 [96]
-3.5470502 4.313514 -5.668327 -11.1486635 -24.539694 -9.794214 15.132452 5.1301703
-5.9988623 7.242131 4.709619 13.902498 1.3561697 -6.680766 -10.135999 -9.76261
4.814654 -7.006748 -3.6525419 9.203704 3.8272414 -4.762479 7.2166653 -3.2315083
11.924734 9.493611 9.647346 10.158949 9.555905 -5.547604 13.902747 2.4825509
12.555966 -1.230221 1.5121393 -0.42510885 -6.2731104 2.39329 -7.281458 -16.257133
-24.625158 -10.874745 7.9287057 -8.422039 3.7358136 23.23845 -5.9638286 2.277867
23.833826 -9.020698 -4.2490716 -1.896407 22.989258 3.6708293 12.375841 1.6887382
2.3614833 13.403574 -7.8898087 -3.3347871 -5.92525 -6.3519177 -11.697564 16.47572
-10.732808 1.9321858 11.452948 -6.328101 5.7396255 -0.79806376 -8.5961895 -13.877595
-7.3115835 18.654482 7.997656 8.943361 9.211255 5.1673393 -4.781373 -1.5959244
4.9655766 6.7411966 -14.3044815 7.6123548 14.680474 4.023638 -0.09099307 15.344092
-10.773019 -5.6433954 -4.5579386 -4.5719914 -11.508664 -9.990186 -3.0903401 4.3212276
00000000: df02 63c0 4f08 8a40 ef62 b5c0 ed60 32c1
00000010: 4b51 c4c1 1ab5 1cc1 861e 7241 5b2a a440
00000020: aef6 bfc0 8abf e740 33b5 9640 a270 5e41
00000030: f896 ad3f d6c8 d5c0 0d2d 22c1 a733 1cc1
00000040: a511 9a40 4837 e0c0 3fc3 69c0 5f42 1341
00000050: 86f1 7440 3a66 98c0 ecee e640 08d1 4ec0
00000060: b6cb 3e41 d5e5 1741 875b 1a41 0e8b 2241
00000070: fde4 1841 f985 b1c0 a771 5e41 1de2 1e40
00000080: 3de5 4841 e277 9dbf c88d c13f dea7 d9be
00000090: 52bd c8c0 aa2b 1940 b401 e9c0 9c0e 82c1
000000a0: 5300 c5c1 f5fe 2dc1 f5b7 fd40 acc0 06c1
000000b0: 9217 6f40 58e8 b941 afd7 bec0 93c8 1140
000000c0: adab be41 c754 10c1 65f8 87c0 77bd f2bf
000000d0: 00ea b741 deee 6a40 7203 4641 9328 d83f
000000e0: 8b22 1740 0a75 5641 5079 fcc0 276d 55c0
000000f0: a69b bdc0 e942 cbc0 3929 3bc1 46ce 8341
00000100: 95b9 2bc1 dd51 f73f 463f 3741 ce7f cac0
00000110: 03ab b740 e84d 4cbf fe89 09c1 a10a 5ec1
00000120: 7ef8 e9c0 613c 9541 ccec ff40 0218 0f41
00000130: 4d61 1341 d85a a540 0201 99c0 4047 ccbf
00000140: 01e6 9e40 e2b7 d740 28df 64c1 6998 f340
00000150: 39e3 6a41 a4c1 8040 935a babd 6781 7541
00000160: 495e 2cc1 b296 b4c0 a2da 91c0 c14d 92c0
00000170: 7d23 38c1 cdd7 1fc1 22c8 45c0 7f47 8a40

sequential/batch_normalization_3/batchnorm/mul_1;sequential/batch_normalization_3/batchnorm/add_1;sequential/dense_4/MatMul;sequential/dense_4/Relu;sequential/dense_4/BiasAdd f4 [96, 96]
0.007912614 -0.0012632925 -0.0042483234 0.037426937 -0.07106202 -0.034237534 0.09304316 -0.037915036
0.054993365 0.007735425 0.06275553 -0.07953601 0.0002533298 0.22026587 0.004699428 -0.059240688
-0.06460704 0.10290198 0.054468952 0.10705632 0.20597805 -0.062962264 0.013061371 -0.11654571
0.011322545 -0.37342665 0.017147401 -0.02194958 -0.050790448 0.063348144 0.029494883 0.023647819
0.036629736 -0.09163206 0.068493 0.04740761 -0.04927334 0.058364965 0.09040095 -0.026588803
-0.10477195 -0.037875805 -0.005889441 0.080653995 -0.091418125 0.022648145 -0.059850704 -0.08353981
-0.061902955 0.038419574 -0.1138633 -0.009532773 0.21129653 0.01784987 -0.027144874 -0.022024713
0.07359018 -0.014924913 -0.0072452268 -0.06764759 0.09884139 0.16020669 -0.040022384 -0.05773751
0.12920478 -0.016235605 -0.00061989756 -0.010742688 0.050722662 -0.04986246 0.054228723 -0.0660163
-0.074794546 -0.15122034 0.06414663 -0.14674076 0.12303585 0.086874634 -0.004305604 0.12065622
-0.015674703 0.120496176 0.2603851 0.026245257 0.0090740975 -0.0056426795 0.034543917 -0.049838398
-0.06846378 0.13490921 0.0021452943 0.08810341 -0.06804451 0.066044725 -0.00920817 0.26272416
0.0006938453 0.00042839127 -0.049973145 0.14307329 -0.03213441 0.09276003 0.08249401 -0.033815473
-0.070111975 0.022333248 -0.007106003 0.20038131 0.009848105 -0.28624165 -0.06243415 0.06157258
0.08163706 -0.034491528 0.102730155 -0.03215362 -0.03351981 -0.05730096 -0.0071896766 -0.07912942
0.032418493 0.29469806 -0.011782671 -0.015143455 0.018900434 0.08664891 0.016494345 0.07551107
-7.529735e-05 -0.03520955 0.2153977 0.14116213 0.034938626 -0.050120704 -0.026278472 -0.02233818
0.069139384 0.013871828 -0.016675305 -0.030063419 0.019144444 -0.15724641 0.21881412 -0.09425226
0.049102485 -0.035794847 -0.10314681 0.00360307 0.17082444 -0.0019979097 -0.063542165 0.047795363
0.0029399812 -0.017389683 0.0038844189 -0.30049112 0.27942547 -0.4083964 -0.008723062 0.065196574
0.12678178 0.009933329 0.0068600834 -0.040207546 -0.032042928 -0.005595895 -0.025082082 0.048546128
0.013630079 -0.089336306 -0.09490833 0.1828847 -0.036550988 -0.077061534 0.0018636897 0.06738784
0.045161378 -0.031708527 -0.040239476 0.0182962 0.00670649 0.04232846 0.09902012 -0.07341848
0.03416524 0.13921791 -0.014781327 0.01923249 -0.028001983 -0.08074619 -0.23186487 0.101189435
-0.027523408 -0.0015055472 0.04323385 -0.08351955 0.08153029 0.046393346 0.0022467251 0.053519443
-0.064651236 0.019116992 -0.041639224 -0.2295208 0.020617645 -0.19428706 0.033426758 0.10447661
-0.09458391 0.13248217 0.08001591 0.1200317 -0.18206511 -0.10111712 -0.0045516924 -0.17296009
0.0038790777 0.60727894 0.018369038 0.02699895 0.05688739 0.027072681 -0.015744764 -0.03291973
0.038081072 -0.12394858 0.10746547 0.058628373 -0.009757387 0.088955164 -0.024138898 -0.02060577
0.119805925 0.017916799 0.007485982 0.18763123 0.0007657819 -0.046568558 -0.111282736 0.13250946
-0.009879927 0.08954542 -0.13034879 0.011515278 -0.10468582 -0.0026726795 0.09449927 0.023340419
-0.10230086 0.009747511 -0.00071281596 0.09119117 -0.10267127 0.2641235 -0.011119378 -0.011444347
00000000: e9a3 013c 1095 a5ba 8535 8bbb fd4c 193d
00000010: f788 91bd a83c 0cbd 6a8d be3d cc4c 1bbd
00000020: b940 613d 7379 fd3b f985 803d c7e3 a2bd
00000030: 5ad1 8439 608d 613e a9fd 993b 5da6 72bd
00000040: b250 84bd 46be d23d d61a 5f3d 5840 db3d
00000050: e9eb 523e 5cf2 80bd 5cff 553c 84af eebd
00000060: 3282 393c c731 bfbe b578 8c3c 9bcf b3bc
00000070: a509 50bd acbc 813d 419f f13c 12b9 c13c
00000080: 1009 163d 97a9 bbbd 0f46 8c3d 7b2e 423d
00000090: d7d2 49bd 1a10 6f3d 2224 b93d c3d0 d9bc
000000a0: ad92 d6bd a923 1bbd 36fc c0bb ec2d a53d
000000b0: 6d39 bbbd 9a88 b93c 0326 75bd eb16 abbd
000000c0: f48d 7dbd d85d 1d3d 2931 e9bd 592f 1cbc
000000d0: 1e5e 583e e439 923c ed5e debc 2c6d b4bc
000000e0: 73b6 963d 9f87 74bc 5e69 edbb d28a 8abd
000000f0: 5b6d ca3d 390d 243e 83ee 23bd 2b7e 6cbd
00000100: 424e 043e 8800 85bc 9f80 22ba 1902 30bc
00000110: 91c2 4f3d 943c 4cbd f01e 5e3d 8e33 87bd
00000120: e22d 99bd 81d9 1abe 4f5f 833d 3643 16be
00000130: 38fa fb3d 54eb b13d 0616 8dbb 9c1a f73d
00000140: 3c68 80bc b3c6 f63d 3251 853e 4b00 d73c
00000150: 86ab 143c 3ae6 b8bb ec7d 0d3d 5923 4cbd
00000160: bd36 8cbd a425 0a3e 1198 0c3b 906f b43d
00000170: ec5a 8bbd 7542 873d dddd 16bc c883 863e
00000180: 2be3 353a b499 e039 a4b0 4cbd ce81 123e
00000190: 5f9f 03bd f8f8 bd3d 9ff2 a83d 1882 0abd
000001a0: de96 8fbd 37f4 b63c 79d9 e8bb c230 4d3e
000001b0: f259 213c 448e 92be f4ba 7fbd 8833 7c3d
000001c0: 5531 a73d fd46 0dbd 3064 d23d 84b3 03bd
000001d0: 114c 09bd 69b4 6abd 6197 ebbb 9b0e a2bd
000001e0: 41c9 043d aae2 963e 1b0c 41bc 411c 78bc
000001f0: 15d5 9a3c fc74 b13d 261f 873c 8ca5 9a3d
00000200: f5e8 9db8 e437 10bd 3791 5c3e ce8c 103e
00000210: ce1b 0f3d 5e4b 4dbd f345 d7bc 8ffe b6bc
00000220: f398 8d3d aa46 633c a69a 88bc 8f47 f6bc
00000230: cfd4 9c3c 3405 21be cf10 603e 5407 c1bd
00000240: b01f 493d 9e9d 12bd a23e d3bd 7c21 6c3b
00000250: 9aec 2e3e 5def 02bb 6522 82bd 12c5 433d
00000260: b3ac 403b cf74 8ebc bc91 7e3b f9d9 99be
00000270: db10 8f3e 5519 d1be 2deb 0ebc c885 853d
00000280: 15d3 013e 67bf 223c 8dca e03b abb0 24bd
00000290: 723f 03bd c55d b7bb f078 cdbc 4ed8 463d
000002a0: b250 5f3c f4f5 b6bd 4c5f c2bd 2046 3b3e
000002b0: 7db6 15bd 70d2 9dbd 0d47 f43a a302 8a3d
000002c0: 23fb 383d cde0 01bd 26d2 24bd eae1 953c
000002d0: 1ec2 db3b 9b60 2d3d 10cb ca3d 6e5c 96bd
000002e0: daf0 0b3d 248f 0e3e 612d 72bc 748d 9d3c
000002f0: 6a64 e5bc 425e a5bd fc6d 6dbe 683c cf3d
00000300: c578 e1bc c855 c5ba fa15 313d 4c0c abbd
00000310: 5af9 a63d f306 3e3d cb3d 133b 3437 5b3d
00000320: de67 84bd 3d9b 9c3c e48d 2abd 8007 6bbe
00000330: 56e6 a83c 30f3 46be 7fea 083d d5f7 d53d
00000340: 36b5 c1bd 68a9 073e 62df a33d 2ed3 f53d
00000350: 476f 3abe 7e16 cfbd 5d26 95bb 731c 31be
00000360: 2038 7e3b a276 1b3f aa7a 963c e72c dd3c
00000370: c002 693d 87c7 dd3c 2afb 80bc d7d6 06bd
00000380: e6fa 1b3d c1d8 fdbd db16 dc3d 4e24 703d
00000390: 73dd 1fbc 202e b63d f0be c5bc 6fcd a8bc
000003a0: cf5c f53d 40c6 923c f84c f53b 6722 403e
000003b0: c1be 483a acbe 3ebd 34e8 e3bd 8fb0 073e
000003c0: 6bdf 21bc 9763 b73d 277a 05be 94aa 3c3c
000003d0: 8565 d6bd 1f28 2fbb d588 c13d 6834 bf3c
000003e0: 1d83 d1bd 06b4 1f3c 45dc 3aba 70c2 ba3d
000003f0: 5145 d2bd 323b 873e 0d2e 36bc 1281 3bbc

sequential/dense_5/MatMul;sequential/dense_5/Relu;sequential/dense_5/BiasAdd f4 [96]
-3.3471787 6.985339 -11.91101 16.801601 10.884654 -0.07351895 -15.084886 21.97915
-15.689331 -12.044123 -3.8980467 -31.239918 -7.6237183 6.3444824 15.570457 21.649073
15.33188 5.2221107 6.0507345 6.5267277 2.5903428 4.174775 -25.177454 -29.956383
-14.456666 -5.4795985 18.084509 7.6974363 -30.963152 -11.148187 4.5088243 4.1679454
3.1844096 -3.8621118 -7.2198334 -19.12087 -11.394377 -0.44165474 -13.147964 25.002186
0.9748571 -12.023911 -3.7105825 6.2394314 -15.884127 -18.834728 21.044695 -18.341587
3.5776672 -21.702667 -10.869105 1.3433208 -1.7484316 31.726643 -26.504892 0.80097663
8.865082 -11.56407 21.730997 13.126711 26.679615 13.595255 -17.29836 -10.342647
-27.235512 9.817263 -1.7274663 -9.337821 -6.439565 -10.512696 14.781567 -22.49957
13.368863 -12.342349 -13.835084 -12.894576 -3.3513012 13.062876 -25.343275 8.67293
-12.567524 -11.095765 -11.602979 19.640478 -9.235551 -11.187271 -15.300912 9.910597
12.03043 -10.777674 -13.873979 -10.17889 27.03609 -18.720535 -19.096573 15.364984
00000000: 2d38 56c0 e687 df40 7f93 3ec1 ae69 8641
00000010: 8b27 2e41 1a91 96bd b15b 71c1 4dd5 af41
00000020: 8007 7bc1 bab4 40c1 9979 79c0 5aeb f9c1
00000030: 80f5 f3c0 0006 cb40 9820 7941 4d31 ad41
00000040: 614f 7541 881b a740 9e9f c140 f4da d040
00000050: 2dc8 2540 c297 8540 6d6b c9c1 aca6 efc1
00000060: 814e 67c1 df58 afc0 13ad 9041 6651 f640
00000070: 89b4 f7c1 f95e 32c1 4a48 9040 cf5f 8540
00000080: 5ecd 4b40 d72c 77c0 e008 e7c0 8bf7 98c1
00000090: 5e4f 36c1 9220 e2be 0f5e 52c1 7a04 c841
000000a0: 3c90 793f f161 40c1 2f7a 6dc0 6ca9 c740
000000b0: 6225 7ec1 86ad 96c1 895b a841 92bb 92c1
000000c0: 80f8 6440 109f adc1 dbe7 2dc1 f0f1 ab3f
000000d0: 9bcc dfbf 2ad0 fd41 050a d4c1 ce0c 4d3f
000000e0: 60d7 0d41 6e06 39c1 15d9 ad41 0207 5241
000000f0: da6f d541 2a86 5941 0b63 8ac1 7b7b 25c1
00000100: 54e2 d9c1 8213 1d41 9e1d ddbf b767 15c1
00000110: eb10 cec0 0134 28c1 4c81 6c41 1fff b3c1
00000120: dde6 5541 437a 45c1 815c 5dc1 2f50 4ec1
00000130: b87b 56c0 8a01 5141 07bf cac1 52c4 0a41
00000140: 9414 49c1 4188 31c1 cda5 39c1 b31f 9d41
00000150: d1c4 13c1 10ff 32c1 89d0 74c1 ce91 1e41
00000160: a47c 4041 5a71 2cc1 d1fb 5dc1 bcdc 22c1
00000170: ea49 d841 a8c3 95c1 c8c5 98c1 f9d6 7541

sequential/batch_normalization_4/batchnorm/mul_1;sequential/batch_normalization_4/batchnorm/add_1;sequential/dense_5/MatMul;sequential/dense_5/Relu;sequential/dense_5/BiasAdd f4 [96, 96]
0.21528895 0.10581733 -0.081029534 0.03718542 0.0049571665 -0.49608403 -0.050558727 0.052531447
0.0030249741 -0.05222673 -0.02998334 0.008267947 -0.03179353 0.01271898 0.07757752 0.0007128959
-0.02068554 0.01782316 0.011025695 -0.037644487 0.2564778 -0.062716 0.00056895183 0.12316862
-0.09747617 0.24942419 -0.09858241 -0.009086943 -0.13617475 -0.018197184 9.432376e-05 0.057123136
-0.05611578 -0.16309491 -0.001402101 -0.07793814 0.06403326 0.18861432 -0.0050118635 0.4472107
-0.040818118 -0.0012664733 0.08704362 0.088443235 0.0855491 0.0065977965 0.048173588 -0.09554662
0.14232372 -0.12376525 0.60293096 -0.07290652 0.09854143 0.0030512363 0.091423705 -0.08977159
-0.025187375 -0.03303176 -0.11593252 -0.011063187 0.18256117 0.009146428 -0.05503292 -0.40085602
0.080841415 0.108671516 0.09034693 -0.0020524794 0.06957583 -0.0766533 0.50716215 0.15782411
-0.025291502 0.09730505 0.071020946 0.22788835 -0.065217644 0.04677415 0.11206123 0.018536786
-0.0038740817 0.019685276 0.07623792 -0.023527693 0.040219154 -0.0038699752 0.029039513 -0.16811904
-0.05900787 0.20465557 -0.014982059 -0.12056244 -0.07251912 -0.06768542 -0.045553897 -0.13627668
-0.15185876 -0.11018275 0.099923186 0.0025294418 -0.029848171 -0.3104892 -0.11522231 0.100116074
-0.065315306 -0.012551481 0.008834329 0.14292933 0.0711939 -0.0018302535 -0.13769111 -0.018851947
0.028131468 0.008564174 -0.01919394 0.07793355 -0.13844235 -0.079512045 -0.0024047557 0.005336313
0.41129184 0.18215136 -0.12647061 -0.002642678 0.133763 -0.019689165 -0.0013473324 0.07793498
-0.2825881 0.032350447 0.00069897255 -0.019965606 -0.062244393 0.03408484 0.0049872776 0.10945104
-0.008579423 0.027353378 -0.14096774 0.048156556 0.07543551 -0.059119817 -0.11089828 0.04108502
-0.2767874 -0.04958752 0.014185207 -0.0209395 -0.1083838 0.054881882 0.17494766 0.12475883
-0.029241407 0.027816094 -0.020721374 0.075010024 0.08468657 -0.22791736 0.021562839 0.6925055
-0.109644316 -0.0145730935 0.09592246 0.025738824 0.081554964 0.13910228 -0.12269231 0.037909433
-0.03120967 -0.074062265 -0.0035867977 -0.0118275145 -0.06178628 -0.063311376 -0.054419346 -0.18960802
0.6022316 0.019794771 -0.05646039 -0.027963303 -0.010074015 -0.0038287698 -0.007640483 0.03843741
0.032361865 -0.2749384 -0.00911396 0.011775238 -0.08941958 -0.0027158295 -0.250269 -0.043829877
0.011794942 0.091071285 -0.088853955 0.037739642 0.02327623 -0.16605178 0.079607174 -0.0010567527
-0.023933584 0.024657167 -0.069714986 -0.048176404 0.03470531 0.0038799054 0.14938894 -0.005648303
-0.016307335 0.018630834 0.059726566 0.006121519 -0.037872646 -0.112334765 -0.0009530774 0.046121597
0.020543357 0.013112213 -0.09158063 -0.042939704 0.04474113 -0.024531372 0.0011559268 0.0514564
0.029791916 -0.28103003 0.0010312729 0.02904779 0.09747088 -0.013821721 -0.0056811743 -0.35054952
0.2009876 -0.015464203 -0.013587711 0.11167625 0.0055482187 -0.13731901 0.0030460241 -0.2643254
-0.18156867 0.16212581 -0.31498095 0.06996091 -0.15079142 0.095919944 0.14520404 0.030447999
-0.021833988 0.044634547 0.0483913 -0.053119645 -0.052094806 0.047894303 0.0075960243 0.2807967
00000000: b574 5c3e c2b6 d83d d0f2 a5bd bd4f 183d
00000010: ba6f a23b bafe fdbe ab16 4fbd 372b 573d
00000020: a53e 463b b2eb 55bd 9f9f f5bc 4876 073c
00000030: ef39 02bd 4563 503c f6e0 9e3d a2e1 3a3a
00000040: b974 a9bc e001 923c 1ea5 343c 1b31 1abd
00000050: 0f51 833e 3f71 80bd b625 153a d43f fc3d
00000060: 96a1 c7bd 0e69 7f3e 93e5 c9bd 67e1 14bc
00000070: 6571 0bbe 4312 95bc afcf c538 f3f9 693d
00000080: a9d9 65bd 5a02 27be b4c6 b7ba 089e 9fbd
00000090: df23 833d 1d24 413e 8f3a a4bb cdf8 e43e
000000a0: e630 27bd cbff a5ba ed43 b23d ba21 b53d
000000b0: 5e34 af3d 5432 d83b ab51 453d f2ad c3bd
000000c0: 4fbd 113e a378 fdbd af59 1a3f 0350 95bd
000000d0: 17d0 c93d 40f7 473b 5a3c bb3d 2bda b7bd
000000e0: c155 cebc 504c 07bd 076e edbd 5f42 35bc
000000f0: 51f1 3a3e e6da 153c 336a 61bd 003d cdbe
00000100: 2f90 a53d 2c8f de3d d007 b93d e482 06bb
00000110: c67d 8e3d 68fc 9cbd 61d5 013f a59c 213e
00000120: 2030 cfbc df47 c73d 6e73 913d 905b 693e
00000130: d490 85bd 4096 3f3d 5c80 e53d 75da 973c
00000140: 4ee4 7dbb 0443 a13c a022 9c3d 26bd c0bc
00000150: d7bc 243d 699f 7dbb 46e4 ed3c 6627 2cbe
00000160: 3cb2 71bd 3b91 513e 4f77 75bc 71e9 f6bd
00000170: e884 94bd a79e 8abd b996 3abd 1d8c 0bbe
00000180: dd80 1bbe 7ea7 e1bd 87a4 cc3d fec4 253b
00000190: 2784 f4bc 71f8 9ebe adf9 ebbd a809 cd3d
000001a0: 08c4 85bd baa4 4dbc ddbd 103c 115c 123e
000001b0: 1cce 913d 1ee5 efba e6fe 0cbe 666f 9abc
000001c0: f773 e63c c050 0c3c 9c3c 9dbc a09b 9f3d
000001d0: d5c3 0dbe 36d7 a2bd 1b99 1dbb 3ddc ae3b
000001e0: d894 d23e e385 3a3e 8381 01be c830 2dbb
000001f0: 2bf9 083e 2c4b a1bc f998 b0ba 609c 9f3d
00000200: 63af 90be e781 043d 413b 373a e98e a3bc
00000210: faf3 7ebd 8c9c 0b3d 516c a33b de27 e03d
00000220: b590 0cbc 3114 e03c d959 10be cf3f 453d
00000230: ef7d 9a3d 9f27 72bd a31e e3bd c448 283d
00000240: 14b7 8dbe 491c 4bbd 1269 683c 5089 abbc
00000250: 53f8 ddbd d3cb 603d 7b25 333e 8f81 ff3d
00000260: ad8b efbc 94de e33c dfbf a9bc db9e 993d
00000270: 2770 ad3d 2b63 69be 8da4 b03c 0a48 313f
00000280: 338d e0bd fcc3 6ebc ff72 c43d 3ada d23c
00000290: 4a06 a73d d470 0e3e 1b46 fbbd ec46 1b3d
000002a0: 6cab ffbc f5ad 97bd 7b10 6bbb 31c8 41bc
000002b0: 9c13 7dbd 65a9 81bd d2e6 5ebd 9b28 42be
000002c0: da2b 1a3f a528 a23c 0343 67bd 4c13 e5bc
000002d0: 7b0d 25bc 19ec 7abb 045d fabb 8c70 1d3d
000002e0: e08d 043d bac4 8cbe b852 15bc eeec 403c
000002f0: 9d21 b7bd 0ffc 31bb 4223 80be f586 33bd
00000300: 933f 413c 9583 ba3d 10f9 b5bd e294 1a3d
00000310: cbad be3c 7a09 2abe 1609 a33d bd82 8aba
00000320: 5d10 c4bc d4fd c93c bbc6 8ebd 9f54 45bd
00000330: 2827 0e3d 0346 7e3b 6af9 183e 6615 b9bb
00000340: f696 85bc b19f 983c d8a3 743d 0697 c83b
00000350: 5920 1bbd c50f e6bd f1d7 79ba 00ea 3c3d
00000360: 8b4a a83c 9cd4 563c a08e bbbd 8be1 2fbd
00000370: 7a42 373d 04f6 c8bc 7882 973a f2c3 523d
00000380: 2d0e f43c 2be3 8fbe c72b 873a a2f5 ed3c
00000390: d09e c73d 8074 62bc 2529 babb 3a7b b3be
000003a0: b2cf 4d3e 925d 7dbc fe9e 5ebc 85b6 e43d
000003b0: d5cd b53b 5b9d 0cbe ce9f 473b a955 87be
000003c0: 23ed 39be 4f04 263e 2f45 a1be aa47 8f3d
000003d0: 1169 1abe ad71 c43d 5eb0 143e 156e f93c
000003e0: 31dd b2bc b7d2 363d f535 463d fc93 59bd
000003f0: 5d61 55bd d12c 443d 12e8 f83b 96c4 8f3e

sequential/dense_6/MatMul;sequential/dense_6/BiasAdd f4 [27]
1.9037588 -0.5802313 -0.19879615 -2.5126173 -5.4384356 0.046123914 -0.3526584 -2.9980733
-0.48662078 -1.0875775 -1.4087319 1.3387798 0.2864413 -1.0574838 -1.5723984 -1.732629
-0.14903207 1.2195784 1.3038735 1.904168 -1.9107625 -2.043619 -0.54360306 -1.3722734
0.40055037 -1.0051683 -1.9553335
00000000: 5eae f33f 0a8a 14bf 3891 4bbe b9ce 20c0
00000010: aa07 aec0 6eec 3c3d a48f b4be 6fe0 3fc0
00000020: 5c26 f9be bd35 8bbf 5451 b4bf 235d ab3f
00000030: 6fa8 923e a15b 87bf 5a44 c9bf c9c6 ddbf
00000040: dd9b 18be 251b 9c3f 54e5 a63f c7bb f33f
00000050: de93 f4bf a7ca 02c0 9229 0bbf a8a6 afbf
00000060: f014 cd3e 5ba9 80bf 5e48 fabf

sequential/batch_normalization_5/batchnorm/mul_1;sequential/batch_normalization_5/batchnorm/add_1;sequential/dense_6/MatMul;sequential/dense_6/BiasAdd f4 [27, 96]
-0.0014294416 -0.0017928217 0.0014347156 -0.0024608013 0.00031023665 0.0023647086 0.00740822 0.0026613965
-0.0029792562 1.148435e-05 -0.0014940854 0.003978809 -0.0008912519 -0.0006506925 0.00057394616 -0.0013504217
-0.0038157767 0.001280903 -0.0036665506 0.0008228857 -8.345806e-05 0.0026460243 0.0038325335 -0.001719056
0.0012756784 0.012910628 0.005010531 -0.000349447 -0.002790741 0.0001915392 0.0048339195 0.002190902
-0.002355245 0.017904928 -0.0014341692 -0.0012820873 -0.004788235 -3.558856e-06 0.007282304 -0.0040698904
8.3803214e-05 -3.151428e-05 -0.00032291145 -0.0007249691 -0.0015453957 -0.0026991218 -0.0064974856 0.0013446006
-0.00010078835 0.0009013562 0.0033729265 0.0070132706 0.02099196 -7.187876e-05 0.004115381 0.0002052176
7.15282e-05 -0.015280683 -0.0051002097 -0.007313302 -0.023567652 -0.0005529419 0.001303472 0.0008781379
0.0050365278 0.00066776027 0.00023002774 -0.0056690355 -0.002587285 -0.001322381 -3.1931206e-05 0.00044997875
-0.0015653457 0.0004995723 -0.00032164512 0.0005229206 -0.0008173605 -0.0011160587 -0.00788445 0.00036429317
-0.0009234199 -0.0026009677 0.0004784766 0.0012293387 -0.0032159206 0.0035130584 -0.0008299033 0.00023569367
-0.0021358023 -0.005743079 0.005732532 0.00020113125 -0.0022623127 0.0042287395 0.0036580171 -7.534113e-05
0.005400085 0.016118104 0.0014567227 -0.0011162612 0.0019116522 -0.0054660677 0.006542383 0.0018515402
-0.0036817596 -0.00022862418 -0.0031123483 0.0019787867 0.002054173 0.00050957967 -0.000402475 0.0010957237
0.0047197603 -0.0006959963 0.0010606976 0.00046290312 0.00020100211 -0.011483622 0.0030905972 0.0032620577
-0.0003607464 0.016051501 -0.014209995 0.000893038 0.00043905867 0.00028569475 0.0066319387 -0.005320131
0.0019568184 0.0003942349 -0.002784158 0.0040095965 -0.0017669616 -0.00017334678 -0.0035332944 0.013769951
0.00018584938 0.0022946326 0.0011916003 -0.00585658 0.0037066313 0.000376625 0.008851181 0.0052264933
-0.0077710254 -0.0010999994 -0.0032638356 -0.013871838 -0.033180863 -0.0025813445 0.007385203 0.00028423674
0.011849511 -0.010378929 -0.0034152886 0.01258104 0.0068024676 -0.00037735782 -0.00033544173 0.0070415675
-0.00828832 5.9719827e-05 0.0012027493 0.0017749198 -0.004117435 0.00086096284 -0.0026174204 -0.00014825781
0.003949163 0.0011817133 0.00039149987 -0.00091025105 0.0022514695 0.0018893924 0.0019900787 1.8825032e-05
0.0002496649 -0.0021409865 0.0019862412 -0.0040372205 0.0048422203 0.0017440272 -0.0013069523 -0.0014739059
0.016620325 -0.0036910211 -0.0021548735 4.0800285e-05 0.0024768438 -0.0044378056 0.0074891737 0.00091825705
0.0028874208 0.0040813563 0.00041062947 -0.0061898236 0.00036044107 0.007582897 0.0035145592 -0.004094488
0.0007593485 -0.00014643051 0.01393385 -0.00017308965 -0.0006368832 -0.00096466625 0.00055622065 0.00092084904
-0.007776569 0.001023715 -0.016392205 0.0006501278 0.0004951796 0.0022121537 0.0027490836 -0.00033480412
0.00033740065 0.028246125 -7.5956166e-05 0.0015026126 -0.01560857 -0.00018601699 0.0041504237 -0.00018577486
-0.0025331436 0.002504284 -0.0012616126 -0.00662699 7.535254e-05 -0.0007059803 0.0038624743 -0.0030950727
-0.0007884194 8.822575e-05 0.00019575599 0.00565384 0.00022719432 -9.73584e-05 0.0023899944 -0.012345468
-0.0015389788 -0.00047751432 0.001457002 0.010897443 -0.017811231 0.0010425091 -0.011638404 0.00037482768
-0.014965986 -0.0012479143 0.0002540496 0.0048991297 -0.0060725706 0.0018663417 -0.0031695557 0.00043724867
00000000: 1a5c bbba 1dfd eaba 110d bc3a 6545 21bb
00000010: 42a7 a239 3af9 1a3b a7c0 f23b d36a 2e3b
00000020: a03f 43bb e8ac 4037 30d5 c3ba ab60 823b
00000030: e7a2 69ba 3c93 2aba e074 163a a200 b1ba
00000040: 1c12 7abb f9e3 a73a 834a 70bb edb6 573a
00000050: 3406 afb8 ec68 2d3b 3e2b 7b3b f351 e1ba
00000060: aa34 a73a 1987 533c 612f a43b fb35 b7b9
00000070: dde4 36bb ead7 4839 db65 9e3b 3c95 0f3b
00000080: 745a 1abb 5bad 923c bcfa bbba b60b a8ba
00000090: a0e6 9cbb aed4 6eb6 65a0 ee3b b75c 85bb
000000a0: 82bf af38 332e 04b8 714c a9b9 da0b 3eba
000000b0: e08e caba c0e3 30bb dce8 d4bb 4f3d b03a
000000c0: 555e d3b8 fe48 6c3a 510c 5d3b 94cf e53b
000000d0: 55f7 ab3c 9ebd 96b8 51da 863b ae2f 5739
000000e0: 6901 9638 d45b 7abc a91f a7bb 6ca4 efbb
000000f0: f310 c1bc 4ef3 10ba 43d9 aa3a d632 663a
00000100: 7509 a53b a20c 2f3a 9a33 7139 51c3 b9bb
00000110: 708f 29bb be53 adba dfed 05b8 20eb eb39
00000120: 492c cdba bbf5 023a 7aa2 a8b9 9c14 093a
00000130: 2244 56ba b748 92ba c82d 01bc 9afe be39
00000140: a911 72ba ff74 2abb 0bdc fa39 c321 a13a
00000150: 32c2 52bb 573b 663b de8d 59ba 8a24 7739
00000160: d1f8 0bbb 7030 bcbb f7d7 bb3b c2e6 5239
00000170: 4f43 14bb 3d91 8a3b 58bb 6f3b 7600 9eb8
00000180: 32f3 b03b 1d0a 843c 81ef be3a 834f 92ba
00000190: 6790 fa3a b31c b3bb 7d61 d63b 61af f23a
000001a0: ad49 71bb d6ba 6fb9 8af8 4bbb 88ae 013b
000001b0: 4e9f 063b 5095 053a 4803 d3b9 639e 8f3a
000001c0: 38a8 9a3b 8573 36ba 1b07 8b3a ceb1 f239
000001d0: 18c4 5239 cd25 3cbc 9e8b 4a3b 3fc8 553b
000001e0: 9022 bdb9 707e 833c 0ad1 68bc c41a 6a3a
000001f0: 7531 e639 4dc9 9539 bc50 d93b 7e54 aebb
00000200: f73d 003b 50b1 ce39 6c76 36bb ef62 833b
00000210: 6599 e7ba 6cc4 35b9 d88e 67bb 5c9b 613c
00000220: 90e0 4239 8c61 163b 792f 9c3a 8ee8 bfbb
00000230: f4ea 723b c075 c539 8b04 113c 0143 ab3b
00000240: 16a4 febb db2d 90ba 13e6 55bb b546 63bc
00000250: a8e8 07bd c62b 29bb 93ff f13b 9c05 9539
00000260: 7424 423c 620c 2abc 09d3 5fbb b520 4e3c
00000270: 3ce7 de3b 1cd8 c5b9 3ade afb9 f3bc e63b
00000280: bccb 07bc ad7b 7a38 92a5 9d3a 6da4 e83a
00000290: 8ceb 86bb 3db2 613a 0789 2bbb a775 1bb9
000002a0: fb67 813b b8e3 9a3a 3942 cd39 ea9d 6eba
000002b0: 648d 133b 7da5 f73a fb6b 023b 73ea 9d37
000002c0: 75e5 8239 cb4f 0cbb 992b 023b a94a 84bb
000002d0: 7dab 9e3b d897 e43a 0b4e abba 1330 c1ba
000002e0: 5927 883c 0fe5 71bb c738 0dbb f920 2b38
000002f0: 8b52 223b 036b 91bb be67 f53b 30b7 703a
00000300: e23a 3d3b e6bc 853b c149 d739 01d4 cabb
00000310: 95f9 bc39 f379 f83b 8554 663b 0e2b 86bb
00000320: 040f 473a 248b 19b9 ce4a 643c 667f 35b9
00000330: 82f4 26ba a8e1 7cba 56cf 113a 2265 713a
00000340: 97d2 febb 2d2e 863a f248 86bc 576d 2a3a
00000350: f1ce 013a c8f9 103b f829 343b a688 afb9
00000360: 26e5 b039 6b64 e73c a84a 9fb8 50f3 c43a
00000370: 16bb 7fbc 8e0d 43b9 4700 883b 8fcc 42b9
00000380: 1903 26bb ea1e 243b b25c a5ba 3927 d9bb
00000390: 9606 9e38 8911 39ba 9121 7d3b b4d6 4abb
000003a0: eead 4eba d705 b938 d943 4d39 d943 b93b
000003b0: 033b 6e39 e52c ccb8 74a1 1c3b a544 4abc
000003c0: 8fb7 c9ba e35a fab9 e0f8 be3a 308b 323c
000003d0: dce8 91bc cda4 883a 01af 3ebc 8584 c439
000003e0: e533 75bc 0e91 a3ba f631 8539 e188 a03b
000003f0: 6afc c6bb 09a0 f43a 52b8 4fbb 863e e539
