BirdNet_Trained_Model/trained_model_classifiers/Custom_Classifier14.tflite (tflite, 595344 bytes, 14 tensors)

sequential/dense_1/MatMul;sequential/dense_1/Relu;sequential/dense_1/BiasAdd f4 [96]
0	0xbf345877	-0.70447487
1	0x3fcb2cbb	1.5873026
2	0xbf467a99	-0.7753082
3	0x3fa9e70f	1.3273638
4	0xbfa20ea2	-1.2660716
5	0x40272fbc	2.6122885
6	0x402feeeb	2.7489574
7	0x3f932b49	1.1497585
8	0x403186f5	2.7738621
9	0xc00a2b53	-2.1588943
10	0xc00c4b06	-2.192079
11	0xbfb933a7	-1.4468888
12	0x4064a1d6	3.5723777
13	0x3f27c0c4	0.6552851
14	0x3f5bb27f	0.8581924
15	0xbfc2539d	-1.5181767
16	0xbfdf091d	-1.7424656
17	0xbd976dec	-0.07394013
18	0xbfb8bc91	-1.4432546
19	0xbf944400	-1.1583252
20	0x3ff40f2f	1.9067134
21	0xbfb0340b	-1.3765882
22	0xbf5d310c	-0.86402965
23	0x3f46309e	0.77417934
24	0x3f69f4bf	0.9138908
25	0x3fa96da2	1.3236582
26	0xc0972781	-4.7235723
27	0x3fcc38dd	1.5954853
28	0x3fc881a2	1.5664561
29	0x408092e8	4.017933
30	0xbfe74de6	-1.8070648
31	0x3ffd5bab	1.97936
32	0x40350215	2.828252
33	0x4027689d	2.61576
34	0xbe70a054	-0.2349866
35	0x400febb7	2.248762
36	0xbef27e2b	-0.47361884
37	0x3eef6644	0.4675771
38	0x400d32dc	2.2062292
39	0x3fcb3651	1.5875951
40	0x3ef726ec	0.48271883
41	0xbe37408d	-0.17895718
42	0x3e1bb688	0.15206349
43	0xc069a418	-3.6506405
44	0xbf32d0a7	-0.6984963
45	0x3f6906a3	0.9102575
46	0x3deababb	0.11461397
47	0x3f8e48d5	1.1115977
48	0x3ed83ec0	0.42235374
49	0xc015d76e	-2.3412738
50	0x3e827334	0.25478518
51	0x3fcf909c	1.6216006
52	0x3e107a2a	0.14109102
53	0xbfe8f896	-1.8200862
54	0x3e1fb026	0.15594539
55	0xbff2bc38	-1.896369
56	0x3ea4a66c	0.3215822
57	0x3e77fd98	0.24217832
58	0xbf6c978a	-0.9241873
59	0x3f9c353c	1.2203746
60	0xc005f8a5	-2.093301
61	0xc08b22ec	-4.348013
62	0x3f96a89b	1.1770204
63	0xbf4a05e3	-0.7891523
64	0xc0162420	-2.345955
65	0xbfc3e541	-1.5304338
66	0xbf96fd71	-1.1796094
67	0x4020fea8	2.515543
68	0x3f90431e	1.1270483
69	0xbef84d46	-0.48496455
70	0xc00ebf6b	-2.2304332
71	0xc007ec4e	-2.123798
72	0xbf695273	-0.9114143
73	0xc0198dff	-2.3992918
74	0xc0265a17	-2.5992486
75	0x3fa8bb40	1.3182144
76	0xbe5a3869	-0.21310581
77	0x3f282ab6	0.6569017
78	0x3e558544	0.20851618
79	0xbe81b830	-0.25335836
80	0x3f4775fb	0.779144
81	0x3fa33935	1.2751833
82	0x3dc5c90c	0.09657487
83	0xbfb90096	-1.4453304
84	0xbef0bbe2	-0.47018343
85	0xbea93da5	-0.33054844
86	0xc002d909	-2.0444968
87	0x3f303a99	0.6883941
88	0xbfca3c97	-1.579974
89	0x3f7766ac	0.9664104
90	0x3f7c34d8	0.98518133
91	0xc0231bbd	-2.548568
92	0xc05d18b1	-3.454632
93	0x3dfafb34	0.122549444
94	0x3f13e79b	0.57775277
95	0xbfe14299	-1.7598449

sequential/batch_normalization/batchnorm/mul_1;sequential/batch_normalization/batchnorm/add_1;sequential/dense_1/MatMul;sequential/dense_1/Relu;sequential/dense_1/BiasAdd f4 [96, 96]
0	0x3eb91058	0.36145282
1	0xbeb93b8c	-0.36178243
2	0x3d4d5748	0.050132066
3	0xbe9e2493	-0.3088728
4	0xbdae663a	-0.08515592
5	0x3e84e06e	0.25952476
6	0x3d1be887	0.038063552
7	0x3eb2a96e	0.3489489
8	0x3fd9682e	1.6984918
9	0x3ad3fb0b	0.0016172839
10	0x3d35c5e8	0.04437819
11	0xbe6ddb56	-0.23228201
12	0x3e8387c3	0.25689515
13	0x3febf436	1.8433902
14	0xbeb9ebd4	-0.36312735
15	0x3e87451a	0.26419908
16	0xbf2029e9	-0.6256395
17	0x40208748	2.508257
18	0xbf9bdd8c	-1.2176986
19	0x3f1af886	0.60535467
20	0xc043ee5c	-3.0614233
21	0xbe3ef752	-0.18649033
22	0xbe112f7c	-0.1417827
23	0xbe3a27e6	-0.18179283
24	0x40244ad7	2.5670679
25	0x3dfed881	0.124436386
26	0x3fa7b17f	1.3101043
27	0x3eafd7a1	0.343442
28	0xbeca1fde	-0.39477438
29	0x3e12883c	0.14309782
30	0xbe533837	-0.20626913
31	0x3e88bedb	0.2670811
32	0xbcdf30a7	-0.027244879
33	0xbdbc2892	-0.09187426
34	0xbc2e2c78	-0.010630719
35	0xbfe03f59	-1.7519332
36	0x3e007a52	0.12546661
37	0x4024aae9	2.5729315
38	0x3fc3c782	1.529526
39	0x3e8e3b3f	0.27779576
40	0x3e09918c	0.13434428
41	0x3e950556	0.29105633
42	0x3e2d0ba0	0.16898966
43	0x3c8a1b60	0.016858757
44	0xbe942ca1	-0.289403
45	0xbfa4d67b	-1.2877954
46	0xbe170254	-0.14746982
47	0x40a79b98	5.2377434
48	0x3e53df7d	0.20690723
49	0x40b1db7a	5.5580416
50	0x3e616d26	0.22014293
51	0xc033872c	-2.8051252
52	0xbdf5cb40	-0.120016575
53	0xbe2c7878	-0.1684283
54	0xbc26bfbd	-0.01017755
55	0x3b519fee	0.0031986195
56	0x3de03074	0.10946742
57	0xc05058db	-3.2554233
58	0xbda5497e	-0.08070658
59	0x3efe6707	0.4968798
60	0x3ebb6c48	0.3660605
61	0x3e944d3e	0.2896518
62	0xbe7320e9	-0.23743023
63	0x400ad838	2.169447
64	0xbf25e4b0	-0.64802074
65	0x3d734ad0	0.05939752
66	0xc085fa43	-4.1867995
67	0x40acadbe	5.396209
68	0x3e65d2a9	0.22443642
69	0xbccdf620	-0.025141776
70	0xc0660f55	-3.5946858
71	0x3db210c8	0.08694607
72	0x3e03c5d3	0.12868433
73	0xbe8a1d7c	-0.2697562
74	0x3d7ccda4	0.06171955
75	0x4086f7b3	4.2177367
76	0xc08c1106	-4.377078
77	0x3fbd3dfb	1.478454
78	0xbeaf73c4	-0.3426801
79	0x400d0991	2.203709
80	0xbb1c539d	-0.0023853548
81	0x3ee594bd	0.4484004
82	0x40369176	2.8526282
83	0x3e58b9b7	0.21164595
84	0x3fec85be	1.8478315
85	0xbe1a53d9	-0.15071048
86	0xbf0e8f1a	-0.55687106
87	0x3f174bcd	0.5910004
88	0x3f0f4d73	0.55977553
89	0x40892108	4.285282
90	0x3d5f2f50	0.05448848
91	0x3da76d00	0.08175087
92	0x3ed19064	0.40930474
93	0xbef65c36	-0.48117226
94	0x3bd6f872	0.0065603787
95	0xbe5b76af	-0.21431993
96	0xbeb5554a	-0.35416633
97	0xbea8f18d	-0.3299679
98	0xbfddfca9	-1.7342731
99	0x3d6e7c3d	0.05822395
100	0x3e49577c	0.19662279
101	0xbe5ca088	-0.21545613
102	0x3d3db4cf	0.04631501
103	0x3e8922ed	0.2678446
104	0x40ac9e4e	5.3943243
105	0xc0963874	-4.6943913
106	0xbe114d55	-0.14189656
107	0x3e294dc4	0.16533571
108	0xbe4bbf5e	-0.1989722
109	0x4000fe07	2.0155046
110	0xbe1ba6b1	-0.15200306
111	0x3e1d8034	0.15380937
112	0x3e087b19	0.13328208
113	0x4013bf26	2.3085418
114	0x3eed797f	0.46381757
115	0x3ff84cc4	1.9398427
116	0x40371ed5	2.8612568
117	0xbe988a21	-0.29792884
118	0xbe6411bb	-0.22272389
119	0x3d964d09	0.07338912
120	0xc05aa5ec	-3.416377
121	0x3d9cc1d3	0.076541565
122	0xbe0e7bf8	-0.13914478
123	0x3cbbdc09	0.02293207
124	0xbe123a37	-0.1428002
125	0x3edea09c	0.4348191
126	0xbe287fd1	-0.16455008
127	0xbebbbe9b	-0.36668858
128	0x3c7400f5	0.014892806
129	0x3f1dc70f	0.61631864
130	0x3ea566a1	0.32304862
131	0xbfc1269c	-1.5089908
132	0xc08b1350	-4.3461075
133	0xbf773e0d	-0.96579057
134	0x40831e29	4.0974317
135	0xbe09fb6a	-0.13474813
136	0xbeb25080	-0.34827042
137	0x3e82532a	0.25454074
138	0x3d8de7f9	0.06929011
139	0x3e1197bf	0.14218043
140	0x3ec749f5	0.38923612
141	0xc0873a41	-4.225861
142	0x3e8b2952	0.27179962
143	0x3f127f0f	0.57225126
144	0xbe45aac2	-0.1930342
145	0xc032b83b	-2.7924945
146	0x3cddec4c	0.027090214
147	0x3e876ed0	0.2645173
148	0x3e6ecd33	0.23320465
149	0xbcf00199	-0.029297637
150	0x3e9e4e3d	0.30919066
151	0xbeb3c974	-0.35114634
152	0xbe839dde	-0.2570638
153	0xc08adda1	-4.3395543
154	0xbdbdb0b0	-0.09262216
155	0xbc986335	-0.018601993
156	0xbe6fbf6d	-0.23412867
157	0x3e9c9afe	0.30587
158	0xbe29ee05	-0.16594703
159	0xbec53677	-0.38518116
160	0x3f3686a0	0.7129917
161	0x3e4d4c3c	0.20048612
162	0x3f99e679	1.202346
163	0x3fc7c199	1.5605956
164	0xbe170d6c	-0.14751214
165	0x3d519e12	0.05117614
166	0x3fafd803	1.3737797
167	0x3decfca3	0.11571624
168	0x3f1b068a	0.6055685
169	0xbe806848	-0.2507956
170	0x3fe277dc	1.7692828
171	0xc0064ec4	-2.0985575
172	0xc0b69803	-5.706056
173	0x409c2c3f	4.880401
174	0x3e33792d	0.17526694
175	0xc031bd64	-2.7771845
176	0xbd4610ac	-0.048355743
177	0x3e8f99c4	0.28047
178	0xbeedaa13	-0.4641882
179	0x3e0a54c4	0.13508898
180	0x3ff17e34	1.8866639
181	0xbee079aa	-0.43842822
182	0xbe807753	-0.25091037
183	0x40204a9b	2.5045536
184	0x3e85e725	0.26152912
185	0xc08d0910	-4.4073563
186	0xbf4fffd7	-0.81249756
187	0x3dd93040	0.10604906
188	0x3cc6daf9	0.024274336
189	0xbdc3fe86	-0.09570031
190	0x3ed5f49b	0.41788182
191	0xbddb1fcd	-0.10699425
192	0xbe90911f	-0.2823572
193	0x3e735e5a	0.23766461
194	0x4007a705	2.119569
195	0xbe901429	-0.2814038
196	0x3f08ae24	0.5339072
197	0x3e8f3edf	0.27977654
198	0xbef10ea2	-0.47081476
199	0xbebb55bd	-0.3658885
200	0x407437f2	3.8159146
201	0xc03e799b	-2.9761722
202	0x3ec24bef	0.37948558
203	0xbd9b15a9	-0.07572491
204	0xbe40c509	-0.18825163
205	0x3fa06fdf	1.253414
206	0x3e09a56f	0.13442014
207	0xbd03fd72	-0.032224126
208	0xbddc7b84	-0.10765746
209	0xbe00312f	-0.12518762
210	0xc0973ef1	-4.7264333
211	0xc00229c4	-2.0337992
212	0xc073ea02	-3.8111577
213	0xbe35d799	-0.17758025
214	0xbe25399e	-0.1613526
215	0xbd8ec19f	-0.06970524
216	0xbf659d21	-0.89692885
217	0x3c999e8e	0.018752363
218	0x409656fb	4.6981177
219	0x3df135f8	0.11777872
220	0x3e1fe3a6	0.15614185
221	0x3ee086c9	0.43852833
222	0xbd99a95e	-0.07503007
223	0x3e1d1c92	0.1534293
224	0xbeffa754	-0.4993235
225	0xbed02c7c	-0.4065894
226	0xbdf95b4b	-0.12175616
227	0x4075071d	3.8285592
228	0xbf7c1718	-0.9847274
229	0xbea8d046	-0.329714
230	0xbefd45c5	-0.49467292
231	0x3e46a4fe	0.19398877
232	0x3e12272e	0.14272758
233	0xbeac48b9	-0.33649233
234	0x3da81388	0.0820685
235	0x3d6964dc	0.056980953
236	0x3eb49eda	0.35277444
237	0xbf27e90c	-0.65589976
238	0x3da39c56	0.07988803
239	0xc00c0ae1	-2.188164
240	0x3e6eeed0	0.23333287
241	0x400e4780	2.223114
242	0xbd447595	-0.047963697
243	0xbf3eff18	-0.7460799
244	0x3debc908	0.11512953
245	0x3e0a1b32	0.13486937
246	0xbe07e5f1	-0.1327131
247	0x3eba5fd5	0.3640124
248	0xbdeb0d8f	-0.114771955
249	0xc0801634	-4.0027103
250	0xbe8237d1	-0.2543321
251	0x3ec706d3	0.38872394
252	0x3ee0e6b9	0.43926027
253	0xbea2c7dc	-0.31793106
254	0x3e5539fe	0.20822904
255	0x3a11f5e7	0.00055679533

sequential/dense_2/MatMul;sequential/dense_2/Relu;sequential/dense_2/BiasAdd f4 [96]
0	0xbe2521d3	-0.16126184
1	0xbd3660fe	-0.044526093
2	0xbfc95665	-1.572949
3	0x3f9d9a42	1.2312701
4	0xbe3003c8	-0.17188942
5	0xbd7390a4	-0.059464112
6	0x3efc8b3b	0.49324974
7	0xbed27532	-0.41105038
8	0xbf4e8f83	-0.8068773
9	0xbf20f0ba	-0.6286732
10	0xbe9e7bed	-0.30953923
11	0xbf8c5255	-1.0962626
12	0x3fb68b5f	1.4261283
13	0x3f044ddd	0.5168131
14	0x3f0951ae	0.5364026
15	0x3eeeb26e	0.46620506
16	0xbf6a8b0e	-0.9161843
17	0x3f86ccdd	1.0531269
18	0x3fee4e2d	1.8617607
19	0x3fdec572	1.7404006
20	0x3e07e983	0.13272671
21	0xbd3cec10	-0.046123564
22	0xbfb14886	-1.3850257
23	0xbf8bd838	-1.092536
24	0xbe801284	-0.25014126
25	0xbf85c1d3	-1.0449775
26	0xbed5e25a	-0.41774255
27	0xbdb34213	-0.08752837
28	0xbe2547b1	-0.1614063
29	0x3e99df2e	0.30053085
30	0x3bc81b34	0.0061067585
31	0x3e9838d9	0.2973087
32	0x3ee35cac	0.4440664
33	0xbfc97336	-1.5738285
34	0xbf7fe9ed	-0.9996632
35	0x3ed6582a	0.4186414
36	0x3efd8b51	0.49520352
37	0xbeab7949	-0.3349097
38	0x3d54e0fb	0.05197237
39	0x3df1c81c	0.11805746
40	0xbf40a46f	-0.75250906
41	0x3e627271	0.22113968
42	0x3f88f003	1.0698246
43	0xbea5f065	-0.3240997
44	0x3e73e6af	0.23818468
45	0xbed26070	-0.410892
46	0x3ce8fcc4	0.02844084
47	0x3eb9da2c	0.36299264
48	0xbe66b58a	-0.22530189
49	0xbe2b060e	-0.16701528
50	0x3ec5b73f	0.38616368
51	0xbdb5d1f0	-0.08877933
52	0x3f4bad09	0.79560906
53	0x3f765d0e	0.9623574
54	0x3ec3e9e7	0.3826439
55	0x3fac9c08	1.3485117
56	0xbd69bfb5	-0.05706759
57	0xbf2d65f6	-0.67733705
58	0x3ee410cf	0.44544074
59	0xbe73c080	-0.23803902
60	0x3f42f672	0.76157296
61	0xbea021ec	-0.3127588
62	0xbe9ca58a	-0.30595046
63	0x3e4db3ab	0.20088069
64	0x3e6a9327	0.22907697
65	0xbc28a4c6	-0.010293191
66	0x3f257c88	0.64643145
67	0xbf72e58c	-0.9488151
68	0xbedd2836	-0.4319474
69	0x3f3f8446	0.7481121
70	0x3dc4821e	0.095951304
71	0x3fa20535	1.2657839
72	0x3f4ca252	0.7993518
73	0xbdb0dc89	-0.08635814
74	0x3dd191fd	0.10232923
75	0xbe6073ff	-0.21919249
76	0x3e8bdbd9	0.27316168
77	0x3f3a4205	0.7275699
78	0x3efd1618	0.4943092
79	0x3e92117e	0.2852897
80	0x3f6e673b	0.9312627
81	0x3f34b4c0	0.705883
82	0x3eb2486f	0.34820887
83	0xbf959e83	-1.1688999
84	0xbf862252	-1.0479224
85	0x3e2deb64	0.16984326
86	0xbee56d6e	-0.4481005
87	0x3d8a17bc	0.06742808
88	0x3f05c701	0.5225678
89	0x3e508a2a	0.20365205
90	0x3e81aa89	0.2532542
91	0x3f671df8	0.90280104
92	0xbbce1871	-0.0062895347
93	0x3e915d50	0.28391504
94	0xbe90ad91	-0.2825742
95	0x3e3484b0	0.17628741

sequential/batch_normalization_1/batchnorm/mul_1;sequential/batch_normalization_1/batchnorm/add_1;sequential/dense_2/MatMul;sequential/dense_2/Relu;sequential/dense_2/BiasAdd f4 [96, 96]
0	0x3e9245e3	0.28568944
1	0x3d937762	0.07200505
2	0xbd7d3416	-0.06181725
3	0x3d61c216	0.055116735
4	0x3e8b3a9f	0.27193162
5	0xbd2cdc43	-0.042202245
6	0x3de58bf4	0.112083346
7	0xbe91175d	-0.28338137
8	0x3e5b7662	0.21431878
9	0x3e8a2eca	0.26988822
10	0xbd442cd7	-0.047894325
11	0xbe976ba0	-0.295743
12	0xbe3251fb	-0.17414086
13	0xbe078fb0	-0.13238406
14	0xbd7e99f4	-0.06215854
15	0xbd90d770	-0.070723414
16	0xbe46fedf	-0.19433163
17	0x3e59501b	0.21221964
18	0xbe927251	-0.28602841
19	0x3cd2d42f	0.025735943
20	0x3e227721	0.15865757
21	0xbe11d104	-0.1423989
22	0xbde15259	-0.11002035
23	0xbe24fc2c	-0.16111821
24	0xbdabd2d3	-0.08389821
25	0xbde9385b	-0.11387702
26	0xbe1dd8fc	-0.15414804
27	0xbe82536b	-0.25454268
28	0xbd638084	-0.055542484
29	0xbe39efc6	-0.18157873
30	0xbdd4b2cc	-0.10385665
31	0xbe42694d	-0.18985482
32	0xbe8b4b63	-0.27205953
33	0xbe3c6296	-0.18396983
34	0x3e59e8c2	0.21280196
35	0x3e91f182	0.28504568
36	0x3dc37dea	0.095455006
37	0xbca494ff	-0.020090578
38	0xbda94562	-0.08265187
39	0x3e15e80a	0.14639297
40	0xbe7f1a09	-0.24912275
41	0x3e17dc3e	0.1483011
42	0x3dec67b2	0.11543216
43	0xbde34a3e	-0.11098145
44	0xbe8476ea	-0.25871974
45	0x3e4d20ab	0.20031993
46	0x3e646aa9	0.22306313
47	0x3d4714fc	0.048603997
48	0x3e3e5918	0.18588674
49	0xbce187fb	-0.02753066
50	0xbcbcca17	-0.023045583
51	0x3e0396ed	0.12850542
52	0xbe60d09f	-0.21954583
53	0x3e2ed7b1	0.17074467
54	0xbe30bb4e	-0.17258951
55	0x3db8706b	0.09005817
56	0x3e848d8c	0.25889242
57	0xbe2f801f	-0.17138718
58	0xbc6bd57a	-0.0143941585
59	0x3e248bdc	0.16068977
60	0x3dd000d9	0.10156412
61	0x3d87a75d	0.06623719
62	0x3df1d6c4	0.118085414
63	0xbe35e183	-0.17761807
64	0x3e8790f2	0.26477772
65	0x3d226aab	0.039652508
66	0xbd5ba319	-0.05362234
67	0x3e931294	0.2872511
68	0xbe298aca	-0.1655685
69	0xbd4e0984	-0.050302044
70	0xbe388efd	-0.18023296
71	0x3d5275ca	0.051381864
72	0x3d2e7dd7	0.04260048
73	0xbe15b039	-0.14618005
74	0x3e859f2a	0.26097995
75	0x3e78524a	0.24250141
76	0xbd96dd4c	-0.07366428
77	0x3e17ddb7	0.14830671
78	0xbd1d8ea0	-0.038466096
79	0x3e8a7a1e	0.27046293
80	0xbc859002	-0.01630402
81	0x3ea9c0fc	0.33155048
82	0x3ce85916	0.028362792
83	0xbe0fd98e	-0.14047834
84	0xbe1ff4e3	-0.1562076
85	0xbe8e6528	-0.2781155
86	0x3e113b7e	0.1418285
87	0x3e373c14	0.17894012
88	0x3d8a1e99	0.06744117
89	0xbe14d14f	-0.1453297
90	0x3c8ef071	0.017448636
91	0xbcffe34d	-0.031236315
92	0x3e30aa33	0.17252426
93	0xbe6ba0d6	-0.23010573
94	0x3bc946e6	0.006142485
95	0x3daddec5	0.084897555
96	0xbdae71de	-0.08517812
97	0x3e213f90	0.15746903
98	0xbe19ef22	-0.15032628
99	0xbe13e267	-0.14441834
100	0x3e2afc08	0.16697705
101	0x3e917760	0.28411388
102	0x3e6f5af2	0.23374537
103	0x3e89af11	0.26891378
104	0x3e652fd4	0.22381526
105	0xbe9851cc	-0.29749906
106	0xbe6992bd	-0.22809882
107	0xbc8b6a79	-0.017018544
108	0xbd99791e	-0.074938044
109	0xbda51fd7	-0.080627136
110	0x3dfcab4a	0.12337358
111	0x3dad1019	0.08450336
112	0xbc94d02d	-0.018165672
113	0xbe7ebca9	-0.24876656
114	0x3e07f0e6	0.13275489
115	0xbe85bffa	-0.2612303
116	0xbde6f956	-0.11278026
117	0x3e2f31e3	0.17108874
118	0x3e65ab33	0.22428589
119	0x3e04044e	0.12892267
120	0x3e5b8415	0.21437104
121	0xbe130386	-0.14356813
122	0x3e154219	0.14575996
123	0x3ead12be	0.33803362
124	0xbe2aed7d	-0.16692157
125	0x3dbc8d19	0.092066
126	0x3e78542a	0.24250856
127	0x3c217e34	0.009856749
128	0x3cc48c1e	0.023992594
129	0xbd24c75f	-0.040229198
130	0x3e82dfcc	0.25561368
131	0x3e25e114	0.16199142
132	0xbe715ce2	-0.23570588
133	0x3d04fcc0	0.032467604
134	0xbcd0eb4b	-0.025502821
135	0x3d3714b3	0.044697475
136	0x3dc3478e	0.09535132
137	0xbe82743b	-0.25479302
138	0xbe61176f	-0.21981595
139	0xbe67070c	-0.22561282
140	0x3dee0ab0	0.11623132
141	0xbe38f400	-0.18061829
142	0x3de22238	0.11041683
143	0x3cfd904f	0.0309526
144	0x3b506e38	0.0031803977
145	0xbe6e84d2	-0.23292854
146	0x3c2764c3	0.010216895
147	0x3e50aee8	0.20379221
148	0xbb940c52	-0.0045180703
149	0xbcc8284a	-0.024433274
150	0xbe6f1d95	-0.23351128
151	0x3e5e1611	0.21688105
152	0x3e914c0b	0.2837833
153	0x3dd84408	0.10559851
154	0xbd147d49	-0.036252294
155	0x3e52716b	0.20551078
156	0x3e323836	0.17404255
157	0xbdb8ed71	-0.09029663
158	0x3e28d146	0.16486081
159	0xbe7cd6f2	-0.2469137
160	0x3d1bf70c	0.0380774
161	0x3de8587c	0.11345002
162	0xbe883d31	-0.26609185
163	0x3dd0961b	0.1018488
164	0xbe22a06a	-0.15881506
165	0xbe92e93f	-0.28693578
166	0xbe3a9cd1	-0.18223883
167	0x3e711a79	0.23545255
168	0x3dacf88b	0.08445843
169	0xbd4800dd	-0.04882895
170	0x3df2551e	0.11832641
171	0x3db8eba1	0.09029318
172	0xbe416815	-0.1888736
173	0xbe3b6e49	-0.18303789
174	0x3ddc8479	0.10767455
175	0xbcb1fd29	-0.021727161
176	0x3e443136	0.19159397
177	0x3e672738	0.22573555
178	0xbe2280e6	-0.15869483
179	0xbd931125	-0.071810044
180	0xbdc6f5c0	-0.09714842
181	0x3ebd9b9c	0.37032783
182	0xbe4d4090	-0.2004416
183	0xbdfe4698	-0.124158084
184	0xbe85be5f	-0.26121804
185	0xbdb8fc44	-0.09032491
186	0x3e09b99c	0.1344971
187	0x3e252216	0.16126284
188	0xbdfc1ee4	-0.123105794
189	0xbd36ca12	-0.044626303
190	0xbdcc2db6	-0.09969656
191	0xbdd50416	-0.1040117
192	0xbe4a5a94	-0.19761115
193	0x3dd3d913	0.10344138
194	0x3db2fd6b	0.08739742
195	0xbb974b6e	-0.004617146
196	0x3d307952	0.04308445
197	0x3dec594f	0.11540472
198	0xbcf0dafb	-0.029401293
199	0x3e5f5f9a	0.21813813
200	0xbe63afa5	-0.22234972
201	0x3cfeebc6	0.031118285
202	0x3e96afde	0.2943105
203	0x3e970fa3	0.29504117
204	0xbdc65c2f	-0.096855514
205	0xbe42aeac	-0.19011945
206	0x3d550024	0.052002087
207	0xbddf399b	-0.10899659
208	0x3e71dbec	0.2361905
209	0x3e442db7	0.19158064
210	0xbe9a1213	-0.30091915
211	0x3e5f7d27	0.21825086
212	0xbda081ad	-0.07837234
213	0x3e870c0c	0.2637638
214	0xbdedbfa4	-0.11608818
215	0x3e89e730	0.26934195
216	0xbe27f278	-0.16401088
217	0x3e137c5a	0.14402905
218	0x3e47a30c	0.19495791
219	0x3ddee9c1	0.10884429
220	0xbe306932	-0.17227629
221	0x3e34ad20	0.17644167
222	0xbd93cadf	-0.07216429
223	0xbd405543	-0.046956312
224	0xbe1bb31b	-0.15205042
225	0xbe17cd0f	-0.14824317
226	0x3ea15f2f	0.31517932
227	0xbe496414	-0.19667083
228	0x3e5524ff	0.20814894
229	0x3dbcdd10	0.09221852
230	0xbe7dcb47	-0.24784575
231	0xbe7cff94	-0.2470687
232	0xbe2d9966	-0.16953048
233	0x3e81c22f	0.25343463
234	0x3d1cf6e0	0.038321376
235	0x3e7a3530	0.24434352
236	0x3e1ab766	0.15109023
237	0x3e8e52cc	0.27797544
238	0xbe52c95a	-0.20584622
239	0xbe7dba31	-0.24778058
240	0xbced25bb	-0.028948655
241	0x3e360395	0.17774804
242	0x3d7e2a34	0.062051967
243	0x3de45974	0.11149874
244	0xbda28349	-0.07935197
245	0x3e701456	0.23445258
246	0xbddb9c27	-0.10723143
247	0xbe14dabb	-0.14536564
248	0xbe9863d4	-0.29763663
249	0xbd31b76c	-0.043387815
250	0x3e19c517	0.1501659
251	0xbd0ce0ac	-0.03439395
252	0x3e16c0fe	0.14722058
253	0x3e777dfb	0.24169151
254	0x3d9d2e51	0.0767485
255	0xbd6721a0	-0.05642855

sequential/dense_3/MatMul;sequential/dense_3/Relu;sequential/dense_3/BiasAdd f4 [96]
0	0x3da5d01f	0.080963366
1	0xbf275c98	-0.6537566
2	0xbec5a4c3	-0.38602266
3	0x3fca3fdb	1.5800737
4	0x3d15364b	0.03642873
5	0xbf1e92d6	-0.61942804
6	0x3f653c08	0.89544725
7	0xbf1b1000	-0.6057129
8	0xbf0a9a7c	-0.54141974
9	0x3f76b5f0	0.96371365
10	0xbf60444d	-0.8760422
11	0xbe97bed7	-0.29637787
12	0x3e777380	0.24165154
13	0x3f191311	0.5979472
14	0x3f2aed6e	0.6676854
15	0x3e9b5294	0.3033644
16	0xbea13aa1	-0.31490043
17	0xbf120afd	-0.57048017
18	0x3f161d20	0.5863819
19	0x3edb498a	0.42829543
20	0x3f1bc2bd	0.6084402
21	0xbd15dde1	-0.036588553
22	0x3f346e5e	0.70480907
23	0xbe35aeda	-0.17742482
24	0x3f64966f	0.89292043
25	0xbfc00e47	-1.5004357
26	0xbf1b3de0	-0.6064129
27	0x3f2d08d4	0.67591596
28	0x3ecc9508	0.39957452
29	0x3f843ed2	1.0331671
30	0x3f5bacdc	0.8581064
31	0xbe5d3c5b	-0.21605055
32	0xbf2bea99	-0.6715484
33	0x3f09778c	0.5369804
34	0x3f01f71a	0.5076767
35	0xbd87bc05	-0.06627659
36	0x3e7f7981	0.24948694
37	0xbf91a36c	-1.1377997
38	0xbdbc2893	-0.091874264
39	0xbe754684	-0.23952681
40	0x3f2df138	0.67946196
41	0xbf15f258	-0.5857291
42	0xbf298ddd	-0.6623209
43	0xbf847e1b	-1.0350984
44	0x3ef9f391	0.4881864
45	0x3e74ae4a	0.23894611
46	0x3f36ed26	0.7145561
47	0xbf7607de	-0.96105754
48	0xbdc61f62	-0.096739545
49	0x3f8ca1e4	1.0986905
50	0xbf87ea23	-1.0618328
51	0xbe2a28b6	-0.16617092
52	0x3f596577	0.8492045
53	0xbf8ca783	-1.098862
54	0xbea266f3	-0.3171917
55	0x3d1c248b	0.038120788
56	0xbea6ce8a	-0.32579452
57	0x3cfcd34c	0.030862473
58	0xbe77a695	-0.2418464
59	0x3e0ed2c0	0.13947582
60	0x3dde6931	0.108599074
61	0x3edd73b4	0.43252337
62	0x3e8b2a2e	0.27180618
63	0xbf135119	-0.5754562
64	0xbf0b113c	-0.5432317
65	0xbee97224	-0.45594895
66	0xbe1b375c	-0.15157837
67	0x3e9b8f94	0.3038298
68	0x3c44d48a	0.012013564
69	0x3f685e16	0.90768564
70	0xbda68322	-0.0813048
71	0xbf0e5640	-0.5560036
72	0x3e7493c3	0.23884492
73	0x3e3fc978	0.18729198
74	0x3d02aa60	0.031900764
75	0xbeb31bec	-0.3498224
76	0x3f114be2	0.56756413
77	0xbef3b047	-0.47595426
78	0x3f1dde58	0.61667395
79	0xbf53ce90	-0.82737064
80	0x3f0295fb	0.510101
81	0xbf03546b	-0.51300687
82	0xbfaf633f	-1.3702163
83	0x3f46951c	0.7757127
84	0x3f12a3d4	0.5728123
85	0xbf71fe14	-0.9452832
86	0xbdc2a2a8	-0.095036805
87	0xbfc150a1	-1.5102731
88	0x3fd1e29c	1.6397281
89	0xbfabfeb4	-1.3437104
90	0xbe46afb7	-0.19402967
91	0x3e1a2345	0.15052517
92	0x3e13e2c4	0.14441973
93	0x3f59188d	0.84803087
94	0xbe1557ea	-0.14584318
95	0xbe84ede7	-0.25962755

sequential/batch_normalization_2/batchnorm/mul_1;sequential/batch_normalization_2/batchnorm/add_1;sequential/dense_3/MatMul;sequential/dense_3/Relu;sequential/dense_3/BiasAdd f4 [96, 96]
0	0x3c3e21e3	0.011604759
1	0x3d61e5b6	0.05515071
2	0xbda92fba	-0.08261056
3	0xbd7f3294	-0.062304094
4	0xbe0350d0	-0.12823796
5	0xbdddc14d	-0.10827885
6	0xbe60fdbf	-0.21971796
7	0xbe7d94ee	-0.24763843
8	0xbdae7d99	-0.085200496
9	0xbd2a1ec6	-0.041533254
10	0xbdb2b590	-0.087260365
11	0xbd2baaca	-0.041910924
12	0x3dbf7e66	0.093502805
13	0x3cda87c6	0.02667607
14	0xbcc7cdb0	-0.024390072
15	0xbd9dcd10	-0.07705128
16	0xbd0e76c6	-0.03478124
17	0x3dd51feb	0.104064785
18	0xbe079d56	-0.13243613
19	0x3e26b31d	0.16279264
20	0x3e01db6b	0.12681358
21	0x3e4810b7	0.19537626
22	0xbdfc38e7	-0.12315541
23	0x3e17ef04	0.14837271
24	0xbe026b65	-0.1273628
25	0x3da66db4	0.08126393
26	0xbe6e5271	-0.23273636
27	0xbe2dc64e	-0.16970178
28	0xbe2d783f	-0.16940401
29	0xbc0f8d20	-0.008761674
30	0x3cd735b9	0.026270734
31	0xbd92d56e	-0.07169615
32	0xbda36f27	-0.07980185
33	0xbb5a010d	-0.0033264786
34	0x3da28b29	0.07936699
35	0xbd85c933	-0.06532516
36	0xbdf5540d	-0.11978922
37	0x3e19b203	0.15009312
38	0xbd15bb16	-0.036555372
39	0xbd898626	-0.0671504
40	0xbe110ada	-0.14164296
41	0xbc8184d0	-0.0158104
42	0x3e39fd82	0.18163112
43	0xbdd82ddd	-0.10555623
44	0xbe116d23	-0.14201789
45	0xbe2d1a46	-0.16904554
46	0x3e4f4b99	0.20243682
47	0x3e8b4217	0.2719886
48	0x37d06ad7	2.4845283e-05
49	0x3e550591	0.20802905
50	0xbc96a2eb	-0.018388232
51	0x3e2580fd	0.16162486
52	0x3e2a6b97	0.16642605
53	0xbe171701	-0.14754869
54	0x3d6bdd6e	0.05758422
55	0xbddff583	-0.109354995
56	0x3d88fc86	0.0668879
57	0xbd9d5039	-0.07681317
58	0x3e0d8511	0.13820292
59	0x3e1766dd	0.14785333
60	0xbe8577b7	-0.26067898
61	0x3e1efacb	0.15525357
62	0x3e28bd17	0.16478382
63	0xbdbab519	-0.09116573
64	0xbc95e36b	-0.018296918
65	0x3d939095	0.07205311
66	0xbe2d8c36	-0.16948017
67	0xbd12abc9	-0.03580836
68	0x3db202b0	0.08691919
69	0x3dbdae4c	0.0926176
70	0xbe86f5da	-0.26359445
71	0x3e084d7e	0.13310811
72	0x3c15cbed	0.009142858
73	0xbd645125	-0.055741448
74	0x3e4e17c6	0.20126256
75	0xbd79ab97	-0.060954656
76	0xbbfbf84b	-0.007689511
77	0x3e4551d4	0.19269496
78	0x3e1d513b	0.15363018
79	0x3e27511c	0.16339535
80	0x3d736eb3	0.059431743
81	0x3dc179e8	0.0944708
82	0xbbc832d0	-0.006109573
83	0xbdbddf70	-0.09271133
84	0xbe4b5b8c	-0.19859141
85	0xbe6b800c	-0.22998065
86	0x3dd604b7	0.10450118
87	0xbe3bf662	-0.18355706
88	0xbe84d05f	-0.25940225
89	0xbde5fc28	-0.112297356
90	0xbc8f8156	-0.017517727
91	0x3e2a92f8	0.16657627
92	0x3dd7a983	0.10530379
93	0x3e3e3e46	0.18578443
94	0x3d989d31	0.07451857
95	0x3e323e46	0.17406568
96	0x3e5cd9d8	0.21567476
97	0x3e0f62e6	0.1400257
98	0x3dd88aeb	0.105733715
99	0xbd77930a	-0.06044296
100	0x3de70798	0.11280745
101	0xbe0b03f2	-0.13575724
102	0x3e5417e0	0.20712233
103	0x3d501572	0.0508017
104	0xbd76f308	-0.060290366
105	0xbdd65ddb	-0.1046712
106	0xbd8a50b6	-0.06753676
107	0xbd027fc6	-0.031860135
108	0xbd72aa8d	-0.05924468
109	0xbcc63906	-0.024197113
110	0xbdd37599	-0.10325164
111	0xbcd7bdfd	-0.02633571
112	0xbe3dd601	-0.18538667
113	0x3d514b11	0.05109698
114	0x3dabf749	0.08396775
115	0x3e3c5a59	0.1839384
116	0x3e2d9fc7	0.16955481
117	0x3d6d9c52	0.058010407
118	0x3e3a10aa	0.1817042
119	0x3dd826ef	0.10554301
120	0xbddadc05	-0.10686497
121	0x3d246d3e	0.040143244
122	0x3e2770c8	0.16351616
123	0xbda70201	-0.08154679
124	0x3de3d83f	0.1112523
125	0xbd768ffc	-0.060195908
126	0xbe2f19e2	-0.17099717
127	0x3e33b76c	0.17550439
128	0x3e100489	0.1406423
129	0x3e117441	0.14204504
130	0xbe522140	-0.20520496
131	0xbda1a967	-0.07893639
132	0x3e01e34d	0.12684365
133	0xbd9ac4e2	-0.07557084
134	0xb94077a0	-0.0001835511
135	0x3d8109e4	0.063007146
136	0xbd990aa6	-0.07472734
137	0xbcda7ffc	-0.026672356
138	0xbd0116a7	-0.031515744
139	0x3d86cbf9	0.065818734
140	0x3d728a1b	0.05921374
141	0x3e228d61	0.15874244
142	0xbcfcdae5	-0.030866096
143	0xbe858d59	-0.26084402
144	0x3e3156ed	0.17318316
145	0x3d8050ad	0.06265388
146	0x3d527c8c	0.05138831
147	0xbe26e53e	-0.16298386
148	0x3a8e2ee4	0.0010847715
149	0x3dedbf64	0.116087705
150	0xbc725027	-0.014789618
151	0xbe2d4523	-0.16920905
152	0xbe3e1a47	-0.18564712
153	0x3e4d8a4f	0.20072292
154	0xbe399eae	-0.18126938
155	0xbcd60551	-0.026125582
156	0xbe3fcc25	-0.18730219
157	0x37831451	1.5625877e-05
158	0xbc0a3990	-0.0084365755
159	0x3e247c84	0.16063124
160	0x3e4c075d	0.19924684
161	0xbdf97731	-0.12180937
162	0x3dd5961c	0.10429022
163	0xbe032ad5	-0.12809308
164	0x3d98bdda	0.07458086
165	0xbd81dded	-0.06341157
166	0x3e3d06c1	0.18459608
167	0xbdb328c5	-0.087480105
168	0xbe5a3509	-0.21309294
169	0x3e034883	0.1282063
170	0xbddbd1e1	-0.107333906
171	0x3e53c54e	0.20680735
172	0x3e1b61f2	0.15174082
173	0x3d11b7c5	0.035575647
174	0x3e828271	0.25490144
175	0xbd56268b	-0.05228285
176	0xbe4de1ea	-0.2010571
177	0xbdec9cc4	-0.11553338
178	0x3e1364f3	0.14393978
179	0x3d3b00fd	0.04565524
180	0xbd98a5ad	-0.07453475
181	0x3d79defa	0.061003663
182	0xbc164509	-0.009171733
183	0x3df341cb	0.118777834
184	0xbe539198	-0.20661008
185	0x3d9e698b	0.077349745
186	0x3db9758d	0.09055624
187	0xbe4a83f6	-0.19776902
188	0x3ddfb1d6	0.109225914
189	0x3e3cf20f	0.18451713
190	0xbde8a480	-0.11359501
191	0xbd4cb69e	-0.049978845
192	0x3c84975a	0.016185451
193	0xbdcefa68	-0.10106355
194	0x3d1e5036	0.038650714
195	0xbda9a9e6	-0.08284359
196	0x3dd56f0c	0.10421571
197	0x3d432e5a	0.047651626
198	0x3cdfd55e	0.027323421
199	0xbde5fdee	-0.11230074
200	0xbb822311	-0.0039714654
201	0xbe341547	-0.17586242
202	0xbd94bfd9	-0.072631545
203	0x3dbfc924	0.093645364
204	0xbe6c41b6	-0.23071942
205	0xbe2a96c3	-0.16659074
206	0xbe4d028f	-0.20020507
207	0x3d36b6e9	0.04460803
208	0x3e066b34	0.13126832
209	0x3d812996	0.0630676
210	0x3dd57f21	0.104246385
211	0x3cb6afba	0.02230059
212	0xbe031ff1	-0.12805153
213	0xbe244a91	-0.1604407
214	0xbd4cb712	-0.049979277
215	0x3dbba507	0.09162336
216	0x3d077854	0.03307374
217	0x3e058a35	0.13041003
218	0x3d8fb888	0.070176184
219	0x3e11b08f	0.14227508
220	0x3e757262	0.23969415
221	0x3df7b74d	0.12095509
222	0x3e0c3cdc	0.13695091
223	0x3d1db8f4	0.038506463
224	0x3dec4a13	0.11537566
225	0x3d29661f	0.041357156
226	0xbd5090dd	-0.050919402
227	0xbde6b7f9	-0.11265559
228	0xbe2f6a1d	-0.17130323
229	0xbd0c7e02	-0.034299858
230	0xbe5dbd75	-0.21654303
231	0xbda2e5ef	-0.079540126
232	0x3cc8c0f4	0.02450607
233	0x3e7aafbf	0.24481104
234	0x3e336980	0.17520714
235	0xbde05d54	-0.10955301
236	0xbe0c3c6a	-0.13694921
237	0x3e08d750	0.13363385
238	0x3e818c28	0.25302243
239	0x3da7d423	0.08194759
240	0xbdd71e22	-0.10503794
241	0x3e37bdea	0.1794354
242	0x3e1dcad5	0.15409406
243	0x3e67adb4	0.22624856
244	0xbe218ce4	-0.15776402
245	0xbe3686c5	-0.17824848
246	0x3e30415e	0.17212436
247	0x3d66bc03	0.056331646
248	0xbe36a588	-0.17836583
249	0x3e52b397	0.2057632
250	0x3c8cf185	0.01720501
251	0xbddc1b4e	-0.107473955
252	0xbe61bd8c	-0.22044963
253	0x3e1bf452	0.1522992
254	0x3dfae632	0.122509375
255	0x3e34f064	0.17669827

sequential/dense_4/MatMul;sequential/dense_4/Relu;sequential/dense_4/BiasAdd f4 [96]
0	0xbefee9b6	-0.49787682
1	0xbeef639f	-0.46755692
2	0x3f1e3f4a	0.6181532
3	0xbf8e8dba	-1.1137002
4	0x3f9d8260	1.2305412
5	0xbf1c606d	-0.61084634
6	0xbfe515d2	-1.7897284
7	0x3ec57de5	0.38572612
8	0x3f408350	0.75200367
9	0xbf9772a4	-1.183186
10	0xbf2ffccb	-0.68745106
11	0xbf485a8e	-0.78263175
12	0x3f262406	0.6489872
13	0x3eca811d	0.3955163
14	0xbf35a7a0	-0.709589
15	0x3ed1bc25	0.40963855
16	0x3f48ca13	0.7843334
17	0xbf204d55	-0.62618
18	0xbda47b36	-0.08031313
19	0xbf9dc7f1	-1.2326642
20	0x3f9747bf	1.181877
21	0xbde3787b	-0.11106964
22	0xbf768536	-0.96297014
23	0x3f0a9617	0.5413527
24	0xbf3162e4	-0.6929152
25	0xbda716d7	-0.08158653
26	0x3dbb88b8	0.091569364
27	0x3e0ec2a7	0.13941441
28	0x3f4d8264	0.80277085
29	0x3ed0cba7	0.40780374
30	0x3f383857	0.7196097
31	0xbed65bf2	-0.41867024
32	0xbf0bd7e5	-0.54626304
33	0x3f44d1cf	0.7688264
34	0xbe2afcc4	-0.16697985
35	0x3dcc25dd	0.09968159
36	0x3e5f2b6d	0.2179391
37	0x3f893bb9	1.0721351
38	0x3f6b25a6	0.9185432
39	0x3e0786f3	0.13235073
40	0x3f368819	0.7130142
41	0x3f74630a	0.9546362
42	0x3e88f959	0.26752737
43	0xbf644f76	-0.8918375
44	0x3d95bf4b	0.07311877
45	0x3f9ac128	1.2090197
46	0x3f920b37	1.1409672
47	0xbe13556d	-0.14388056
48	0xbe7c62bf	-0.24647044
49	0x3f6471d4	0.8923619
50	0x3fe0015f	1.7500418
51	0x3eedf4f6	0.46475953
52	0x3eeebdc2	0.4662915
53	0xbffe4ec9	-1.9867793
54	0xbe58c513	-0.21168928
55	0x3da72188	0.081606925
56	0xbf2d5805	-0.6771243
57	0x3f99c60d	1.2013565
58	0x3ed99fbe	0.42504686
59	0x3e50aaae	0.20377609
60	0x3e9ad1da	0.3023823
61	0x3e85997f	0.2609367
62	0x3dda2d59	0.10653181
63	0x3ec1fbe3	0.37887487
64	0xbf1cfc0a	-0.6132208
65	0x3eca6ce9	0.39536217
66	0x3f8fe248	1.124093
67	0x3f68c915	0.90931827
68	0x3fc0f62e	1.5075128
69	0x3eaa1e7d	0.33226386
70	0x3f93fd89	1.1561748
71	0xbf68ca55	-0.90933734
72	0x3ef86d6c	0.48520982
73	0x3f407859	0.75183636
74	0xbf852c5d	-1.0404164
75	0xbec88b32	-0.39168698
76	0x3e5cd081	0.21563913
77	0xbec3f255	-0.38270822
78	0xbf656f00	-0.896225
79	0xbe888381	-0.2666283
80	0xbf742200	-0.9536438
81	0xbe7c41b8	-0.24634445
82	0x3dc42d66	0.095789716
83	0x3fb0c03c	1.3808665
84	0x3f229106	0.6350254
85	0x3f2a218d	0.66457444
86	0x3f6abb79	0.9169231
87	0xbf341c2f	-0.70355505
88	0x3d8c1469	0.068398304
89	0xbf4063f0	-0.7515249
90	0x3e27dd81	0.16393091
91	0x3f672312	0.9028789
92	0xbf20fc4a	-0.6288496
93	0x3dfa3c46	0.122185275
94	0xbeddae5b	-0.43297085
95	0xbf18f81f	-0.597536

sequential/batch_normalization_3/batchnorm/mul_1;sequential/batch_normalization_3/batchnorm/add_1;sequential/dense_4/MatMul;sequential/dense_4/Relu;sequential/dense_4/BiasAdd f4 [96, 96]
0	0x3caa19cf	0.02076426
1	0xbdb042c4	-0.086064845
2	0x3d9eec4b	0.07759913
3	0xbdc9e882	-0.098588005
4	0x3e413cd3	0.18870859
5	0x3dbf3404	0.09336093
6	0xbdea746c	-0.11447987
7	0xbdffb8dd	-0.12486432
8	0xbdfea978	-0.12434667
9	0x3e440cbd	0.19145484
10	0x3ceec73a	0.029147733
11	0x3e329b13	0.17441969
12	0xbdc12999	-0.09431762
13	0xbc85c8a4	-0.016331024
14	0x3da59828	0.08085662
15	0xbe64bac2	-0.22336867
16	0x3e2d7628	0.16939604
17	0xbe87fdbf	-0.2656078
18	0x3e4326cc	0.19057769
19	0x3cdce0c1	0.02696264
20	0xbd3d2e36	-0.04618665
21	0xbd87827c	-0.06616685
22	0xbc931d2a	-0.017958242
23	0x3dec2f2a	0.11532433
24	0x3e508d04	0.20366293
25	0x3d4210cb	0.047379296
26	0xbe203ae5	-0.15647466
27	0xbd434736	-0.047675334
28	0x3c2ee8a8	0.010675587
29	0x3e40f507	0.1884347
30	0xbe0187ca	-0.12649456
31	0x3dfe1374	0.12406054
32	0x3dd36e4a	0.1032377
33	0xbd3d90e2	-0.04628075
34	0xbd93abda	-0.072105125
35	0xbccbbb78	-0.024869666
36	0x3e1d428e	0.1535742
37	0x3d4dfa56	0.050287567
38	0x3e39c35b	0.18140928
39	0xbe442cf0	-0.19157767
40	0xbdde81b7	-0.10864585
41	0xbe563bbf	-0.20921229
42	0x3d8fed88	0.07027727
43	0xbda882c6	-0.08228068
44	0x3d989344	0.07449964
45	0x3e7202d5	0.23633893
46	0xbe41d1db	-0.1892771
47	0x3db418d2	0.087937966
48	0x3de0178a	0.1094199
49	0xbe68fecc	-0.22753447
50	0x3deeff15	0.11669747
51	0xbdb92556	-0.090403244
52	0xbc8377a1	-0.016048254
53	0x3ddf7653	0.109112404
54	0x3e5650c3	0.20929246
55	0x3dfcf0b2	0.123505965
56	0xbdfc381b	-0.12315389
57	0xbe2d2969	-0.16910328
58	0x3e032abf	0.12809275
59	0x3e2590c6	0.16168508
60	0xbd8ada2d	-0.06779895
61	0x3e48f8a4	0.19626099
62	0x3e349a7e	0.17637059
63	0xbd8654b6	-0.06559126
64	0xbc187bae	-0.009306831
65	0xbe321798	-0.17391813
66	0xbe28a36a	-0.16468588
67	0xbdb06870	-0.0861367
68	0xbd1258db	-0.03572927
69	0x3d8b64a1	0.06806303
70	0x3dec8848	0.11549431
71	0xbb8018e5	-0.0039092177
72	0xbe1e645a	-0.15467969
73	0x3e49e81f	0.19717453
74	0x3d41899c	0.047250375
75	0xbdabe09e	-0.08392452
76	0x3e3419e0	0.17587996
77	0x3e316523	0.17323737
78	0x3dcd38a0	0.10020566
79	0xbddb9e0d	-0.10723505
80	0xbdc50bb1	-0.096213706
81	0x3de5b560	0.11216235
82	0xbe122874	-0.14273244
83	0xbd9023bd	-0.070380665
84	0x3e1275c4	0.14302737
85	0xbe323fc7	-0.17407142
86	0x3e1e38f1	0.15451409
87	0xbe15fe09	-0.14647688
88	0xbe16fc4d	-0.14744683
89	0x3d84dfca	0.06487997
90	0xbd36abe8	-0.044597536
91	0xbe4cc49c	-0.19996876
92	0x3dc7c27e	0.09753893
93	0x3e5bbe9a	0.21459427
94	0x3e505859	0.20346202
95	0x3dca5532	0.09879531
96	0x3d64fed4	0.055907086
97	0xbd21ea7f	-0.039530274
98	0x3e1ac53e	0.15114304
99	0x3dd9d936	0.10637133
100	0xbe1fff28	-0.15624678
101	0x3e32a0a1	0.17444088
102	0xbb9a7b75	-0.0047144243
103	0x3b8d4d53	0.0043121963
104	0xbe57c94c	-0.21072882
105	0x3bca7b86	0.006179276
106	0x3d3e627f	0.046480652
107	0x3db6fda7	0.08935099
108	0xbbed670a	-0.007244949
109	0xbb6365d1	-0.0034698138
110	0xbd62b2c4	-0.055346265
111	0xbe0d1f16	-0.1378139
112	0xbd5b7761	-0.053580645
113	0x3e064a31	0.1311424
114	0xbd7f5687	-0.06233838
115	0x3ce34c47	0.027746333
116	0x3e1abed4	0.15111858
117	0x3e033e86	0.1281682
118	0x3e7e803a	0.24853602
119	0x3e319706	0.17342767
120	0xbe89ea3e	-0.26936525
121	0xbd3dd9f0	-0.04635042
122	0xbe0e8c3d	-0.13920684
123	0xbb83c75f	-0.0040215696
124	0x3e553768	0.20821917
125	0x3e5ff4d2	0.21870735
126	0x3deda8b1	0.11604441
127	0x3d370774	0.044684842
128	0x3e17db7a	0.14829817
129	0x3cc6fad7	0.024289532
130	0x3e58bbba	0.21165362
131	0xbda2d929	-0.07951576
132	0xbd62d6b6	-0.055380546
133	0x3dcfd79c	0.10148546
134	0x3e44706d	0.19183512
135	0x3e114ec5	0.14190204
136	0xbe05950a	-0.13045135
137	0xbdd2ff1c	-0.103025645
138	0xbdb13e91	-0.08654512
139	0xbde95999	-0.113940425
140	0xbe38448a	-0.17994896
141	0xbdd398b0	-0.10331857
142	0x3e89801b	0.2685555
143	0x3c060e74	0.008182157
144	0xbde6b7ee	-0.112655506
145	0x3ddcdb54	0.10784021
146	0xbd93c9a7	-0.072161965
147	0x3d2f5081	0.042801384
148	0xbdfc244b	-0.1231161
149	0x3e22b7bd	0.15890403
150	0x3de6e06a	0.11273272
151	0x3e037abe	0.12839791
152	0xbe31c08f	-0.17358612
153	0xbe05e237	-0.13074575
154	0x3d8766ce	0.06611405
155	0x3e144696	0.14480051
156	0x3e070797	0.13186489
157	0xbe5d8f71	-0.2163675
158	0xbdb2d20d	-0.0873147
159	0xbcb27d2e	-0.021788206
160	0x3da2fa17	0.07957857
161	0x3dc30807	0.095230155
162	0xbe3960fc	-0.18103403
163	0xbd40a50a	-0.047032394
164	0xbe1b5818	-0.15170324
165	0xbe350f46	-0.17681608
166	0xbd2b9533	-0.041890334
167	0xbc009692	-0.007848399
168	0x3c71585c	0.014730539
169	0xbd5d0185	-0.053956527
170	0xbe5a027b	-0.21290009
171	0xbe4b1e87	-0.19835864
172	0xbd12d997	-0.03585204
173	0xbe26a3cd	-0.16273423
174	0x3e103eba	0.14086428
175	0xbd2fc6eb	-0.042914312
176	0x3d80cc92	0.06289019
177	0x3ce500ce	0.027954485
178	0x3e174e72	0.14776018
179	0xbe21952f	-0.15779565
180	0x3e098083	0.1342793
181	0x3d520442	0.05127359
182	0x3da0e19f	0.07855534
183	0xbd9cbe2d	-0.07653461
184	0x3e1b4752	0.15163925
185	0x3cd03cf0	0.025419682
186	0x3e609159	0.21930446
187	0xbe7ff94a	-0.2499744
188	0xbe43654d	-0.19081612
189	0x3d49fee8	0.049315363
190	0x3e91c6f4	0.28472102
191	0x3dd6a568	0.104807675
192	0x3cc81a0b	0.02442648
193	0x3dd17ed5	0.102292694
194	0xbdcfa555	-0.101389565
195	0xbde69753	-0.112593316
196	0xbe124322	-0.14283422
197	0x3e6585ea	0.22414365
198	0xbdbcb300	-0.09213829
199	0x3d50d9b8	0.050988883
200	0x3c83b009	0.016075151
201	0x3e1c9a40	0.15293217
202	0x3cb873f7	0.022516234
203	0x3d187db7	0.037229266
204	0xbe53b5ac	-0.20674771
205	0x3e22ee0b	0.15911119
206	0xbe317ebf	-0.17333506
207	0x3c991447	0.018686427
208	0xbe026373	-0.1273325
209	0x3e90209e	0.28149885
210	0x3da6a50d	0.0813695
211	0xbe573c5b	-0.21019118
212	0xbdb31d0d	-0.08745775
213	0xbe1fd8f2	-0.15610102
214	0xbe2ba5dd	-0.1676249
215	0x3d5be634	0.053686336
216	0x3e8dd4c7	0.277014
217	0xbda044cc	-0.07825622
218	0xbe0e4739	-0.13894357
219	0x3e00f0ec	0.12591904
220	0x3e845e2c	0.25853097
221	0x3e1a36d8	0.15059984
222	0xbe0dfb04	-0.13865286
223	0xbe29b584	-0.16573149
224	0x3e18f213	0.14936094
225	0xbd82473d	-0.06361244
226	0xbe401c7d	-0.18760867
227	0x3de9b11e	0.114107355
228	0xbd14e6ac	-0.0363528
229	0xbdeefc94	-0.11669269
230	0x3d8c69d1	0.068561204
231	0xbe23ec63	-0.16008143
232	0x3d1b0549	0.037846837
233	0x3da72527	0.08161383
234	0x3de137f9	0.10997004
235	0x3defa5b5	0.11701528
236	0x3dd766ed	0.105176784
237	0x3e5443e7	0.20729028
238	0x3dc8dfce	0.09808312
239	0xbe0fdd0d	-0.14049168
240	0x3e160e0a	0.14653793
241	0xbe4698c7	-0.19394217
242	0x3dd0fbd0	0.102042794
243	0xbdf28bae	-0.11843048
244	0x3d6aa80a	0.05728916
245	0xbe1789c3	-0.14798646
246	0x3d40e954	0.04709752
247	0xbda8bbcd	-0.08238945
248	0x3da08b0f	0.07839023
249	0xbd1a33a5	-0.03764691
250	0xbe14f136	-0.1454514
251	0xbd9f4119	-0.07776088
252	0xbc3fd180	-0.011707664
253	0xbd8b4706	-0.06800656
254	0xbcfff41c	-0.03124433
255	0x3e397304	0.18110281

sequential/dense_5/MatMul;sequential/dense_5/Relu;sequential/dense_5/BiasAdd f4 [96]
0	0x3e58404e	0.2111828
1	0x3f11caa7	0.5694985
2	0xbe11dffe	-0.14245602
3	0x3d5e6103	0.054291736
4	0xbef368f3	-0.47541007
5	0xbe108e96	-0.14116892
6	0x3e665648	0.22493851
7	0xbe9951da	-0.2994526
8	0x3f8b5273	1.0884537
9	0x3eb028e7	0.34406206
10	0xbdea3ee4	-0.11437777
11	0x3f1b2f5b	0.60619134
12	0xbf22d441	-0.63605124
13	0xbee317be	-0.4435405
14	0xbf11525b	-0.5676629
15	0x3f9f73e9	1.2457248
16	0xbe786f6b	-0.24261253
17	0xbf7403d2	-0.9531833
18	0x3fa0e100	1.2568665
19	0x3fe96e34	1.8236756
20	0xbe412ecd	-0.1886551
21	0xbf33cacd	-0.70231324
22	0xbf55c5a3	-0.83504695
23	0xbf9a96d8	-1.2077284
24	0x3e85ba61	0.26118758
25	0x3f839e38	1.028266
26	0x3fa51348	1.2896509
27	0x3f47e6d9	0.7808662
28	0x3f7f67c5	0.99767715
29	0x3f0b5e3d	0.5444067
30	0x3e82fb06	0.2558214
31	0x3e5a2503	0.21303181
32	0xbf2773c6	-0.6541103
33	0x3fcbb78f	1.5915393
34	0x3f87f055	1.0620219
35	0xbef287c5	-0.4736921
36	0x3f3f67fd	0.7476805
37	0x3fb9c21f	1.4512366
38	0xbe728836	-0.23684773
39	0xbfb08ea0	-1.3793526
40	0x3f74ca90	0.95621586
41	0x3f316e3a	0.6930882
42	0xbe923bcf	-0.28561255
43	0x3dce01a8	0.1005891
44	0xbf1b5dba	-0.6068989
45	0x3f2725a3	0.65291804
46	0x3f6c2ee9	0.9225908
47	0x3cfa9aa5	0.030591318
48	0x3e3d345f	0.18477009
49	0x3da2879c	0.07936022
50	0x3e9e8827	0.3096325
51	0xbed78b2b	-0.42098364
52	0x3f7ea7d2	0.99474823
53	0x3f15de40	0.5854225
54	0xbefc73b2	-0.4930702
55	0x3fc577a0	1.5427132
56	0xbf8862f0	-1.0655193
57	0x3f0544fe	0.520584
58	0xbe8bb8ff	-0.27289578
59	0x3f54e735	0.83165294
60	0x3ed49eac	0.41527307
61	0xbe4aaaba	-0.1979169
62	0x3f2712e7	0.6526322
63	0x3f602028	0.87549067
64	0xbf759e79	-0.95944935
65	0x3e28db28	0.16489851
66	0xbe960171	-0.29297975
67	0x3fa5b482	1.2945712
68	0x3e229a17	0.15879093
69	0x3e497af4	0.19675809
70	0x3f09234e	0.53569496
71	0xbe5ed6b7	-0.21761595
72	0x3e7882e0	0.24268675
73	0x3ef3769d	0.47551432
74	0x3f478f01	0.7795258
75	0xbe359e32	-0.17736128
76	0x3f91416a	1.1348088
77	0x3fa3f9bb	1.2810587
78	0xbefb8759	-0.491267
79	0xbe8e31fe	-0.27772516
80	0xbe9dd1bb	-0.30824074
81	0xbe826a01	-0.254715
82	0xbe1c185a	-0.15243664
83	0x3d81cb22	0.06337573
84	0xbfb6a20b	-1.4268202
85	0xbbdbe052	-0.0067100907
86	0xbe690da4	-0.2275911
87	0x3f5e2dbb	0.8678853
88	0x3f727b6a	0.94719565
89	0xbeac6327	-0.33669397
90	0x3ea715fb	0.32633957
91	0x3fbbe341	1.4678727
92	0xbe46dcd6	-0.1942018
93	0xbfa10ee9	-1.2582675
94	0xbf8e86c5	-1.1134878
95	0xbe82a3bf	-0.25515553

sequential/batch_normalization_4/batchnorm/mul_1;sequential/batch_normalization_4/batchnorm/add_1;sequential/dense_5/MatMul;sequential/dense_5/Relu;sequential/dense_5/BiasAdd f4 [96, 96]
0	0x3d5ae19d	0.053437818
1	0xbd7e3a5a	-0.062067367
2	0xbdfa017b	-0.122073136
3	0xbd67da2c	-0.05660455
4	0x3ad16d88	0.0015978077
5	0xbdef1623	-0.11674144
6	0xbd252d22	-0.040326245
7	0x3e0e2042	0.13879493
8	0xbe171c10	-0.14756799
9	0xbd392954	-0.04520543
10	0x3e065986	0.13120088
11	0x3d97323c	0.07382628
12	0x3c77a6ad	0.015115422
13	0xbe0c9cc0	-0.1373167
14	0xbd021a43	-0.031763326
15	0x3d4c7460	0.04991567
16	0x3cef9791	0.029247077
17	0x3cfd2b05	0.030904302
18	0xbe199925	-0.14999826
19	0xbd5c74df	-0.053822394
20	0xbd8d2096	-0.06890981
21	0xbd728a86	-0.059214137
22	0xbc2bfabc	-0.010496791
23	0xbd89c2e6	-0.06726627
24	0xbd0f0532	-0.034917064
25	0xbe25a13c	-0.16174787
26	0x3daa5800	0.08317566
27	0xbe22ece4	-0.15910679
28	0x3e1cf137	0.15326391
29	0xbe1cf495	-0.15327676
30	0x3dda345d	0.10654519
31	0xbca139b8	-0.019680843
32	0x3d7f2fb0	0.062301338
33	0xbdef2793	-0.1167747
34	0xbcea791f	-0.028622208
35	0x3d9dfdb7	0.07714408
36	0x3e247baa	0.16062799
37	0xbd57f0c2	-0.05271984
38	0x3dff1bf7	0.12456506
39	0xbd11dc0c	-0.035610244
40	0x3d68fd25	0.056882042
41	0xbe1fcede	-0.15606257
42	0x3e4354ab	0.19075267
43	0x3d82308d	0.063569166
44	0x3da0c526	0.07850103
45	0x3e2ebb8a	0.17063728
46	0xbe0c3cd1	-0.13695075
47	0x3dc5623c	0.09637877
48	0xbe154f0b	-0.14580934
49	0xbe160ea9	-0.1465403
50	0xbd6e6163	-0.058198344
51	0xbcd16af9	-0.025563704
52	0xbbbc19ed	-0.0057403953
53	0xbdf024a9	-0.11725742
54	0x3e42c0db	0.19018881
55	0xbe1f93b5	-0.1558369
56	0x3d1b73ca	0.037952222
57	0x3de8e157	0.11371105
58	0xbd2cc4cc	-0.042179868
59	0xbe142b53	-0.14469652
60	0x3d76f0f5	0.06028839
61	0x3e5f4ecb	0.21807401
62	0xbddef09f	-0.108857386
63	0xbe897760	-0.26848888
64	0xbe0d9488	-0.13826191
65	0x3e45a288	0.19300282
66	0xbdd0a1f8	-0.10187143
67	0x3e2e2624	0.17006737
68	0xbd393c4b	-0.045223515
69	0x39d2b42c	0.0004018856
70	0xbe1f9279	-0.15583219
71	0xbbd2d39f	-0.0064339186
72	0x3d2f9f59	0.042876575
73	0xbdfdaa7c	-0.12386033
74	0x3e219db5	0.15782817
75	0x3e2e2764	0.17007214
76	0x3d6b4aaf	0.05744427
77	0x3dbd962e	0.0925716
78	0xbe2c6c71	-0.16838242
79	0x3bda7c2a	0.0066676335
80	0x3e0d03ed	0.13771029
81	0x3c4cd23b	0.012501295
82	0xbc97d647	-0.018534793
83	0x3b226641	0.0024780186
84	0x3e60ee16	0.21965823
85	0x3ce0dbde	0.02744859
86	0xbd73b558	-0.059499115
87	0xbe31073b	-0.17287914
88	0x3bfd3444	0.007727178
89	0x3ce2fcce	0.027708437
90	0x3e277ea1	0.16356899
91	0x3e3f4842	0.18679908
92	0x3dba4fac	0.090972275
93	0x3d2d0022	0.042236455
94	0xbd72e1e4	-0.059297457
95	0xbdc34ca5	-0.09536103
96	0xbd98b343	-0.074560665
97	0xbe1405e8	-0.14455378
98	0xbd73d7ba	-0.059531905
99	0xbe06249c	-0.13099903
100	0xbe5446e9	-0.20730175
101	0x3d440051	0.047851864
102	0xbcb6ee30	-0.022330374
103	0x3d0e8cda	0.034802295
104	0xbd209f60	-0.03921449
105	0xbda05e17	-0.07830446
106	0x3de7a4c1	0.11310721
107	0xbb68a9f2	-0.0035501686
108	0x3e3c40a0	0.18384027
109	0x3d383938	0.044976443
110	0x3e034e75	0.12822898
111	0xbe390027	-0.18066464
112	0xbe4c3ee3	-0.19945864
113	0xbe1cf228	-0.1532675
114	0xbd925bf4	-0.07146445
115	0x3d610e61	0.054945353
116	0xbe1042c9	-0.14087977
117	0xbdf119f5	-0.11772529
118	0x3d947fbb	0.07250925
119	0x3d9a8b2b	0.075460754
120	0x3d82e560	0.06391406
121	0x3e15700f	0.14593528
122	0xbdc92eaf	-0.09823357
123	0xbe5620bd	-0.20910926
124	0x3d2715f5	0.040792424
125	0xbe56cb16	-0.20975909
126	0x3dcb2668	0.09919435
127	0xbe2c3820	-0.16818285
128	0xbe2889c3	-0.16458802
129	0xbce5a98e	-0.028034952
130	0x3d4ffc83	0.050777923
131	0x3d90af6f	0.07064711
132	0xbdacb3fe	-0.08432768
133	0xbdf586d8	-0.1198861
134	0xbd80bf4c	-0.06286487
135	0xbd82638c	-0.06366643
136	0xbda397c7	-0.079879336
137	0x3e01d012	0.12677029
138	0x3db21b75	0.08696643
139	0xbe03d61f	-0.1287465
140	0xbde0279d	-0.10945056
141	0xbdb7ffa9	-0.0898431
142	0x3e155269	0.14582218
143	0xbcb1bab2	-0.021695469
144	0xbe5e2099	-0.21692123
145	0x3c8d2675	0.017230252
146	0x3d7ae2a7	0.06125131
147	0x3dbccc26	0.09218626
148	0x3d5f4177	0.05450579
149	0xbd4628ab	-0.048378628
150	0x3c3d1281	0.011540056
151	0x3e55302a	0.20819154
152	0x3d981c6e	0.074272975
153	0xbd5ca66a	-0.053869642
154	0x3d44757e	0.04796361
155	0xbdb5672f	-0.08857571
156	0x3ded1d8d	0.11577902
157	0xbd515aba	-0.051111914
158	0x3d1093df	0.03529727
159	0xbaa83116	-0.0012832012
160	0xbe0168dd	-0.12637658
161	0xbd038b00	-0.032114983
162	0x3dc83f9d	0.09777758
163	0x3e0f7932	0.14011076
164	0x3cdcf4e6	0.026972245
165	0xbe02030d	-0.12696476
166	0x3df5bf44	0.11999372
167	0x3d84c56c	0.06482968
168	0x3d560990	0.052255213
169	0x3da6fa47	0.08153205
170	0xbd887953	-0.06663766
171	0xbd41dfcf	-0.04733258
172	0xbace4589	-0.0015737276
173	0xbc778c95	-0.015109201
174	0xbd348323	-0.044070374
175	0xbe24af5e	-0.16082522
176	0x3dc32b88	0.09529787
177	0xbd6aba81	-0.05730677
178	0xbdde2fe1	-0.10848976
179	0xbae31b49	-0.0017326857
180	0x3a91facc	0.0011137365
181	0x3d5ce90a	0.05393318
182	0x3e12281a	0.1427311
183	0x3d66a7b6	0.056312285
184	0x3daa7371	0.083228
185	0xbe526524	-0.20546395
186	0x3df98a7e	0.121846184
187	0x3dc128b4	0.09431592
188	0x3dfb034a	0.12256487
189	0x3d6e5c4f	0.0581935
190	0xbcd62364	-0.026139922
191	0x3d05c7cf	0.032661255
192	0xbd82ab2a	-0.06380303
193	0x3df83e88	0.12121302
194	0xbe13d98a	-0.14438453
195	0x3e42bf36	0.19018254
196	0xbd663a1c	-0.05620776
197	0x3e0c2b01	0.1368828
198	0xbe070e48	-0.13189042
199	0x3d297a92	0.041376658
200	0xbdd4d79c	-0.10392687
201	0xbd81cfbb	-0.063384496
202	0xbc11eb35	-0.008906175
203	0x3d54e2a8	0.05197397
204	0xbd435099	-0.047684286
205	0x3c84f393	0.016229426
206	0xbc8d484d	-0.01724639
207	0x3d89a1a7	0.06720286
208	0xbe86f1e8	-0.26356435
209	0xbd140f63	-0.036147486
210	0x3de77ef2	0.1130351
211	0x3d105238	0.03523466
212	0xbd4aecf2	-0.049542375
213	0x3cca6a34	0.024708845
214	0xbae74c70	-0.0017646682
215	0xbda976fe	-0.08274649
216	0x3daa92b8	0.08328766
217	0x3d1e23f0	0.03860849
218	0xbca4a5b4	-0.020098545
219	0x3e352705	0.17690666
220	0x3d309f1b	0.043120485
221	0xbd2ce69d	-0.042212117
222	0x3d0d25ed	0.034459997
223	0xbdb6518c	-0.089022726
224	0x3e1b081c	0.15139812
225	0xbe42b333	-0.19013672
226	0x3d34ee48	0.044172555
227	0xbcbb89d3	-0.022892868
228	0x3dfc9d3d	0.12334678
229	0x3e2c503e	0.16827485
230	0xbda6b6aa	-0.08140309
231	0xbd5e704d	-0.054306317
232	0xbde642c9	-0.11243207
233	0x3d19a51b	0.037510972
234	0xbdace5e1	-0.084422834
235	0xbdb387d9	-0.08766145
236	0x3cb4b810	0.022060424
237	0xbd6de6dd	-0.058081497
238	0x3d09d7e1	0.033653144
239	0xbd0d3a13	-0.034479212
240	0xbd911110	-0.070833325
241	0x3e18e159	0.14929713
242	0xbddd506c	-0.10806355
243	0xbdd65b8b	-0.10466679
244	0xbc1fede8	-0.009761311
245	0x3e258868	0.16165316
246	0x3d3006d7	0.042975273
247	0xbd2e055c	-0.04248558
248	0x3e44ca0e	0.19217703
249	0x3db993cd	0.09061394
250	0xbdd11fa4	-0.10211113
251	0xbd866006	-0.06561284
252	0x3e1cd177	0.1531428
253	0xbe137697	-0.14400707
254	0x3d313c87	0.043270614
255	0xbe604ed9	-0.21905078

sequential/dense_6/MatMul;sequential/dense_6/BiasAdd f4 [27]
0	0xc00a8bda	-2.1647859
1	0xc05b29b6	-3.4244208
2	0xc090626f	-4.512016
3	0xc08d4016	-4.414073
4	0xc0e9a7c7	-7.3017306
5	0xc0b3b55c	-5.6158886
6	0xc0b8bed9	-5.773297
7	0xc0b136fd	-5.5379624
8	0xc0b4e5e6	-5.653064
9	0xc055ad65	-3.3387082
10	0xc0b2f4ac	-5.592367
11	0xc01aa8c2	-2.4165502
12	0xc09642b0	-4.6956406
13	0xc0a44e6b	-5.1345725
14	0xc0907caf	-4.51522
15	0xc080a1f8	-4.0197716
16	0xc06ce165	-3.701257
17	0xbfe67378	-1.8003988
18	0xc02b5995	-2.6773427
19	0xc03e6f65	-2.975549
20	0xc0a212e2	-5.064805
21	0xc0a90339	-5.2816434
22	0xc0c41375	-6.127375
23	0xc0b39dd3	-5.6130157
24	0xc070ac17	-3.7605035
25	0xc0b8d2a3	-5.7757125
26	0xc080d390	-4.0258255
