BirdNet_Trained_Model/trained_model_classifiers/Custom_Classifier12.tflite (tflite, 111776 bytes, 2 tensors)

sequential/dense/BiasAdd/ReadVariableOp f4 [27]
-0.044821907 -0.039327305 -0.074970946 -0.07117105 -0.60040754 -0.09003387 -0.16739747 -0.20689018
-0.115781926 -0.005301008 -0.18168278 -0.08604728 -0.22599398 -0.14822821 -0.10024578 -0.028241789
-0.03239602 -0.08099707 -0.10726131 -0.10071468 -0.08654393 -0.16131042 -0.17386976 -0.16714299
-0.053071134 -0.09177217 -0.11201805
00000000: 2d97 37bd ab15 21bd 5e8a 99bd 21c2 91bd
00000010: 4fb4 19bf ad63 b8bd 3e6a 2bbe 05db 53be
00000020: 131f edbd 14b4 adbb 0d0b 3abe 8e39 b0bd
00000030: f76a 67be 23c9 17be a94d cdbd 535b e7bc
00000040: b0b1 04bd cbe1 a5bd d1ab dbbd 8043 cebd
00000050: f23d b1bd 8f2e 25be ea0a 32be 8827 2bbe
00000060: 1e61 59bd 0cf3 bbbd b869 e5bd

sequential/dense/MatMul f4 [27, 1024]
0.12970443 0.3341509 0.18643269 0.07192188 -0.728821 -0.7571763 0.1586833 -1.088352
0.64239705 0.09689637 0.038789164 -3.5336778 0.64154196 -0.02122671 -0.31059375 1.0618318
-0.7098276 -0.88594174 -0.26148397 0.018991163 0.9501915 1.077672 0.9128227 -0.42522722
-0.43600762 0.2485269 -0.19612488 0.10412939 2.8298326 -0.27977502 0.59633327 0.69456905
0.64341587 0.014107776 -0.69688743 -0.25651956 -0.6931587 3.2668622 -1.0477974 0.78794587
-0.102670915 0.16908053 -5.207883 -0.23698424 -0.3710629 -1.055209 1.3973904 1.0582837
-3.8655407 -0.016499704 0.13206 0.6140322 -1.7991495 0.45537382 2.624341 0.25730115
-1.6466872 -0.8788505 0.12881756 -1.7309214 1.4716493 -0.3831228 -0.0068886145 0.44287875
-1.4449272 -0.33474153 0.95505756 0.9197994 -0.5432435 -0.6540883 -1.2841277 0.41532594
-0.38409188 2.0213284 0.5828821 0.8889092 -4.241508 0.17469543 0.72089094 0.27246568
-3.19843 -0.3568149 -1.7544326 0.10981293 3.730986 -0.756235 -0.6283876 -1.1565812
1.4752957 -0.31323445 -1.2567267 -2.585542 -0.41741896 0.54369277 0.031443022 1.5568078
0.41936013 0.5018373 -0.82086736 0.5579127 0.020117152 -1.1965809 -0.023479242 -0.7059292
-0.11076734 0.3131406 -0.3923601 -0.4597764 0.094551034 -0.9155859 -1.8331085 -0.39401236
-0.6026539 0.3313164 0.1947641 -2.7605603 -0.21184541 1.1336983 -0.628071 -0.18392411
0.05710132 -0.051002942 -0.54498714 0.0101379985 -2.6134694 -0.7975216 3.3914483 0.67597115
-0.8808123 1.6509215 0.7938018 -1.6699947 1.1566796 -1.7883538 1.1010396 -0.58639544
-1.0721649 0.39345545 -1.7868342 -0.07353617 0.16015492 -1.1844772 -2.0552554 -3.119837
0.07954887 0.21572942 -1.3417969 -0.5734225 -0.013226807 0.92559975 0.34963804 2.2642446
1.1754887 0.6212478 0.61390233 -0.3957783 -0.3768945 -0.5621154 0.18897948 -0.15260752
-1.8258941 -0.8984288 -0.33594137 -2.7901495 0.729162 -0.7536437 0.021177985 0.29658353
-0.640001 0.7696222 -1.5718728 -1.7079548 1.208267 0.19781724 0.3020665 -0.18289904
-0.29210198 -1.0087215 -1.0297948 0.05438659 -0.91606414 -1.5848023 1.2402668 0.2531913
0.0954618 1.9962828 -1.2838143 -0.15479787 -1.2124352 3.0814555 -2.2578971 4.4709597
-1.3519951 0.6011321 0.28514394 0.7801909 0.7984256 -1.4564524 -2.005631 -0.94249886
0.037671525 0.7753177 -0.046830133 0.048283163 2.2676682 -0.113567784 0.019873846 -1.510175
-0.6613123 -0.0003507458 -0.07136948 1.1206286 -1.8295252 2.3134902 1.1103914 -1.4154189
0.13239415 -1.1301719 0.49049684 0.17218067 -0.91687316 0.21470511 -0.34051383 0.22606495
1.2658541 0.10712228 -0.48500827 -0.7005777 1.4220344 0.06567706 -0.82652503 0.5180155
-0.86584663 -2.2995455 0.53754276 0.39649707 -0.32291523 0.02175565 -1.0280182 1.6180415
0.08731178 0.9178483 0.10230239 -0.07836939 -0.9779683 0.045969076 -0.017860292 -0.0009281801
-0.9228731 2.0093262 0.3695029 -0.004128142 -3.997537 -0.19529217 -0.6720096 0.48446873
00000000: 3dd1 043e d415 ab3e 36e8 3e3e c74b 933d
00000010: 0394 3abf 4ed6 41bf e07d 223e 1e4f 8bbf
00000020: 2274 243f 9b71 c63d 63e1 1e3d c727 62c0
00000030: 183c 243f a3e3 adbc 2506 9fbe 1bea 873f
00000040: 43b7 35bf 14cd 62bf 3ae1 85be 5b93 9b3c
00000050: c03f 733f 28f1 893f c0ae 693f 62b7 d9be
00000060: 643c dfbe d67d 7e3e f6d4 48be ca41 d53d
00000070: fa1b 3540 ac3e 8fbe 4ca9 183f 47cf 313f
00000080: e7b6 243f 4d24 673c 3767 32bf 8856 83be
00000090: d972 31bf 4514 5140 3a1e 86bf d2b6 493f
000000a0: 2145 d2bd 7223 2d3e faa6 a6c0 ffab 72be
000000b0: f5fb bdbe 1711 87bf b0dd b23f d775 873f
000000c0: 0565 77c0 632a 87bc bd3a 073e 3731 1d3f
000000d0: 884a e6bf c226 e93e 34f5 2740 fabc 833e
000000e0: a5c6 d2bf 59fc 60bf c0e8 033e d58e ddbf
000000f0: 015f bc3f ac28 c4be e3b9 e1bb 01c1 e23e
00000100: 60f3 b8bf 3e63 abbe a77e 743f f977 6b3f
00000110: 0212 0bbf 5572 27bf 4c5e a4bf 9aa5 d43e
00000120: b1a7 c4be 725d 0140 c337 153f 8e8f 633f
00000130: 6fba 87c0 5ce3 323e 4f8c 383f 9f80 8b3e
00000140: 14b3 4cc0 71b0 b6be 3f91 e0bf 9ae5 e03d
00000150: 7ac8 6e40 9e98 41bf 02de 20bf da0a 94bf
00000160: 7dd6 bc3f 4460 a0be 6cdc a0bf 8579 25c0
00000170: f0b7 d5be 732f 0b3f 66ca 003d 7a45 c73f
00000180: 5fb6 d63e 6978 003f 5d24 52bf 5ed3 0e3f
00000190: bacc a43c 9029 99bf 8a57 c0bc c7b7 34bf
000001a0: fdd9 e2bd f753 a03e 6ce3 c8be d067 ebbe
000001b0: f9a3 c13d d663 6abf 4da3 eabf fdbb c9be
000001c0: 8747 1abf 4ea2 a93e 3d70 473e 05ad 30c0
000001d0: 01ee 58be 071d 913f 43c9 20bf 9a56 3cbe
000001e0: 13e3 693d 76e8 50bd 4784 0bbf d919 263c
000001f0: 1543 27c0 602a 4cbf 7d0d 5940 720c 2d3f
00000200: ea7c 61bf 6551 d33f 9836 4b3f 63c2 d5bf
00000210: 140e 943f c7e8 e4bf deee 8c3f 031e 16bf
00000220: b33c 89bf fe72 c93e fcb6 e4bf 229a 96bd
00000230: a7ff 233e f39c 97bf 4e89 03c0 69ab 47c0
00000240: 85ea a23d 2ce8 5c3e 00c0 abbf d1cb 12bf
00000250: 40b5 58bc 1bf4 6c3f c203 b33e 62e9 1040
00000260: 6a76 963f 190a 1f3f b428 1d3f 74a3 cabe
00000270: 51f8 c0be cbe6 0fbf d683 413e 2545 1cbe
00000280: e6b6 e9bf 6eff 65bf 8200 acbe cf91 32c0
00000290: 5caa 3a3f cbee 40bf 747d ad3c ccd9 973e
000002a0: 1bd7 23bf f605 453f 2133 c9bf 439e dabf
000002b0: 7ea8 9a3f 9a90 4a3e 76a8 9a3e e349 3bbe
000002c0: 648e 95be c91d 81bf 51d0 83bf 79c4 5e3d
000002d0: 2e83 6abf cdda cabf 10c1 9e3f 4aa2 813e
000002e0: 7a81 c33d 3286 ff3f 0754 a4bf 5583 1ebe
000002f0: 1431 9bbf 9136 4540 6381 10c0 1a12 8f40
00000300: 2d0e adbf cbe3 193f 63fe 913e 97ba 473f
00000310: 9f65 4c3f 086d babf 425c 00c0 9b47 71bf
00000320: 754d 1a3d 397b 463f f4d0 3fbd 91c4 453d
00000330: 7a21 1140 3a96 e8bd 7ace a23c 6a4d c1bf
00000340: c34b 29bf 4ee4 b7b9 292a 92bd c270 8f3f
00000350: e22d eabf 3910 1440 4e21 8e3f 722c b5bf
00000360: 5592 073e 79a9 90bf 6722 fb3e 2150 303e
00000370: 33b8 6abf a8db 5b3e d457 aebe 927d 673e
00000380: 8207 a23f ed62 db3d 0153 f8be 0f59 33bf
00000390: 3905 b63f b281 863d 2597 53bf aa9c 043f
000003a0: 20a8 5dbf c12b 13c0 679c 093f aa01 cb3e
000003b0: 2555 a5be e838 b23c 1a96 83bf fc1b cf3f
000003c0: 85d0 b23d 1bf8 6a3f ea83 d13d 2180 a0bd
000003d0: 215c 7abf 124a 3c3d bf4f 92bc 1d51 73ba
000003e0: 6941 6cbf cd98 0040 7c2f bd3e 5d45 87bb
000003f0: a5d7 7fc0 acfa 47be d208 2cbf 490c f83e
