BirdNet_Trained_Model/trained_model_classifiers/Custom_Classifier18.tflite (tflite, 595344 bytes, 14 tensors)

sequential/dense_1/MatMul;sequential/dense_1/Relu;sequential/dense_1/BiasAdd f4 [96]
00000000: 4af9 8d3f 705b b73f e105 da3f 360c 58c0
00000010: 7768 b33f 5c6c d1bf a550 833e 40e9 813e
00000020: 9ede d2bf 5042 86bf ed15 02bf 99cc 0640
00000030: b86e e23f 1329 ce3f e0d8 7c3f 06a2 bf3f
00000040: fe81 9b3f 7f26 2c3f 534e 0540 37ca 2ac0
00000050: f8c5 5fc0 97b3 6f3e 61e0 783d 7178 bc3e
00000060: 2e14 c23f e4a8 cebe c8f2 97bf 586e fe3f
00000070: e3b4 d83e 062c fd3f 3b05 a640 7d8f d73f
00000080: 82eb 6a3f 25f2 083f 2253 aa3e 0aa9 67be
00000090: ff25 e6bf 05af 8340 cf3a 873f e9fb cc3f
000000a0: 68d2 b940 34d8 2bc0 5353 ff3f e92b a63f
000000b0: 2ffe e9be 74f4 6e40 2924 1b3f 92b4 91bf
000000c0: e771 0e3f 0ad9 09bf 3d63 8ebf 7b9c 9a3f
000000d0: 2f10 5a3d 27f8 8c40 fd59 1c3f 3157 34c0
000000e0: d2cb 0240 70d4 873f 7945 0040 d4e4 03c0
000000f0: 3870 0cc0 23be 053f 7226 93be 1318 21c0
00000100: cde3 843f dced 5340 6395 b3bf 5805 fdbf
00000110: a871 c43f 5130 46c0 0b94 493f 55d6 10c0
00000120: 34ce 0abf e837 a4bf 18e2 5cbd 35bb 29be
00000130: 8db7 e73f 0370 953f 67c1 8fbe 6fbc 1fbf
00000140: 573e 3fc0 47f1 dbbf d37e 66be 6985 1bc0
00000150: 26ae 873f 931d 61bf dc35 193f 4352 bc3d
00000160: 6b8f 9d3e 6dc9 babf a612 c4bf 69bb dabe
00000170: 06d4 2f40 54fd 453f 0760 18bf 12b1 82bf
1.1091702 1.432478 1.7033044 -3.3757453 1.4016255 -1.6361194 0.25647464 0.25373268
-1.6474187 -1.0488987 -0.50814706 2.1062376 1.7690039 1.6106285 0.98768425 1.4971321
1.2149045 0.6724624 2.0829055 -2.6685922 -3.496458 0.23408352 0.06076086 0.3681064
1.5162408 -0.40363228 -1.1870966 1.9877424 0.42325506 1.977906 5.1881385 1.6840664
0.91765606 0.53494483 0.3326655 -0.22623077 -1.7980345 4.1151147 1.0564822 1.6014377
5.8069344 -2.685071 1.9947304 1.298215 -0.4570174 3.7336702 0.6060205 -1.1383231
0.5564255 -0.538468 -1.1124035 1.2079004 0.05323809 4.405292 0.6107481 -2.8178217
2.0436902 1.0611706 2.0042403 -2.0608416 -2.1943493 0.5224325 -0.2874027 -2.5170944
1.0382019 3.3113928 -1.4029964 -1.9767256 1.5347185 -3.096699 0.7874152 -2.2630818
-0.5422089 -1.2829561 -0.053926557 -0.1657532 1.810289 1.1674808 -0.28077242 -0.623969
-2.98818 -1.7183007 -0.22509317 -2.4300177 1.0600021 -0.8793575 0.5984781 0.09195378
0.30773482 -1.459272 -1.5318191 -0.42721108 2.747316 0.77339673 -0.59521526 -1.0210288

sequential/batch_normalization/batchnorm/mul_1;sequential/batch_normalization/batchnorm/add_1;sequential/dense_1/MatMul;sequential/dense_1/Relu;sequential/dense_1/BiasAdd f4 [96, 96]
00000000: 36b8 453e f93c d2be b19f 4ebe ab93 2bc0
00000010: 301f 853e 33a6 cbbe 2f3b 0a3f fd1f d3be
00000020: 2da6 52be 7f47 8cbe 221c 0440 d287 4f40
00000030: 2615 59bf a9bc 0f3e 2d47 1440 74dc 47bf
00000040: 6ef5 3dbe b93c 053e 7821 2dbd 51ad d5be
00000050: f22e 9f3c f379 a440 eca7 eabe 263b 693e
00000060: 2a68 c8bd 7c58 b43f 28af 81be 6434 5ec0
00000070: db46 b2be b918 56c0 4fb2 773e aaa4 563d
00000080: c1ae 05bf f9d2 cc3d a017 6dbe 25a4 5740
00000090: 49ac 12c0 57bd 343e 4e0d 5c40 6b6f 4fbd
000000a0: 659a d6bd 8efc d5be 9398 823e 8f47 be3e
000000b0: f8cb 0240 3688 d3bd 04b6 23c0 7f1a 913e
000000c0: dab9 0dbe 79d7 3c40 7b3f 38be 3116 5dc0
000000d0: f3f0 1ac0 b982 e73e 4f19 bbbb 3a1d 0440
000000e0: 7c96 33c0 45d3 f03f 482d 12c0 13a1 eebd
000000f0: 07dc 40be c344 3c3e 0948 0abe 8dd2 2cbd
00000100: c2e6 67c0 c548 7dbe df01 3d40 43d1 e9bf
00000110: c8cc 253e 9c4c 85bc 036e 3bbe acc8 373f
00000120: a2d8 0740 15b1 87c0 c170 d33e 9941 0f3e
00000130: 76f9 1dbd 4928 703f a77d 81bd 4601 8ebe
00000140: 2bcf 97c0 b0cb acc0 f2d2 7cc0 1d31 003f
00000150: 2962 5140 2283 86be 2d44 99be 1bda a53d
00000160: 58e5 403e 5ab4 3fbf d00c d33c fc1d 183e
00000170: cf37 3840 d261 9a40 01a4 bf3d d53f f03e
00000180: 70a7 843e 8f73 35bf eef3 ba3c 32c2 b540
00000190: 24b8 0ebe e031 a1be 5513 c0be 7f6d 053d
000001a0: 75a4 c43d cf18 933d bf82 ba3d eaf8 aec0
000001b0: a0f7 803f 4bd1 dc3d 7300 4240 3e43 95bf
000001c0: 04cf d0bd 67fa 9dbe 9efe 04bd 6cf8 b7be
000001d0: 2890 9cc0 51a0 5ac0 c54f 8ebe ace4 a3be
000001e0: 85e6 8a3e a83c 92bf 6f02 5abe 680b 79c0
000001f0: 14e0 c4bd 6017 4540 d1b2 afbe 9e4f a63e
00000200: 3d0d 0dbe 1507 70be 6875 a2bd a284 58c0
00000210: b682 20bf 1606 46be 5e0e 9ac0 4e95 383e
00000220: b85f ffbb e5dd f2bd 2d14 193e e23a a33d
00000230: f4f8 87c0 1759 3cbe 4bd0 063e e48a 58be
00000240: 33a7 4cbe c153 ccbf 4581 47bd c989 9940
00000250: 5c65 29bf f529 4a3e fcb4 7e3e 7941 8840
00000260: c18b 88c0 af85 ab3e aaf7 c1bf 904b cb3e
00000270: 0e52 ad3d 4afb 12bf 9847 1a40 a229 873e
00000280: eeb5 6040 6b68 783e 4142 febe 5da8 903f
00000290: 474d dfbd 21ae 063f c719 9a3e 4ed4 d73e
000002a0: 11ad 65bf 6caf 2440 8578 e5bc b673 9d3d
000002b0: 3315 ad3d 4c87 9340 2c1d 82bc 9714 ed3d
000002c0: 0fbc b63f 5685 a9c0 fde7 ae40 aa84 153f
000002d0: 956e 02bf 73cc ebbd 7fa7 63be 782c 97be
000002e0: b84f 923d d098 a9c0 c585 bcbd 5134 9f3e
000002f0: 29a8 54be b2b6 89bf 32cf 6cbe fff5 5340
00000300: e8e6 843c 6488 88be 9984 923d 947c 08be
00000310: bfa8 473d 035f 473e 5da9 8dbd 3060 a13e
00000320: 19f6 c13f 9bb9 74be 6e3b 6740 13d2 293f
00000330: 3d24 ec3f ea1e 64bd a2a6 a3bf b9cf 8ec0
00000340: f2ea 873e eebe d03e 9853 683d 68d8 0cbd
00000350: bfbd 41c0 5f0b 7140 e5c5 9d3e 76f4 c83e
00000360: ef1b 9bbe e735 81c0 14d9 6bbe 2d23 5140
00000370: e6ff f93e af37 10c0 68dc a7be 9a1a 6dbe
00000380: 308a e73e f576 ddbd 59c5 88be 989c ce3f
00000390: e568 e63f bc1c debe a96a d63f 1d9f adbe
000003a0: 7a62 91bd a253 2bbc e735 6dbe 7d25 67be
000003b0: cf86 6140 242a c3be 999f 8dbe a314 093e
000003c0: 3fb0 52be f0c2 6140 4742 86be 8694 25c0
000003d0: 65ca 48c0 3ac6 d2be 8c20 98be 233c 4c40
000003e0: 07eb a040 5c97 1840 a021 9d40 4d36 bebd
000003f0: aeed 1dbd f604 053f eb77 6e3e 8bdb 4a3c
0.19308552 -0.41062143 -0.20178105 -2.680888 0.26000357 -0.39775237 0.53996557 -0.41235343
-0.20571204 -0.27398297 2.064217 3.2426648 -0.84797895 0.14036812 2.3168442 -0.7807076
-0.18550655 0.13011445 -0.042268246 -0.41733792 0.019431565 5.1398864 -0.4583124 0.2277647
-0.09785493 1.4089503 -0.25328946 -3.4719477 -0.34819683 -3.345259 0.24189113 0.05240313
-0.5221978 0.10001177 -0.23153543 3.3693936 -2.2917655 0.17650352 3.438312 -0.050643366
-0.10478667 -0.41794246 0.2550703 0.3716397 2.0436993 -0.103287145 -2.5579844 0.28340527
-0.13840428 2.9506514 -0.17992966 -3.4544795 -2.4209564 0.4521692 -0.005709804 2.0642838
-2.8060598 1.8814474 -2.2840137 -0.11651816 -0.18833934 0.18385606 -0.13504042 -0.042192984
-3.6234593 -0.2473479 2.9532392 -1.8266987 0.16191399 -0.016271882 -0.18303685 0.71790576
2.1225972 -4.2403665 0.41296962 0.13989867 -0.038567983 0.9381147 -0.063227944 -0.27735347
-4.744039 -5.399864 -3.950375 0.5007494 3.2716162 -0.2627192 -0.29934826 0.08098241
0.18837488 -0.7488457 0.025762945 0.14855188 2.8784063 4.824441 0.09357453 0.469237
0.25908995 -0.70879453 0.022821393 5.6799555 -0.13937432 -0.31483364 -0.3751475 0.032575127
0.0960168 0.07182466 0.09106969 -5.467885 1.0075569 0.10782107 3.0312774 -1.1661146
-0.10195735 -0.30855104 -0.032469384 -0.35931718 -4.892597 -3.416035 -0.27795234 -0.320104
0.27128997 -1.1424761 -0.21289991 -3.8913212 -0.09613052 3.0795517 -0.34316114 0.32482618
-0.13774581 -0.23440202 -0.0793255 -3.3830953 -0.6269945 -0.19338259 -4.814254 0.18025705
-0.007793393 -0.11858729 0.14949103 0.079702154 -4.24914 -0.1839336 0.13165395 -0.21146733
-0.19985656 -1.596306 -0.048707265 4.7980695 -0.6617029 0.19742568 0.24873728 4.2579923
-4.26706 0.3350043 -1.5153706 0.39706087 0.08462916 -0.57414687 2.4106197 0.2639895
3.511104 0.24258582 -0.49659923 1.130138 -0.10903411 0.5260945 0.30097792 0.42154163
-0.89717203 2.573207 -0.02801157 0.07688086 0.08451309 4.6102657 -0.01588305 0.11576193
1.4276141 -5.2975264 5.465819 0.58405554 -0.50949985 -0.11513605 -0.22231863 -0.29526114
0.071441114 -5.299904 -0.09205202 0.31094602 -0.20767273 -1.0758879 -0.23125914 3.3118894
0.016223386 -0.26666558 0.07154197 -0.13328773 0.048744913 0.19469838 -0.06917069 0.31518698
1.5153228 -0.23898928 3.6130023 0.6633617 1.8448559 -0.055693544 -1.2785227 -4.462857
0.26546437 0.40770668 0.056720346 -0.03438607 -3.0272062 3.766319 0.30815044 0.3924901
-0.3029475 -4.03783 -0.23032027 3.267772 0.48828048 -2.2533987 -0.32785344 -0.23154679
0.45222616 -0.10813705 -0.26713064 1.6141539 1.8000761 -0.43381298 1.67513 -0.33910456
-0.07098861 -0.010456951 -0.23165093 -0.22572894 3.523853 -0.38118088 -0.27660826 0.13386779
-0.20575045 3.527523 -0.2622244 -2.5871902 -3.1373532 -0.4116686 -0.2971233 3.1911705
5.02869 2.3842382 4.9103546 -0.09287701 -0.038556747 0.51960695 0.23287933 0.012381445

sequential/dense_2/MatMul;sequential/dense_2/Relu;sequential/dense_2/BiasAdd f4 [96]
00000000: 1ada 8bbf 479b 2fbe 048d 03bd 4371 7a3f
00000010: d25e a63f 266a c63f 75ad 9f3f d992 6c3f
00000020: 8fc8 ef3e 0f8c 8abc a57f 533e 7657 aebf
00000030: 1296 e53e 3c83 d5bd 695e bdbf 116d a6bf
00000040: 178e 94be 4e69 3a3e 9319 08be 152a 51bd
00000050: 42ee 283f dedb 0c3f b679 063f ec6d c6bd
00000060: 4da1 a1bd c8db 8abe 5665 92bf 7d90 43bf
00000070: 4d0c 4b3d c84c 44be e34c 3bbf 091b 37bf
00000080: 1cec 373f 9920 913f 0d6f 8dbf 1669 e13e
00000090: bc4b 563e ce0f 2e3f f17f 03c0 a920 4a3e
000000a0: c194 86bd 4bee 273f 84ee a73f dc02 8bbf
000000b0: 9841 6d3b 8173 87bf 054d e93e eee1 77bf
000000c0: d282 50bf f5c0 2a3d 5878 d1be bd3e 713f
000000d0: b1a8 863f dca8 1a3f 80f5 24bf 7767 0fbf
000000e0: ff5a 35bf 6fb7 883e 9851 babe 7f1e ae3f
000000f0: 69de 8f3f d2a1 93be 6d7b a93e ea89 fb3c
00000100: 03c9 86bf 607b 583f 2e52 8e3e b94a f13e
00000110: 24da 3bbc b970 293f 0c12 07bf dfeb 7ebf
00000120: da95 393f 9257 d63d 5918 203f 60a8 4c3f
00000130: 9cdf 28bf 652b 443f cc11 29bf be08 b63d
00000140: 07e3 42bf ec93 dcbe ddcc 213f 058b 223e
00000150: 7fcd b63e a4ac 6d3e fd45 e63e 9254 023f
00000160: 4e89 1dbf 33d2 553f daf6 5cbf ff13 1c3e
00000170: 566d 02bf f1a2 0a3f a444 d23e ee13 6cbe
-1.0925934 -0.17149077 -0.032116905 0.97829074 1.2997687 1.5501144 1.247481 0.9241157
0.46832702 -0.016912488 0.20654161 -1.3620441 0.44841057 -0.104254216 -1.4794437 -1.3002034
-0.29014656 0.18204233 -0.13291006 -0.051065523 0.6598855 0.5502299 0.52529466 -0.09688935
-0.07892094 -0.27120805 -1.1437175 -0.76392347 0.049572278 -0.19169915 -0.73164195 -0.7152563
0.7184465 1.1338073 -1.1049515 0.44025487 0.20927328 0.67992866 -2.054684 0.19739021
-0.06571341 0.6559798 1.3119664 -1.0860248 0.0036202427 -1.0582124 0.45566574 -0.96829116
-0.81449616 0.041687924 -0.40912127 0.94236356 1.052023 0.6041391 -0.64437103 -0.5601725
-0.70841974 0.2670245 -0.36390376 1.3603057 1.1239749 -0.28834397 0.3310198 0.030705411
-1.0530094 0.84563255 0.27797073 0.4712732 -0.011465583 0.66187626 -0.5276191 -0.9957866
0.7249428 0.104659215 0.6253715 0.7994442 -0.659662 0.76628715 -0.6604278 0.08888386
-0.76127666 -0.43081605 0.6320322 0.15873344 0.35703656 0.23210388 0.44975272 0.50910294
-0.61537635 0.83523864 -0.86314166 0.15242003 -0.50948083 0.5415488 0.41067994 -0.23054478

sequential/batch_normalization_1/batchnorm/mul_1;sequential/batch_normalization_1/batchnorm/add_1;sequential/dense_2/MatMul;sequential/dense_2/Relu;sequential/dense_2/BiasAdd f4 [96, 96]
00000000: ff68 da3d 87ae 8abe 248b 2e3e e2c1 89be
00000010: 48ea b73d 9351 08be ddd4 d43d 4ada 5f3e
00000020: e358 71be b166 803e 7e37 84bd 19e4 083e
00000030: 43f5 273d 076b 893e e6a7 833e b228 fe3b
00000040: 2d37 babd c0eb 1f3d 8920 d1bb 5e6a d23d
00000050: d2d5 f2bd abce 2d3e 2e93 9bbe 3c45 d5bd
00000060: 631a 963d cb05 873d 7d1b ac3d 7fca 4cbd
00000070: 6da7 0c3e d5f9 9e3e b7f6 313e 8be2 393d
00000080: dab4 393e 3d59 703d a73c eb3c 0a50 f8bd
00000090: aadf 99bd cc70 7cbd df8e a9bc b601 84bd
000000a0: a8bb 4a3e 10f8 05be 47cb 403e ade6 16be
000000b0: 3347 9d3e ce63 8b3e e3a3 ddbd 02a5 883e
000000c0: 571c 433d 61fc 94be 3241 23be aa42 e4bc
000000d0: 74cf 27bd 8802 6cbb bb40 4a3e dd95 303e
000000e0: 3e6f 343e a188 033e f212 85be e1f3 183d
000000f0: 769d abbd 6e6c ef3d 2b58 373c 89ec 0e3e
00000100: 219c 183e dc2f c4bd 03a5 893d b652 d63c
00000110: f282 843e a2fe 943c 7e49 8d3d 4a5d e7bc
00000120: 3962 f4bc 9953 82be 0585 663d 72dc 2e3e
00000130: 4ed6 9c3e de0c 4f3e 228b 2d3e 10dd 403d
00000140: c3a0 473e c9ec 503e 3413 86bd 2f92 86be
00000150: 9f42 113e f404 7abe c3df 02be 76ba d13d
00000160: b5ce af3d 34f4 9dbe 17e7 3ebe 1a24 75be
00000170: f8c0 a73d 0b09 58be 193d 403e e374 163e
00000180: 26dd 953d 8621 0b3e 781c 52be 8aae 16be
00000190: b1d7 1b3e 0a25 193e 2fc1 19bc 5aae 243d
000001a0: 2ef6 323e efeb 443e 2d75 8ebe ae96 09bd
000001b0: 9d52 363e 5628 803e 4042 01bd 0815 a0be
000001c0: 4d72 963e 0dce 673d 37ed 86bd 6f9e e63c
000001d0: 2e54 9d3d 1f96 043e 8cdd a43c 0eb4 233e
000001e0: 3e2f 60be c85e 2f3e 6908 023e c056 ebbd
000001f0: a402 263c 4d13 80be dab3 403e 8cff 543e
00000200: d4ea c7bd a7c8 363e d2b0 043e bad3 24be
00000210: c99e 3d3e 6e2e 70bd abdf 523e 1224 0bbe
00000220: 2f8a 94be 5d28 1f3e 882f 9bbe b120 523e
00000230: 0468 43be 6afa 38be 2487 12bc d7e8 e8bd
00000240: ee5c 223e 4bbf e1bd 909a 1fbe 47ba 9bbe
00000250: 0b0f 76be 47e2 dc3d cd3c a6be e946 80bd
00000260: 85a9 4f3c c92f 83bd 8689 3abe 5be1 893e
00000270: a1df 073e 7e91 5d3e 039d 99bd 9005 283e
00000280: 2827 bbbd c0c4 77bd a037 0e3e a792 ed3d
00000290: a1d6 7a3e c97c 813e 0212 923e bf58 b6bc
000002a0: 19ce 5abe 95e8 703e 418d 47be b012 a2be
000002b0: 5758 6cbd f1a9 83be 0363 603e 553f 12bd
000002c0: c198 afbd 6fd9 d9bd 8fc9 71be 563a fd3d
000002d0: 5937 b5bb 398c 4abd c570 e43d a6e2 6b3e
000002e0: 42ff 183e 98de 9dbd 40ab 0b3d f0a2 423e
000002f0: d85a 41be 2578 5abe d13d 8b3d b029 de3d
00000300: 01fe b6bd 9b03 4a3e 378f 73bc 2a29 e7bc
00000310: 5510 d8bd e470 343e 3ea2 a5bd 3052 3ebd
00000320: c948 b6be a7fa bc3d 4292 c63d dbf5 563e
00000330: 2fe3 bdbd ecb8 21be 03d9 2bbe 3218 20be
00000340: dd26 9abc c56c 433e 2795 debd 5a26 353e
00000350: 9d13 44be b415 4e3e 2be7 453a e059 bc3d
00000360: 910a 47bd 9693 ec3c 630f 40be 72ee bb3d
00000370: ec15 80bd 8139 4c3d 2c83 f03c e3b2 7c3e
00000380: 868c d33d d1bc b1be 3387 b93d d752 5f3e
00000390: 900b d53d efe9 d33b 2521 5ebe b8ad b73d
000003a0: 4733 60be 839c f63d db56 33be cbd6 1dbd
000003b0: 9185 6e3d fbeb abbc 5b6a 3a3e eae0 6d3e
000003c0: 0290 aa3e 8307 8dbc 2c0a 43be b4b3 94bd
000003d0: 43e4 d3bc 3e8a b0bd a23c 3e3e 556e 15be
000003e0: e831 4abe 6c14 1f3e 1ee6 f4bb 64a6 b9bd
000003f0: ac87 09be afb5 ea3d ac3f 89bd ae77 723e
0.10664558 -0.2708628 0.17045265 -0.26905733 0.089802325 -0.13312368 0.10392163 0.21860614
-0.23569064 0.25078347 -0.06455897 0.13368262 0.041005384 0.26839468 0.25714034 0.007756316
-0.09092555 0.039043188 -0.0063820523 0.10274194 -0.11857189 0.16973369 -0.30385727 -0.10413596
0.073292516 0.06592902 0.084036805 -0.049997803 0.13735743 0.31049982 0.1737927 0.045382064
0.18135396 0.058678854 0.028715445 -0.12124641 -0.07513364 -0.06163101 -0.020698009 -0.06445639
0.19798148 -0.1308291 0.18827544 -0.14736433 0.30718383 0.27224582 -0.108222745 0.2668839
0.04763445 -0.290988 -0.15942839 -0.02786382 -0.040969327 -0.003601225 0.19751255 0.17244668
0.1762056 0.12845089 -0.25991017 0.037341956 -0.08379643 0.11690603 0.0111904545 0.13957419
0.14903308 -0.09579441 0.067209266 0.026162487 0.25881153 0.018187825 0.06898783 -0.028242726
-0.029831992 -0.25454405 0.0562792 0.1707628 0.30632252 0.20219752 0.16947606 0.04708582
0.1949492 0.20402826 -0.065466315 -0.26283404 0.1418557 -0.24415952 -0.12780671 0.10240643
0.08584348 -0.30850375 -0.18642841 -0.23939553 0.08191103 -0.210972 0.18773307 0.14693026
0.07317571 0.13587007 -0.20518672 -0.14715019 0.15218998 0.14955536 -0.009384437 0.040205337
0.17476723 0.19230627 -0.27823773 -0.033590965 0.17804952 0.25030774 -0.03155732 -0.31266046
0.2938408 0.05659299 -0.06588214 0.028151719 0.076820716 0.12947892 0.020125173 0.15986654
-0.21893021 0.17126 0.1269852 -0.114911556 0.0101324655 -0.25014725 0.18818608 0.20800608
-0.09761587 0.1784998 0.12958077 -0.16096392 0.18517603 -0.05863803 0.20593135 -0.13587978
-0.29011676 0.15542741 -0.303097 0.20520283 -0.19082648 -0.18064275 -0.008943353 -0.11372536
0.15855762 -0.11022814 -0.15586305 -0.30415556 -0.24029176 0.107853465 -0.32468262 -0.06263525
0.012674694 -0.06405599 -0.18216524 0.26929745 0.13268901 0.21637532 -0.07500651 0.16408372
-0.09138328 -0.06049037 0.13888407 0.11600237 0.24495937 0.25290516 0.28529364 -0.022259114
-0.21367683 0.23526223 -0.19487478 -0.31654882 -0.057701435 -0.25715593 0.2191277 -0.03570493
-0.08574057 -0.10637175 -0.23612045 0.12364642 -0.0055302796 -0.049450133 0.111543216 0.23035678
0.14941123 -0.07708472 0.034098864 0.19007468 -0.1888231 -0.21334894 0.067989 0.10847795
-0.08935166 0.19727938 -0.014865688 -0.02821787 -0.1054999 0.1762119 -0.08087586 -0.0464651
-0.35602406 0.09227496 0.09695865 0.20992224 -0.092718475 -0.15793198 -0.16782002 -0.1563423
-0.01881736 0.19084461 -0.10868292 0.17690411 -0.19148107 0.20125467 0.00075494003 0.0919683
-0.04859406 0.028878968 -0.1875587 0.09176339 -0.06254181 0.049859527 0.029359423 0.24677615
0.10329537 -0.34714368 0.0905899 0.21808945 0.10402596 0.006467096 -0.21692331 0.08968681
-0.21894561 0.12041571 -0.17513601 -0.03853492 0.058232848 -0.020986548 0.18204634 0.23230329
0.33312994 -0.017215496 -0.19046849 -0.07260838 -0.02586568 -0.086201176 0.18577817 -0.1459287
-0.197456 0.15535134 -0.007473721 -0.090649396 -0.13430661 0.11460435 -0.067015976 0.23678467

sequential/dense_3/MatMul;sequential/dense_3/Relu;sequential/dense_3/BiasAdd f4 [96]
00000000: 431d 55be 343c febe 45b2 593f b836 8a3f
00000010: 523e 293f 47d0 b43d 169a 743e 9068 7e3e
00000020: 21b1 9ebd 61e7 b53d 814b 1e3f fac4 bb3e
00000030: c5b3 373f baf6 ae3f a2e2 863e 9c88 d73e
00000040: 1368 77be e962 a03f 98af 98bf 6af4 8fbf
00000050: fdc3 28bd b61d bfbd 03f0 27bf 8025 1fbf
00000060: 07ec 3b3f 75ce 8e3e d45b 88bf 7e25 1b3f
00000070: 4faf 98bf b8bc 7abd 6b73 3ebf f963 803e
00000080: 8074 093f ce7a b7bf 0dc9 e53e 7a8c 95be
00000090: e845 7cbf dfdd 03bf 63d6 613f c461 353f
000000a0: be64 883e 5c93 7abe 9326 763f b698 b03d
000000b0: 2be2 213f da39 cb3f c3b6 aebe cd47 973e
000000c0: bdc3 e63e 0685 e73d 59a5 1f3d a00a 003d
000000d0: 410d c33f f9b1 cfbd 2049 bb3c 5ef8 f1be
000000e0: 5c8d 853e e18f 303f a765 aa3e b643 c4be
000000f0: ed81 a2bc 4565 283e 2f42 823f ec16 5a3f
00000100: 71a3 173e 3647 bd3e 0c9a 3dbe 7cac 7d3d
00000110: 2591 a3be 80b6 183f 8a66 06bd 1fb1 f33d
00000120: e353 fcbe f4e2 0dbf 2ecf 293f f412 2fbe
00000130: 2d28 1140 60e3 b3bc f640 083e b69c 673f
00000140: 12ca 3bbe 2dde 243f 2006 30bf 39dd 023e
00000150: 4491 9b3f 82ff 7ebe 5f80 ea3d a33d 3f3f
00000160: 2853 38be 82a9 883f 621b 9a3f 256e 09bf
00000170: 9d6b c53e 775d 803f 23d4 523e 07ac 6d3f
-0.20811944 -0.49655306 0.8503764 1.0797949 0.6611072 0.08828788 0.23886904 0.24844575
-0.077486284 0.08882023 0.6183396 0.3667372 0.7175868 1.3669045 0.26344782 0.42096412
-0.24160795 1.2530185 -1.1928587 -1.1246464 -0.041202534 -0.09331839 -0.65600604 -0.62166595
0.73407024 0.2789189 -1.0653024 0.60604084 -1.19285 -0.061215132 -0.74394864 0.25076273
0.5369339 -1.4334352 0.44879952 -0.29208738 -0.9854417 -0.51510423 0.88217753 0.70852304
0.2663936 -0.24470276 0.9615261 0.08622877 0.6323573 1.587703 -0.3412381 0.29546967
0.4507121 0.11304669 0.038976047 0.031260133 1.523842 -0.101413675 0.022862017 -0.47259802
0.2608441 0.6896954 0.3328068 -0.3833291 -0.019837344 0.16444881 1.0176448 0.85191226
0.14808442 0.36968392 -0.18515795 0.061932072 -0.31946674 0.5965347 -0.032812633 0.118990175
-0.4928275 -0.5542443 0.66331756 -0.17097074 2.2680771 -0.021959007 0.1330603 0.90473497
-0.18338802 0.64401513 -0.68759346 0.12779702 1.2153707 -0.24902156 0.11450266 0.74703425
-0.18000472 1.067673 1.2039607 -0.5368369 0.38558665 1.0028523 0.20588736 0.9284062

sequential/batch_normalization_2/batchnorm/mul_1;sequential/batch_normalization_2/batchnorm/add_1;sequential/dense_3/MatMul;sequential/dense_3/Relu;sequential/dense_3/BiasAdd f4 [96, 96]
00000000: 090a 4bbe 3c65 a9bc c2c0 f93b 0e8a e83d
00000010: 895b 71bc 5e57 5c3d fe20 7d3c 06c5 76be
00000020: 3710 133e ac18 cb3d 982d 073e 675d 073c
00000030: ebdf 2a3e e396 193e a2dc 3ebd 74be f0bd
00000040: bfab c53b af03 b8bd c9de 0b3a e633 05be
00000050: 132e cabd 7a71 903d 5d8e 7f3e 0a12 aa3d
00000060: b27c 663d e6bb 06be f50a 50be 0ede 823d
00000070: 25cd debd 858c 39be e15d 64be 8ba6 3d3e
00000080: db44 3dbe f221 a53d 69a1 de3b 5f0f 31be
00000090: 90d4 9abd 8219 233e 8e98 983d 7775 393e
000000a0: d5e4 b43d db9f 413c d602 36be e6fc 863d
000000b0: e773 66be 944d 05be 0598 133e 9712 58bd
000000c0: 1a94 b83d dc85 db3c 21c8 2a3d 4f9d 8fbd
000000d0: a41a 47be 075a 1fbe 8392 153e 5e9e 413d
000000e0: e4a9 513e 9009 1bbe cf74 7dbd 5b7b 98bd
000000f0: 4bce d93d 5551 b83d 62be 1f3d 380b 1bbc
00000100: 1f9c e4bd 9586 2a3e f6b4 a73c d388 d83d
00000110: fbf6 f23d a9c9 563e 959e 243e 7422 a03d
00000120: 7cb1 0abe 75fe 93bd 2585 2e3e 6bab e5bc
00000130: 0ff2 0b3e ca75 393e eeaa 40be a098 da3d
00000140: eeec 203e 0525 15be 2169 14be e9bc f93d
00000150: d702 00be 2ac1 69be f75c 823d 7c44 543e
00000160: e1bf 7a3b eb87 763e 3723 3ebe 915a 78bc
00000170: 75f3 0fbc 000a 11bc 1305 2ebd 2e19 1d3e
00000180: e1d8 8bbd 9945 efbd c483 80bc 6707 623d
00000190: 8c9a 33bd 483f 4d3e 6bc3 073e bf8e 713c
000001a0: 6ca4 073e 49f2 933d 6fb5 9abc ce92 363e
000001b0: 3311 d2bd 7435 d03c 80ac 90bb 6d54 fc3c
000001c0: e19e 51be 8b2e 66be 439a a0bd 4636 273e
000001d0: 5020 c83d ce54 103e 798e 873e e962 a6bd
000001e0: 309c b2bd 0dc0 f43d 80ff 08be c8fa 223e
000001f0: caf8 ccbd f20b 1c3d 9ba0 11bd 485e 1bbe
00000200: 0d0e 91bd 3633 3b3d 1fc7 ec3d 1219 e6bd
00000210: dbc1 333e f212 063e 0efe 183e 89ea 8e3e
00000220: d43b f53d 4503 b33d a14d b8bd 8ff7 2cbe
00000230: a8aa 753c 8cf9 033e 2c84 5abe 61a3 0cbd
00000240: a119 af3d 1bd7 25be c7f0 893e c5c4 93bd
00000250: d9c6 38bd 5e8f b63d 46d8 04be 670c b13d
00000260: 01be 13bd c898 7a3a 09a6 a23d 678a a43d
00000270: af9b c23d 332d 4fbd ff4e 433e 1848 013d
00000280: d9b5 2fbc b8b0 16bd ac9e a9bd 81e9 22bd
00000290: ee13 ff3d a209 d6bd b9ae bcbd ed8e ce3d
000002a0: e768 17bd 7f32 1e3e bade f23d d8e6 a43d
000002b0: ff17 63be a067 17be b8ce 2cbd bea4 093d
000002c0: 8163 cfbd b1eb 2f3d 3942 03be e63d 2d3e
000002d0: 0128 7d3c b519 1cbe 217f c9bc e462 343e
000002e0: e785 823d 1953 093b 5869 f6bd ab97 24be
000002f0: 7c1f 623e 7a35 71bd 066f cb3d 1d79 b8bc
00000300: cbb4 82bd 8dee d2bd 44e3 d1bd 7ace b5bd
00000310: 8902 513d 4fb7 3bbe 33bb 54bd a6fd cbbd
00000320: e943 853d 797a e23d 5aaf 0dbb f3f4 efbd
00000330: 89b8 0abe d6d3 55bd 72a2 53bc 7567 e9bc
00000340: 9728 923d ec49 08bd e582 12ba 858f 583e
00000350: 1cc3 123c 3d6e 4b3e ea84 92bd 4481 59bb
00000360: ebff 413d b573 dfbd d509 053e ffd4 5cbe
00000370: d557 11be 06e5 c3bd 568e 92bc d7fe 6b3e
00000380: d526 15be b016 90bd aeb4 07be b286 99bd
00000390: e55b 153e 4883 a83c 10dc 133e 740a 4b3e
000003a0: 9df0 243e b66a d63d 904d f83d 2c86 bd3c
000003b0: 258a 16be 6f54 dfbd aa56 99bd 2178 29be
000003c0: d178 93bd ed2e e53b 7959 253e 5cdf 80bd
000003d0: 4852 53bd 6407 5d3d af97 0c3e 9b57 a33d
000003e0: a15c 32be cc30 a63d 19e9 ebbc 6313 42bd
000003f0: 154e 36bd d29a d9bd 25dc 523e 113c 53bd
-0.19828047 -0.020678155 0.0076218555 0.11354457 -0.014731296 0.053794257 0.0154497605 -0.24098596
0.14361654 0.09916815 0.13200986 0.008262015 0.1668698 0.14998965 -0.04659713 -0.11755076
0.0060324366 -0.089850776 0.0005335627 -0.13008079 -0.09872069 0.07052894 0.24956651 0.08304222
0.056271262 -0.13157615 -0.2031668 0.0639001 -0.10878972 -0.1812001 -0.22301437 0.18520562
-0.18483298 0.08063115 0.006794144 -0.1729102 -0.07560074 0.15927699 0.074509725 0.18111216
0.08832709 0.011817898 -0.1777452 0.06591205 -0.2250515 -0.13017875 0.1441346 -0.052752104
0.09012623 0.026797228 0.041694764 -0.07012426 -0.19443756 -0.15561686 0.14606671 0.04727017
0.20474964 -0.15140367 -0.061878975 -0.07445403 0.106350504 0.08999888 0.038999923 -0.009463124
-0.1116259 0.16652901 0.020472031 0.10572972 0.11863514 0.20975365 0.16076119 0.078190714
-0.13544267 -0.07226268 0.17042978 -0.02803584 0.13666557 0.18111339 -0.18815205 0.10673642
0.15715382 -0.14564903 -0.14493228 0.12194235 -0.12501083 -0.22827592 0.06365388 0.2072925
0.0038261341 0.24075286 -0.18568121 -0.015158311 -0.008786072 -0.008852482 -0.042485308 0.15341637
-0.06828476 -0.116831966 -0.01568783 0.05518284 -0.04384856 0.20043671 0.1325814 0.014743506
0.13246316 0.072239466 -0.018885342 0.17829439 -0.10257187 0.025416113 -0.004415095 0.030801976
-0.20470764 -0.22478692 -0.07841923 0.16329297 0.09771788 0.1409485 0.26475886 -0.08124334
-0.08721197 0.11950693 -0.13378716 0.15915978 -0.1000839 0.03809733 -0.035553556 -0.15172684
-0.07082758 0.045703135 0.11561417 -0.112352505 0.17554419 0.13093165 0.14940664 0.2791331
0.11974302 0.08740858 -0.089991815 -0.16891311 0.014994301 0.12888163 -0.21339482 -0.034335498
0.0854981 -0.16195337 0.2694151 -0.07215265 -0.04511151 0.08914064 -0.12973127 0.08644944
-0.036069874 0.00095595093 0.07941825 0.08034211 0.095023505 -0.050580215 0.19073103 0.031562895
-0.010724508 -0.036789626 -0.082822174 -0.039773468 0.12454973 -0.10451056 -0.09213013 0.10085855
-0.036965277 0.1544895 0.11858888 0.080518425 -0.22177123 -0.14785624 -0.04218933 0.033604376
-0.10126401 0.042949382 -0.1281823 0.16918144 0.015451432 -0.15244181 -0.024596753 0.17615849
0.06373196 0.002095407 -0.120318115 -0.16073482 0.22082323 -0.05888889 0.099332854 -0.022518689
-0.0638214 -0.10299406 -0.102484256 -0.08877273 0.05102781 -0.18331645 -0.05193634 -0.09960489
0.065070935 0.11058516 -0.002161941 -0.11716642 -0.13546957 -0.052203976 -0.012917148 -0.028491715
0.07136648 -0.033273622 -0.0005588963 0.21148498 0.0089576505 0.19866271 -0.071542576 -0.003318862
0.047363203 -0.10910741 0.12992032 -0.21565627 -0.14193662 -0.09565167 -0.017890137 0.23046432
-0.14565594 -0.07035577 -0.13252518 -0.07496394 0.14585836 0.020570412 0.14439416 0.19828206
0.16107412 0.10469572 0.12124169 0.023135267 -0.14701135 -0.10904776 -0.07487233 -0.16549732
-0.07200778 0.0069941194 0.16147412 -0.062926024 -0.05159214 0.053962126 0.13729738 0.07975694
-0.17418148 0.08114776 -0.028797673 -0.04738177 -0.04450806 -0.10625233 0.20591791 -0.051570956

sequential/dense_4/MatMul;sequential/dense_4/Relu;sequential/dense_4/BiasAdd f4 [96]
00000000: eff5 0f3f 6b8d 3b3f 7aa1 aa3d 1764 ff3e
00000010: ebfd f7be c710 dabe d3b5 273e d002 2c3f
00000020: cbc5 f1be c8da 673f 8bd4 7dbd 8570 c73e
00000030: d7fe 873e e4f4 103f 4d88 9c3e 8c67 a83f
00000040: f7c9 82bd 96b2 593d 4cdf fcbe 2227 60bf
00000050: 2a7d 1a3f 11da 79be 44a9 fa3e ac66 92bd
00000060: db86 1b3f be98 383d 45a0 023e b732 3b3f
00000070: 6d59 033f a663 b5be ec1c 3dbf eedf 693f
00000080: 6697 b93f ffdb 9f3e 1328 af3d 2936 6d3e
00000090: 706d d23e 8a33 5d3f b484 9d3f 0750 5b3f
000000a0: f9d2 8e3f 5fdf 14bf 901c 123e 1b5d 12bf
000000b0: a67c 0abf 0086 4a3f a7dc 713f 174f 7d3e
000000c0: 8d7d cf3e 5d7a 9f3d 4653 983f aeca 85be
000000d0: f998 13bf 67cf e03e 3c5c 543f a885 4dbe
000000e0: ff64 ab3e d57b f9bd 19f3 0c3c 9c94 c13e
000000f0: f4a7 6c3e 477e c93e 8471 e53e 9ce3 24bf
00000100: 59e1 023f a7c6 bdbd d79f 2e3f 3613 64bf
00000110: d63a a9be fc0f dd3f d3f0 a0bd 34bf 043c
00000120: 6cf5 403f 75e8 cf3e 5e94 ee3e 4028 5e3f
00000130: 7210 ce3e 3796 283f 4573 f73d 76a1 a1bf
00000140: 176b d6be 23e4 dabe 5f50 7d3d b704 473e
00000150: 11f2 c13f c630 803e a208 ba3e f6c8 4f3f
00000160: 3eb8 f43d 252b 3d3e 96d8 88bf bcfa 2b3f
00000170: 9f6d 583f dc81 59bf 8889 253e 3655 d43e
0.5623464 0.7326266 0.083315805 0.4988105 -0.48435912 -0.42590925 0.16377954 0.6719179
-0.47221217 0.9056821 -0.061970275 0.38953033 0.26561615 0.56623673 0.3057274 1.31566
-0.06386178 0.05314883 -0.49389112 -0.8755971 0.60347235 -0.24399592 0.48957264 -0.07148489
0.6075265 0.04506754 0.1275645 0.7312426 0.5130833 -0.35427588 -0.73872256 0.91357315
1.4499328 0.3122253 0.085525654 0.23165192 0.4109912 0.8640677 1.2306123 0.8566899
1.1158134 -0.5815334 0.14268708 -0.5717332 -0.5409645 0.7911072 0.94477314 0.24737202
0.40525475 0.07787011 1.1900413 -0.26131195 -0.5765529 0.43908235 0.8295324 -0.20070517
0.3347549 -0.12181822 0.008602881 0.37808692 0.23110944 0.39354154 0.44813168 -0.64409804
0.51125103 -0.092664056 0.68212646 -0.89091814 -0.330527 1.7270503 -0.078584336 0.008102227
0.75374484 0.40607038 0.4659757 0.86780167 0.40246922 0.6585421 0.12082533 -1.2627399
-0.41878578 -0.4275218 0.061844226 0.19435392 1.5151998 0.2503721 0.3633471 0.8116602
0.11949204 0.1847349 -1.0691097 0.67179465 0.8454227 -0.84963775 0.16165745 0.4147126

sequential/batch_normalization_3/batchnorm/mul_1;sequential/batch_normalization_3/batchnorm/add_1;sequential/dense_4/MatMul;sequential/dense_4/Relu;sequential/dense_4/BiasAdd f4 [96, 96]
00000000: fa17 483e 5ee4 c4bd ae7c 0c3e 1e09 6bbd
00000010: 8775 3a3e 8b34 fbbd 624c b03c 6468 21bb
00000020: 6f3f edbd 8733 0bbe 9273 dbbd a667 31be
00000030: 26ac cebc 2a60 3dbe 7659 023e 02be 723d
00000040: 880c 5fbc d5da 39be 6a65 1f3e 61ff bdbd
00000050: 9321 1c3e 8961 0d3e 3c67 3dbe 6f74 2a3d
00000060: 73d7 ca3d 6e5c 2dbe abd5 e53d 41b1 fe3d
00000070: 1996 a03d 2a7d 103e 7ef1 223d ef87 c93d
00000080: b420 15be 61c9 1cbe 0117 c63d 12ae e6bd
00000090: 1373 1c3e b510 ecbd 65a1 ce3d 70d3 2dbd
000000a0: 270e b2bc eddd d5bc 5a83 09be 26cf 953d
000000b0: 0058 3b3d 78ec 0e3e 88df d2bd cd10 29be
000000c0: c16f e23d 8e09 0ebe df98 d9bc 6b04 ae3b
000000d0: ca45 143d 96dd eb3d bcc3 093e c6a7 35be
000000e0: bcb0 0e3c 8f0e 6dbe 40d0 513b e3e3 a2bd
000000f0: 6c67 f0bc 26ef 2cbe 25dc 0e3b f636 28be
00000100: 0321 86bd bf50 0dbd baaa 43be f15a d33d
00000110: 847f 4a3e 1e6c 0cbe 56e2 383d 10af 6b3d
00000120: df35 35be 0dbb 58be eb04 183e db0f b2bd
00000130: d71e 893d 6e96 3dbe 8fc8 2bbc 50c3 6ebe
00000140: 8a40 a2bd f5ec 11bd 3b39 ba3c 4780 683c
00000150: 7600 e4bd 50f8 c83d 8849 06be bac7 003e
00000160: 5451 4c3e 4cb7 f23d 2a51 373e 946e be3d
00000170: 14f1 93bd 86f3 7fbd 9baa 343e da2f 6d3d
00000180: 6c1c e03d 96a0 2b3e 7b2d d6bd 3434 92bd
00000190: be21 3bbd 9419 1a3e 8b78 35bc 1425 20be
000001a0: 411d 9cbd 8d38 ae3d c1ae 933d 29ee e33d
000001b0: 1bd7 d43c fdbe 6b3d e50c 1e3e 31b1 31be
000001c0: e4ca 1abe 3eee bcbd 4dc8 87bd 2bd9 183e
000001d0: 8fbb 7cbd 40a6 1d3d f721 653c 1d94 1cbe
000001e0: cc77 36be ae7f ecbd 0641 783d 08f6 f13d
000001f0: fda4 553d 0114 d93c 04d3 893d 5204 af3c
00000200: 9d40 893d 01b6 02be 45d4 0cbe 7c66 46ba
00000210: 05a6 1cbe 286d e3bb 0d32 04be 540f 243e
00000220: f105 32be 323b b03d 1a4b 1c3e 4268 f33d
00000230: 2a6d 5a3d 6fae 703d 51b2 c4bd 29c3 5bbe
00000240: b8cf a9bd 6901 573d f317 b83d 43a4 023e
00000250: 8421 083e a71f 5bbd 4033 da3d 009c 5bbe
00000260: f767 bb3d 1095 0cbd 7e7c 5dbe 216a 14be
00000270: 9ff1 0ebe 74cb c9bb d513 08bb 3f35 603d
00000280: 96d4 debd 2595 2abe ea81 473e 3d47 89bd
00000290: a306 733d 9991 c83d ad0c 353e 6392 273e
000002a0: 7217 623e 8c9f 57be ff38 19be 864f 1cbd
000002b0: a029 2fbd 9d64 38be 0b68 f73c 4c5b 473d
000002c0: 1fe6 06bd 484d 02bd 28e8 d1bd d748 90bd
000002d0: 33c3 6f3d 5d04 2fbe 0feb 48bd 78ab 64bd
000002e0: 97df 1f3d dad9 6e3d adf5 e83d 1b17 14be
000002f0: d32b 5ebd dcab 993d 1b6b c0bd 55ae 4d3e
00000300: f943 42be 9569 8fbd 54dd f43d 0b80 13bd
00000310: c69d 1d3e 3f35 053d 9a8d ad3d f26d 96bd
00000320: 1d57 81bd fb93 d5bd 4269 8f3d fb55 76be
00000330: cfef 683c 0944 b3bd efbe 8abc ae27 293e
00000340: 5ffe c1bd c12c 9f3d ef3d ba3d 2bec 66be
00000350: 02eb e8bb 5417 18bd ec49 d83d c5d3 333e
00000360: 4faa 6c3d e44d 423e 7d57 b33c e969 453c
00000370: 9386 58bd c4a8 d13c f01d cd3d 1446 633e
00000380: 77ad 183e b520 2dbe 7d6b 9c3d 2b52 0abe
00000390: ebd1 22be 6b75 133e e042 83bd 3379 23bc
000003a0: a583 40bd 9d72 7d3d ec43 dd3d 2273 6cbe
000003b0: cf2c 9e3d cab1 03be 7686 f33c 850d b73d
000003c0: 65c7 33be 7816 f5bd 4cbd b33d 8384 313e
000003d0: b48d b3bd 377d 28be e302 10be 6455 0a3e
000003e0: 008b 63bc ca9e 4b3d 5b77 823d 03f8 cabd
000003f0: 009f eb3d de1a 393e 7b13 063e 06f1 4fbd
0.19540396 -0.0961387 0.13719437 -0.05738174 0.18208896 -0.12265881 0.021520797 -0.0024628872
-0.115843646 -0.13593875 -0.10715403 -0.17324695 -0.025228571 -0.18493715 0.12729439 0.059263237
-0.0136138275 -0.18149884 0.1556603 -0.09277225 0.15247183 0.13806738 -0.18496412 0.041614946
0.09904375 -0.1692979 0.112223946 0.12436152 0.07841129 0.14110246 0.039781086 0.098403804
-0.14563257 -0.15311195 0.096723564 -0.1126367 0.15278272 -0.11526624 0.10089377 -0.04243797
-0.021735264 -0.026106799 -0.13429013 0.07314901 0.04573822 0.13957393 -0.102965415 -0.16510315
0.110564716 -0.13870832 -0.026562152 0.0053105853 0.03619937 0.115168735 0.13453573 -0.17739782
0.008709129 -0.23150085 0.0032014996 -0.07953622 -0.02934619 -0.16888103 0.0021798697 -0.16427216
-0.06549265 -0.034500834 -0.19108096 0.1032008 0.19775206 -0.13713118 0.045137726 0.05754
-0.17696331 -0.21165104 0.14845626 -0.086944304 0.06695335 -0.18514416 -0.010484829 -0.23316693
-0.07922466 -0.03562637 0.022732368 0.01419074 -0.111329004 0.09812987 -0.13113987 0.1257619
0.19952899 0.11851367 0.17902055 0.09298435 -0.072237164 -0.0624881 0.17643206 0.057906963
0.10942921 0.16760477 -0.104578935 -0.07138863 -0.045686476 0.1504882 -0.011076103 -0.15639144
-0.07622767 0.0850688 0.07211066 0.1112941 0.025981477 0.057555187 0.15434606 -0.1735275
-0.15116459 -0.092251286 -0.06630001 0.14926593 -0.061702307 0.038488626 0.013985149 -0.15290876
-0.17819136 -0.115477905 0.060608886 0.11814505 0.0521593 0.026498796 0.06729701 0.021364365
0.06701777 -0.12764741 -0.1375285 -0.0007568372 -0.15297706 -0.0069405027 -0.12909718 0.16021472
-0.17385079 0.086050406 0.15263024 0.1188512 0.053326763 0.058760103 -0.09604324 -0.21461166
-0.08291572 0.05249158 0.08988943 0.12757973 0.13294035 -0.053496983 0.106543064 -0.21446228
0.09150689 -0.034321845 -0.21629521 -0.1449361 -0.13959359 -0.0061582867 -0.0020763774 0.05473828
-0.10880391 -0.16658457 0.19483152 -0.06703041 0.0593325 0.097933955 0.17680617 0.16364436
0.22079256 -0.21056956 -0.14963149 -0.038161777 -0.042764306 -0.18007131 0.030200979 0.04867105
-0.032934304 -0.031811982 -0.102493584 -0.07045143 0.058535766 -0.17091508 -0.049052294 -0.055827588
0.03903159 0.05831323 0.11374984 -0.14461939 -0.054241013 0.07503483 -0.09395429 0.20086034
-0.18971242 -0.0700256 0.119562775 -0.036010783 0.15392217 0.032521483 0.08474274 -0.07345189
-0.06315444 -0.10428616 0.07002498 -0.24056236 0.014217331 -0.08753211 -0.016936747 0.16519043
-0.094723456 0.07772208 0.09093844 -0.22551028 -0.0071080932 -0.037131622 0.105609745 0.17561252
0.057779606 0.18975025 0.021892304 0.012049177 -0.052862715 0.025593169 0.10015476 0.22194701
0.14909922 -0.16907008 0.07637689 -0.13507907 -0.1590039 0.1440026 -0.0640924 -0.009977627
-0.047000546 0.061876882 0.10803971 -0.23090795 0.0772339 -0.1286079 0.029727202 0.089381255
-0.17556532 -0.11967176 0.0877634 0.17335705 -0.08767262 -0.16454016 -0.14063601 0.13509136
-0.013888121 0.04971198 0.063704215 -0.09910586 0.11504936 0.18076655 0.13093369 -0.050766967

sequential/dense_5/MatMul;sequential/dense_5/Relu;sequential/dense_5/BiasAdd f4 [96]
00000000: 77f4 e13e e85c babe 4b9d dcbe ae4f 0abf
00000010: 9dec 39bf 2af7 203f a332 2f3f 5ac2 1cbf
00000020: 4205 ca3e 7812 dc3e 82fe 8d3e 059a be3f
00000030: 7122 e03d 6863 f8bd 82d9 9ebc c214 9f3f
00000040: 1ae6 28bf 6f26 bd3f 6475 c73d 7cd8 503e
00000050: 5e33 1d3f 3c38 063f dc17 f63e 9ceb 0f3f
00000060: 1628 a53d bca1 1a3e e7c9 d23e 943f 8bbe
00000070: 4129 ccbe e4fe bb3f b7e7 9ebe 92cf d93e
00000080: 73a7 813e 6453 573f b11b 953f 0dac 90bf
00000090: 61df 75be 710e 20bf 8721 083f 579d 553f
000000a0: 6db1 883f 7030 ebbd a207 c6be 31e7 15be
000000b0: 64e7 71bf 5120 53bb cf40 81bd 0f9a ad3e
000000c0: 319f a13e 4783 a53f 6dcb bebe 524b e2bd
000000d0: ba6d cf3e a576 953e fc8e d53e 8b8c 1cbf
000000e0: 0bed 3f3f 021d 4b3e 10ad fc3e b5e4 4ebf
000000f0: ad7d 1d3f 21e9 463d aad1 133f 3748 933f
00000100: f330 bc3f 4390 23bf 04cd 563f f298 0bbf
00000110: 44cc 32bf dd49 01bf 5c15 ca3e 1825 0e3d
00000120: 521c 44bd 4498 dabd 05e9 183f 4758 963f
00000130: 7322 5f3f 80c8 c73f c53f 79be 4f49 4cbe
00000140: e314 67bf ae7f 7c3f 420d 4e3f 8a97 e83e
00000150: 6e69 903e 8002 ecbe 022c a6be cdee 393f
00000160: fd5e 8a3f c13b f63d 4f2f 14bf 3fff 303f
00000170: 4b37 7e3f 3711 303f 425e f4be a27f c4bd
0.44131824 -0.36399007 -0.43088755 -0.5402783 -0.7262667 0.6287714 0.6843664 -0.61234057
0.39457136 0.4298284 0.27733237 1.4890753 0.10944069 -0.12128335 -0.019390825 1.242821
-0.6597611 1.4777354 0.09739187 0.20395082 0.61406505 0.52429557 0.48065078 0.56218886
0.080642864 0.1510076 0.41169664 -0.27196944 -0.39875224 1.4687161 -0.3103616 0.42541176
0.25323066 0.8411162 1.1649076 -1.1302506 -0.24010994 -0.62522036 0.5317616 0.83443207
1.0679146 -0.11483848 -0.38677698 -0.14638974 -0.944937 -0.0032215307 -0.063111894 0.339066
0.31566766 1.2930688 -0.37264577 -0.110495225 0.40513402 0.2919208 0.4171065 -0.6115195
0.74971074 0.19835284 0.49350786 -0.8081773 0.6151989 0.048562173 0.57741797 1.1506413
1.4702438 -0.63892 0.8390658 -0.5453025 -0.69842935 -0.5050333 0.3946942 0.034703344
-0.04787857 -0.106735736 0.5973056 1.174569 0.8716194 1.5608063 -0.24340732 -0.1994984
-0.90266246 0.98632324 0.8048898 0.45428115 0.28205436 -0.46095657 -0.3245545 0.72630006
1.0810238 0.12023116 -0.5788469 0.69139475 0.9930312 0.6877627 -0.47728163 -0.095946565

sequential/batch_normalization_4/batchnorm/mul_1;sequential/batch_normalization_4/batchnorm/add_1;sequential/dense_5/MatMul;sequential/dense_5/Relu;sequential/dense_5/BiasAdd f4 [96, 96]
00000000: 774f c63d 1d97 8c3e 6172 c83d 05f1 41be
00000010: 45cc fe3d 077c 5dbe 8849 0c3e 45fb fcbc
00000020: 2909 2b3d 278f 33be e3f8 40be 81be a4bd
00000030: e73e fa3d e61b 56be e837 4b3d 9840 13be
00000040: 31d5 823c 9796 0b3e 2437 883d 72bd a7bc
00000050: 05ac 2e3e 4262 42bc 04bb babd d8f0 ea3d
00000060: 651c 1f3e af63 1abe 5bb4 ffbc ea16 e23d
00000070: bc4a 4e3c 7872 8abd e693 ba3b 0b36 2dbe
00000080: 2fca 0f3e aa51 003e e989 a63d 06b1 08be
00000090: 1a49 24be 14ab 453e 8e44 3c3e 27fb 97bd
000000a0: 2d49 413d 78f2 8dbd a2c5 f23d e7a5 163e
000000b0: ea69 32bd 6092 67be 9411 21bd 0790 eb3d
000000c0: 02b9 f5bd 8620 a1bc 78e1 3e3e 1e4f c73d
000000d0: f1fe c6bd 22a9 823c 6639 293c 4caf e5bd
000000e0: c2a4 03be e483 053d b5df 6ebd 9032 f3bc
000000f0: 3191 ec3d 9113 c1bb 983d 10be 6d38 d53b
00000100: 9302 b83d c382 c73d 5dd6 d1bd a9aa ee3d
00000110: 8615 b9bd 0f98 0c3d 3096 c83d 6398 84bd
00000120: 488a bbbd 8886 0d3e b5ad 5cbe 02bc bdbd
00000130: 3390 c43d d20e 84bd 40b8 80bd 5986 ffbd
00000140: 06d5 ecbc e666 5dbd 6032 11be 1a95 0cbe
00000150: 4225 f6bd 95ca 91bd 4194 51bd dc17 dcbc
00000160: f36d 84bd 2a4e af3d 71bc debd 0761 2b3d
00000170: d306 5f3e 9b19 853d 466b c73c 10c5 303e
00000180: 4efb aabd 928d 463e a86f 34be a6a4 f53d
00000190: 3c5b 23bd bb44 c13b b3ac aa3d f880 ec3d
000001a0: 87c8 20be 6a6f 5c3d 6948 063e 4730 d83d
000001b0: e76a 20be 1077 8dbd 59eb 063e bdc8 fb3c
000001c0: 5948 86bd c17d b73d 55c5 2ebe 4de4 54be
000001d0: 37b5 273e d5b7 2b3e 6b8b ebbd 2d89 d73d
000001e0: dc57 4b3d 8505 843d 01c4 cabd 25ec 07be
000001f0: 71d6 b4bd 483b 82bd cc3f 38bd c8ee ce3d
00000200: a4b7 2cbe b26b 813d 25e2 c53d 9033 4cbe
00000210: d18f 37be 921a 46bd eafa eb3d 134b 233e
00000220: bd78 d53c 1eae ae3d 8827 9a3d 7084 533e
00000230: 0212 013e dafe d73d 05ac d9bd 3770 533d
00000240: 5b63 0f3e faed 85bd fcda 953c 42c1 39be
00000250: 63c5 5cbd 5786 68bd 6d1b 81bd f134 bc3d
00000260: 9c57 933d 6759 973d 74a7 d6bd 44f3 3e3e
00000270: 089e bb3d de08 c3bd eeca 78bd 181e c5bd
00000280: 0134 2c3e 7cc2 cf3c 4e7f 33bd 645c b93d
00000290: 4fe7 9bbd 1489 4c3e 3eec 17bd 20a5 6dbd
000002a0: ab8b ab3d 417b cbbd 8780 303e a0f1 27be
000002b0: efc3 c2bd d38e 1cbe 13f4 4abd 8821 16bd
000002c0: a796 24bd dc19 87bd af9f a53b 3a7f 0d3e
000002d0: 801c 923d 20d0 a8bd 38fb c53d 5ba2 8b3d
000002e0: af0e 233e 87ab 8b3d 2a73 5fbe 1e52 393e
000002f0: 29e6 14be 4860 99bc d029 b93d e22d da3d
00000300: 0522 0d3e fe25 973d bea1 c0bd ef2d f4bc
00000310: 981c d93d c152 b1bd fc93 0d3e 8163 353e
00000320: 75a9 b23d f50f e63d e76d 06be 19fc 4fbc
00000330: cad9 91bc 567e e4bd 5707 223e 6e8f b63d
00000340: f97d cfbc a11e bc3d 67ae 28be 0ce9 1abd
00000350: 675a 4c3e d8fc 02be ad84 2d3e e0ef 3c3d
00000360: 7196 3dbe 0424 e6bd f9d9 c4bd a29c d9bd
00000370: 96cb 22bd 2121 253e edbf d8bd 192f b03d
00000380: 02e2 9bbc 5fdb 6b3d 90ad 083e 261d 3cbe
00000390: 38ff da3d 2cc2 23be 1dc2 e73d 9397 133d
000003a0: bc66 173e 1609 eb3c 7faf dcbd a352 0c3e
000003b0: cb4a 3a3d c9da 2d3d f62b 52be 2086 2bbe
000003c0: 914c d13d a1a8 3bbe ed2d 523d 8172 1a3e
000003d0: b065 f8bd a1d2 62bd 2633 0e3e 5bfa 1f3e
000003e0: 4e59 443d a14b 87bd 95e4 19be 785f fabd
000003f0: 6cff ddbd 7c85 323e 51f7 ae3d 0b16 0e3e
0.096831255 0.2745904 0.09787441 -0.18939598 0.12441305 -0.21629344 0.13699925 -0.030881533
0.041756783 -0.17535077 -0.18844943 -0.08044148 0.12219029 -0.2090908 0.049613863 -0.1438011
0.015970798 0.13631664 0.06651142 -0.020476077 0.17057808 -0.011864247 -0.09117702 0.114717185
0.15538175 -0.15077089 -0.03121393 0.11039527 0.01259106 -0.067601144 0.0056939004 -0.16915147
0.1404197 0.12531152 0.08131773 -0.13348779 -0.16043511 0.19303542 0.18385527 -0.074209504
0.047188926 -0.06931013 0.11854102 0.14711724 -0.04355804 -0.22614431 -0.039323404 0.115020804
-0.11998178 -0.019668829 0.18640697 0.09731887 -0.09716595 0.01594979 0.010328626 -0.11215076
-0.12855819 0.032596484 -0.058318812 -0.029687196 0.115511306 -0.005892225 -0.14085996 0.0065069706
0.08984866 0.09741738 -0.10245965 0.116536446 -0.090373084 0.034324702 0.09794271 -0.06474378
-0.091572344 0.13820851 -0.21550639 -0.09264375 0.09597816 -0.06448139 -0.06285143 -0.12476797
-0.028910171 -0.05405321 -0.14179373 -0.13728753 -0.12018825 -0.071187176 -0.051166777 -0.026866846
-0.06466284 0.085598305 -0.10875786 0.04184058 0.21779947 0.064990245 0.024343144 0.17262673
-0.08348714 0.19389942 -0.17620718 0.11994295 -0.03988193 0.005898086 0.08333721 0.11548036
-0.15701495 0.05381719 0.1311356 0.10556083 -0.1566578 -0.06907475 0.13175716 0.030735368
-0.06556768 0.089595325 -0.17067464 -0.20790215 0.16377722 0.16769345 -0.11501201 0.10524211
0.049644336 0.06446365 -0.09900666 -0.13273676 -0.08829964 -0.06358963 -0.044982716 0.10104138
-0.16866928 0.063193694 0.09662274 -0.19941545 -0.17925955 -0.048365183 0.115224674 0.15946607
0.026058549 0.08529304 0.07527071 0.2065599 0.12604526 0.10546656 -0.10628513 0.05162069
0.14002745 -0.06539531 0.018292896 -0.18140128 -0.05389918 -0.05676874 -0.06304059 0.09189785
0.071944445 0.07390099 -0.10481158 0.18647486 0.091610014 -0.09523176 -0.060740404 -0.096248806
0.16816713 0.025361292 -0.04382258 0.09050825 -0.07612478 0.19974166 -0.037090532 -0.058018804
0.08376249 -0.09935618 0.1723653 -0.16400766 -0.095100276 -0.15288858 -0.049549174 -0.03665307
-0.040182736 -0.06596729 0.005054436 0.13818064 0.07134342 -0.08242822 0.09667057 0.06818076
0.1592357 0.068198256 -0.21821275 0.18097731 -0.14540924 -0.018722668 0.09041178 0.10653283
0.13782509 0.07380293 -0.0940585 -0.02980706 0.10601157 -0.08658362 0.13825983 0.17713739
0.087237276 0.11233512 -0.13127862 -0.012694382 -0.017804045 -0.11156909 0.15823112 0.08914076
-0.025328623 0.091855295 -0.16472779 -0.037819907 0.19956361 -0.12791765 0.16945143 0.0461272
-0.1851442 -0.11237338 -0.096118875 -0.106255785 -0.039744936 0.16125919 -0.10583482 0.08602733
-0.019028667 0.057582255 0.13347459 -0.18370494 0.1069321 -0.1599204 0.11316321 0.036033224
0.14785284 0.028690856 -0.10775661 0.13703398 0.045481484 0.042444978 -0.20524582 -0.16750383
0.10219682 -0.18326046 0.05131333 0.15082742 -0.1212877 -0.055376653 0.13886699 0.15622847
0.04793673 -0.06606222 -0.15028603 -0.122252405 -0.108397335 0.17433733 0.085432656 0.13875596

sequential/dense_6/MatMul;sequential/dense_6/BiasAdd f4 [27]
00000000: 16d6 0d40 ca96 943f 3397 b53f 5d87 8bbf
00000010: a75b 5ac0 20a8 483e 72bf 73bf 7649 13bf
00000020: da6a 9f3e c5d9 65bf 5276 ffbf 0a96 753f
00000030: 5d26 a83d 662b b33d cbe7 463f 1a63 8fbe
00000040: 239a fd3d 6689 4b40 e486 1340 dc59 4740
00000050: 8d68 bbbe 68a7 253e 3213 1ebf abd6 48bf
00000060: b34a dc3f b127 3cbf d694 88bf
2.2161918 1.1608517 1.4186767 -1.0900685 -3.411844 0.19595385 -0.95214 -0.5753397
0.3113621 -0.89785415 -1.9957983 0.95932066 0.08210442 0.08748512 0.7769744 -0.28005296
0.12382915 3.1802611 2.305108 3.1148596 -0.36603203 0.16177142 -0.6174804 -0.7845256
1.7210296 -0.73498064 -1.0670421

sequential/batch_normalization_5/batchnorm/mul_1;sequential/batch_normalization_5/batchnorm/add_1;sequential/dense_6/MatMul;sequential/dense_6/BiasAdd f4 [27, 96]
00000000: 0d9b 80bd 7171 103d a445 63bc 36c3 44be
00000010: feb0 323e 7466 963d adb7 f4bd f1a6 f5bd
00000020: da64 6dbe 3a2a 03bd 4faf debd 0c76 4cbe
00000030: c38d 28be 2026 0f3e 6913 d2b9 0f7d 27be
00000040: edce 7f3c 3aa5 e93c c4f5 f23d 8fcd 893d
00000050: 8b97 013e dd2a 3e3d 15a7 f23d 300a 6fbe
00000060: 2183 223e 695a edbd dc27 e33d beef 88bd
00000070: 7a80 33be 5ee6 d93b e269 f43c a779 42be
00000080: 8108 ce3c d772 1fbe d815 a0bd 7fc6 453d
00000090: 2ce6 5ebe 28eb 51be a398 b23d e309 3abe
000000a0: 4df8 ad38 abf8 ebbd 7705 033e e776 da3d
000000b0: 5a8f af3d 6a7e d83d d7e1 e3bb db32 483d
000000c0: d3c1 493d 1646 193e 3b4a 40be e449 bdbd
000000d0: 3a43 9b3d 9eae 513e ec97 f4bd da42 a7bd
000000e0: f1e8 073d ba33 29be 10d4 72be 0671 0cbc
000000f0: c397 7ebe 65db bbbd af3c d6bd f900 66be
00000100: 95f0 63bd ac28 2c3e c91d f1bd d03a 043c
00000110: 9336 01bb 9e1b 1cbe 2212 47bd d2d2 833e
00000120: bc24 05be cf5a ef3c e650 c03d aff2 06bc
00000130: 2f6e c1bd d04b 123d 26c6 1b3e 6762 8ebd
00000140: adda 67bd bc97 0f3e 123d 4bbe f554 943c
00000150: b378 213e 3eb8 d8bc ad11 f83d d81f 3e3d
00000160: 97f0 e33d a1fc a1be e533 de3d 8a76 62bc
00000170: d716 883c d7fb c6bd 29c3 7a3d 7ff8 c9bd
00000180: 8a92 94bd fbeb 14be 0926 313e 1d2a e63d
00000190: 5786 eabd 281f c83d b634 c5bd a479 6e3d
000001a0: 8f49 8cbd ba10 193e a84c 44be 8533 2c3d
000001b0: 8af2 183d 0036 a2bd f6c3 823e f1f0 bcbd
000001c0: f98a c6bb d0fe 88be eb4a cbbd 7904 8b3c
000001d0: a111 793d c825 3fbe b610 43bd fddf 973d
000001e0: 74c8 623e acda 1cbd 6eaf 6a3e 71f1 28be
000001f0: 5036 693d 8cd4 b93d b32e 06be 7724 043e
00000200: 3909 f3bd 7663 dcbd a777 35bd 1430 eabd
00000210: 6726 37bd f545 45bc 07a0 e0bd 3513 45be
00000220: 144c 16bd e247 3a3d ef84 f1bd ab71 2ebb
00000230: d4cc 8b3c c632 f93d 1a20 c6bd 8727 13be
00000240: 4b15 d03c a55b 35be e04a cf3d 1716 953d
00000250: 47de 733e 569a f53d 8bb5 0c3e c37b 5fbe
00000260: a831 4a3e 2459 15be f10c bf3d ac9e 08be
00000270: c21c cbbd 2536 d1bb 9a86 543e db32 443e
00000280: 71d0 fb3d 5979 72bd 0ba9 3a3a ab86 6ebd
00000290: a5ed 1fbe a58d eb3d da9e e03c ce46 21be
000002a0: 699e 17be c03e c4bd 4836 d03b a4c4 6a3d
000002b0: 8dac d0bc d838 99bc 9fc1 9cbd f492 2bbe
000002c0: ce2b 433e dc65 bdbd f237 d7bd ae42 013d
000002d0: 2950 d8bc 592e b2bd e2ec 13bc 9845 4abe
000002e0: bb0d 8c3d d396 7bbe d3ed 11be 68f0 45be
000002f0: 3a95 4dbe d78d 8e3e 8625 fbbd e9dc f4bd
00000300: 09e2 6bbe c02d 043d d588 aabd 4a49 523e
00000310: 277f b03d cd97 0f3e 595f 5bbd 15f7 25bc
00000320: 6c75 3dbe 0868 22be eeee 8fbd 01c2 133d
00000330: fdc4 2abe b582 34be fb1e f8bd 8108 32be
00000340: f4a0 a1bc 8d37 1a3e e584 87bb 8e3d 68be
00000350: a4b9 1e3e fd9f 4c3e ae8d a2bc 9be4 d0bd
00000360: 0a70 08be f3b1 09be fc1a a93d 3f2f 7c3d
00000370: 2674 91bd 3f1f b3bd b9bc d73c 0a1e 3abe
00000380: e4cd 22be 45da d6bd c24b a53d e9fd 2a3e
00000390: 864e efbb 8085 b13c db84 d33d f61a 59be
000003a0: 071e 65bd 590f b13d b3c4 6cbe 1b33 f83d
000003b0: db9e 123c 36d1 073e 604f c93d 948f 1d3e
000003c0: f0f8 a2bd 50c7 b53d baa9 1ebd 130d babd
000003d0: 86fd 563e c7c8 093d e83e 20be c82a 423d
000003e0: 420f af3c ad44 b03d 5458 6a3c 68df 17be
000003f0: 2358 d23c 94ed 9cbd 18ba 74be d2a5 49bb
-0.062795736 0.035264436 -0.013871584 -0.19215092 0.1745033 0.0734376 -0.11949096 -0.11994732
-0.23183003 -0.032022692 -0.10873281 -0.19966906 -0.16460328 0.13979387 -0.00040068783 -0.163563
0.0156133 0.028521169 0.11863282 0.0672866 0.12655465 0.046427596 0.118482746 -0.2334373
0.15870334 -0.1158951 0.11091587 -0.06686352 -0.17529479 0.0066497764 0.029835645 -0.18991719
0.02515054 -0.15571152 -0.07816666 0.048285004 -0.21767491 -0.20499861 0.087205194 -0.18167834
8.2955325e-05 -0.11522039 0.12795053 0.1066721 0.08572264 0.105709866 -0.0069544124 0.048876625
0.04925711 0.14968142 -0.18778317 -0.09242609 0.07581182 0.20476767 -0.11943039 -0.08167048
0.033181135 -0.16523638 -0.23713708 -0.008571869 -0.2486258 -0.091727056 -0.10460793 -0.22461309
-0.05564936 0.1681239 -0.11773259 0.008070663 -0.0019716367 -0.1524491 -0.048601277 0.2574678
-0.13002294 0.029218106 0.0939043 -0.008236571 -0.09444844 0.03571683 0.15212306 -0.069523625
-0.05660503 0.14022726 -0.19847515 0.018106917 0.157687 -0.026455041 0.121127464 0.046417087
0.11129873 -0.31638053 0.10849742 -0.013822207 0.016612453 -0.097160034 0.061221275 -0.0986185
-0.072545126 -0.14543144 0.17299666 0.11238501 -0.114514045 0.097715676 -0.096291944 0.058221474
-0.06849968 0.14947787 -0.19169867 0.04204132 0.03734068 -0.07920456 0.2554013 -0.092256434
-0.0060590473 -0.26756907 -0.09926399 0.016969906 0.060807828 -0.18666756 -0.04762336 0.07415769
0.2214678 -0.03829448 0.22918484 -0.16498353 0.056936562 0.09073743 -0.13103752 0.12904535
-0.118669935 -0.10761158 -0.044303562 -0.114349514 -0.044714358 -0.012040605 -0.10968023 -0.19245608
-0.036693648 0.04547871 -0.11792933 -0.0026618044 0.017065443 0.121678874 -0.09674092 -0.14370547
0.025400778 -0.17710741 0.10121703 0.07279604 0.23815261 0.11992328 0.13741128 -0.21824555
0.19745505 -0.14584786 0.0932864 -0.13341779 -0.099175945 -0.0063846284 0.20754471 0.19160025
0.122956164 -0.059197757 0.0007120526 -0.058233898 -0.15617998 0.11501626 0.027419496 -0.15749666
-0.14806522 -0.09582281 0.006354127 0.057316437 -0.025472904 -0.018703863 -0.07654118 -0.16755277
0.19059679 -0.09247944 -0.105087176 0.03155773 -0.02640541 -0.08700246 -0.009028645 -0.1975311
0.068385564 -0.24569254 -0.14250879 -0.19329989 -0.20076457 0.2784259 -0.122630164 -0.11956198
-0.23035444 0.032270193 -0.0832688 0.2053577 0.086180024 0.14022751 -0.053557727 -0.01012971
-0.18501824 -0.15859997 -0.07027994 0.03607369 -0.16676708 -0.17627986 -0.12115284 -0.17386056
-0.019730069 0.15060253 -0.0041357153 -0.22679731 0.15500504 0.19982906 -0.019842949 -0.10199853
-0.1332399 -0.13446788 0.082571 0.061568495 -0.07102232 -0.08746194 0.026335107 -0.18175521
-0.15898854 -0.1049085 0.0807109 0.16698422 -0.007303062 0.021670103 0.103280745 -0.21201691
-0.05593684 0.086455055 -0.2312191 0.121191226 0.008949007 0.13263401 0.09829593 0.15386802
-0.07957637 0.088759065 -0.038736083 -0.09084525 0.20995149 0.03363874 -0.15648997 0.04740408
0.02136958 0.08606849 0.014303286 -0.14831316 0.025676792 -0.07662502 -0.23899114 -0.0030769003
