BirdNet_Trained_Model/trained_model_classifiers/Custom_Classifier13.tflite (tflite, 111776 bytes, 2 tensors)

sequential/dense/BiasAdd/ReadVariableOp f4 [27]
00000000: e701 92bc ecae e7ba eec5 efbc c694 20bc
00000010: 4292 1cbd 96f2 e0bc 2d85 12bd ff20 d8bc
00000020: 1d3a e1bc 3101 0e39 e9f1 9ebc 844c d2bc
00000030: 54a2 1bbd a954 10bd 43b9 58bc e55d 2bbb
00000040: 3ad1 693b 5897 8cbc e70a dcbc 4dc8 ecbc
00000050: eeea 9abc a811 20bd a292 12bd 3dee 21bd
00000060: 9133 3abc 8006 5fbc 847c dfbc
-0.017823173 -0.0017676032 -0.029269185 -0.009801095 -0.03822542 -0.027459424 -0.035771538 -0.026382921
-0.02749353 0.00013542619 -0.019402461 -0.025671251 -0.037996605 -0.03523699 -0.013227764 -0.0026148495
0.0035677687 -0.01716201 -0.026860667 -0.028904105 -0.018910851 -0.03907934 -0.03578437 -0.039533842
-0.011364833 -0.01361239 -0.027281053

sequential/dense/MatMul f4 [27, 1024]
00000000: a194 ecbc fafa e53d 8918 96bc b137 0d3d
00000010: 0037 e0bd 0d33 36be c22c 473d bd42 6abe
00000020: ea80 a23d c9aa 34bc 3781 52bd 8e67 19bf
00000030: cdd1 0cbc 57d8 3d3d ccd0 b93b 4382 113e
00000040: 6478 3ebe fac3 10be 4144 8dbc 247e 7abd
00000050: fe22 453e 440a 1f3e 00c5 423e dd7a d8bd
00000060: 074e 37bd 4b86 003e 745d dabd 67f5 9fbc
00000070: b689 863e bb3b 6cbd 9c8c 2f3e a196 453d
00000080: ec17 9d3d f70a 32bd 3c8d 0cbe 4a27 69bd
00000090: b1b4 fbbd 03cb 413e 760e fbbd a19b df3d
000000a0: 3a40 c9bc 4536 b23d 3274 ddbe 51ad 90be
000000b0: de2b 02be 6272 47be f092 47bb 689d 093e
000000c0: 6ffd fcbe 3c23 81bd c128 373c 9c26 843d
000000d0: ece4 c9be 0e4c b1bc 4e75 a53e b8de 883d
000000e0: c44a 8dbd d8ca bebd fdcd 293d 5401 0cbe
000000f0: 2ec4 033e 919b 0ebe 89b6 0ebe 3504 a03c
00000100: dc14 54be e412 4dbd 1d9d a43d 034f 1a3e
00000110: eefc 2abe 9075 a9bd 18b2 cdbd bc8b 323d
00000120: be07 23be 3b7f bc3d 11a1 b53c e6f7 593e
00000130: 475b a9be 6892 6c3d 7a0b 123e a122 b63d
00000140: b65e e3be c925 a1bc 05d5 7cbe 3270 48bd
00000150: e868 ab3e 2fc8 52be 7bb9 0dbd 060a 1fbe
00000160: 1c57 923e da93 dabd 9cb7 6dbe 81c7 08bf
00000170: ae0b a8bc af3f b63d 9246 e3bc 838f 433e
00000180: e0b9 503e d829 bc3d 8cc4 e6bd 669c c93d
00000190: 8eef 90bd 07e6 52be 8846 4dbc 4674 9abd
000001a0: 0497 9139 f78d cdba 2d72 03be 2eae e6bc
000001b0: ff98 cf3d ea80 ecbd f770 55be fd30 8fbd
000001c0: 35ad 23be efa2 37bd f089 b93d e6e8 0cbf
000001d0: 4349 febd 4151 ce3d f005 92bd 9102 fabc
000001e0: 56e5 9c3d 4724 4f3b 3dac 1ebe 64af 8e3b
000001f0: 5455 f7be ecdf fcbd aabc 503e 6557 433e
00000200: b5b7 a9be 5277 a43e 8da8 423e 2bfe e3be
00000210: 7579 483e f1fc 91be 36fb d53c 20ad e0bd
00000220: ec84 c0bd d2a6 993d c60c 91be bf0e 3fbd
00000230: c04a b63d b084 73be aac0 febe c547 20bf
00000240: b564 babd 166b f2bd 5027 b5be 367e ebbd
00000250: f139 90bd 214e 643e bb87 7b3d efe6 653e
00000260: 1187 e93d af79 313d 503d 433e be26 ccbd
00000270: f8a7 8ebd c78c 57be d91d f23c c0cb 8abd
00000280: 93f3 5dbe ceb0 b1be 5998 1cbe 5ee2 f7be
00000290: e559 4a3e eb7d 2abe c0a4 093b 9331 813d
000002a0: 239b e7bd ed24 b93d 550b 80be 1854 82be
000002b0: 0ed1 223e c03b a23c dce8 10bd 32e9 e2bb
000002c0: 5ac8 e2bd 85cb 25be 0250 0ebe 15e3 6ebd
000002d0: b966 15be 34fb b73c a506 893e 232e 873b
000002e0: 028b 8e3a a862 963e ca99 ecbd 2c8e 36bc
000002f0: 1578 59be b520 6d3e b6bc e2be 63e5 d63e
00000300: 997e fdbd 0be0 153e 8059 403e 78a2 503e
00000310: a74d 83bd 0385 aebe f3bc b8be d3f2 11be
00000320: 92f6 9f3d 19fb 3b3c 68b9 98bc f401 8c3c
00000330: 6585 d83e 578f 21bc c080 7a3d 0e00 ecbd
00000340: 8cb8 66be 21ba 343d e279 4a3d a705 ab3d
00000350: f11f 65be 1764 553e 5195 773e 016f 88be
00000360: 039d 20bd 42cf 92be 1733 843d e4af 0cbd
00000370: 3d89 ffbd caba e1bc c5bd 60be 7eb2 323d
00000380: 4213 173e 7dbc bd3c 46d8 04be 6a66 b1bd
00000390: 0469 693e e1e3 1bbd 01ee 68be b8b6 393e
000003a0: 54c6 e6bd 220c 63be 9698 7ebc f693 af3b
000003b0: 6320 3cbd e5a5 913d 70b0 45be 9ba3 013e
000003c0: 4961 a03c 70e4 583d ad47 de3b 8974 ab3c
000003d0: 3ebe f6bd b1b0 2b3c 76d3 b4bc c97c 8fbb
000003e0: 213b 70be 3084 3d3e 69df d1bc 74d4 21be
000003f0: 7e8a 23bf b48b f9bd 0606 2339 2905 e23d
-0.028879466 0.112295106 -0.018322246 0.03447694 -0.109479904 -0.17792912 0.04862667 -0.22877021
0.07934745 -0.0110270465 -0.05139276 -0.59923637 -0.008594942 0.046348896 0.0056706425 0.14209847
-0.18600613 -0.14137259 -0.01724446 -0.061155453 0.1925163 0.1553126 0.19020462 -0.10570309
-0.044752147 0.12551229 -0.10662356 -0.019526197 0.2627694 -0.05767415 0.17143482 0.048239354
0.07670578 -0.04346749 -0.13725752 -0.056922235 -0.122903235 0.18925099 -0.122586176 0.10918356
-0.024566758 0.08701757 -0.43252712 -0.2825723 -0.12712047 -0.19477227 -0.0030452572 0.13438952
-0.49412104 -0.063055485 0.01117915 0.06452677 -0.39432466 -0.021642711 0.3231606 0.06683105
-0.06899026 -0.09316033 0.04145621 -0.13672382 0.12867805 -0.13926531 -0.13936819 0.019533256
-0.20711082 -0.050066844 0.080377795 0.15069203 -0.16698048 -0.082743764 -0.10043734 0.043590292
-0.15920922 0.09203955 0.022171529 0.21285972 -0.33077452 0.05775681 0.1426219 0.08893324
-0.44408196 -0.019671338 -0.24690636 -0.048935123 0.33478475 -0.20584176 -0.034600716 -0.15531167
0.28582084 -0.10672732 -0.23214573 -0.5342942 -0.020513382 0.088988654 -0.027743611 0.19097714
0.20383406 0.091876686 -0.11267957 0.09844284 -0.070769414 -0.20595561 -0.012529023 -0.07541709
0.0002776907 -0.0015682568 -0.12836523 -0.028159227 0.101366036 -0.11548026 -0.20843874 -0.06991766
-0.15984042 -0.04483312 0.090595126 -0.55042875 -0.12416317 0.10074092 -0.07130039 -0.030518802
0.0766093 0.0031607316 -0.15495391 0.0043544043 -0.48307288 -0.12347397 0.2038447 0.19076307
-0.3314797 0.32122284 0.1900961 -0.44529852 0.19577582 -0.2851329 0.026120763 -0.10970521
-0.09400353 0.075025216 -0.28330058 -0.046644922 0.08900976 -0.23781085 -0.49756366 -0.6260951
-0.091012396 -0.11836831 -0.35381556 -0.11498682 -0.070423014 0.22295429 0.06140874 0.22451375
0.11402715 0.043328937 0.19066358 -0.09968327 -0.06965631 -0.21049796 0.029555248 -0.067771435
-0.21674947 -0.34705204 -0.15292491 -0.48414892 0.19760855 -0.16649596 0.002100274 0.06308284
-0.11308887 0.09040246 -0.25008646 -0.25454783 0.1590006 0.019803882 -0.035378322 -0.0069247717
-0.1107337 -0.16190918 -0.13897708 -0.05832203 -0.14589967 0.02245865 0.26762882 0.004125373
0.0010875168 0.29372144 -0.115527704 -0.011142295 -0.21237214 0.23157008 -0.442846 0.41971883
-0.12377662 0.14636247 0.18784142 0.20374477 -0.064112954 -0.34085855 -0.36081657 -0.14252786
0.078107014 0.011473441 -0.018643096 0.017090775 0.42289272 -0.009860835 0.06115794 -0.11523448
-0.22531337 0.04412282 0.049432643 0.083506875 -0.22375466 0.20838962 0.24178053 -0.2664719
-0.039212238 -0.2867375 0.06455057 -0.03434743 -0.12477348 -0.027554888 -0.21947391 0.043627255
0.1475344 0.023161167 -0.12973127 -0.08662112 0.22793967 -0.03805912 -0.22747041 0.18136108
-0.11268297 -0.22172597 -0.015539309 0.0053582145 -0.045929324 0.0711172 -0.19305587 0.12660067
0.01957764 0.05295223 0.0067834468 0.020929592 -0.120480046 0.010479138 -0.022073489 -0.004378889
-0.23460056 0.18507457 -0.025619226 -0.158037 -0.638832 -0.121848494 0.00015547135 0.110361405
