BirdNet_Trained_Model/trained_model_classifiers/Custom_Classifier9.tflite (tflite, 111776 bytes, 2 tensors)

sequential/dense/BiasAdd/ReadVariableOp f4 [27]
000000 86 e4 80 bc 05 32 d0 3a 30 58 bf bc 29 aa bc bc
       -0.015733968 0.0015884048 -0.02335748 -0.023030357
000010 b3 21 15 bd 4d 0a dc bc aa f8 e9 bc 17 dd ce bc
       -0.03640909 -0.02686038 -0.028560955 -0.025251908
000020 74 cb cd bc 02 b2 cf bb 73 fb 9a bc 7f 6b c9 bc
       -0.025121428 -0.006338359 -0.018918728 -0.024587391
000030 d5 06 21 bd 75 61 11 bd 9b f1 97 bc 64 b5 40 bc
       -0.039313156 -0.035493333 -0.018547824 -0.011761997
000040 75 cf 9c bb dc 08 a8 bc 73 84 fa bc e3 26 f1 bc
       -0.004785473 -0.020512037 -0.030580735 -0.029437488
000050 1d 2d 9e bc 70 fb 20 bd 55 28 1d bd 19 14 2c bd
       -0.019308621 -0.03930229 -0.03836854 -0.042011354
000060 42 1b 8d bc 28 de 37 bc e7 95 ad bc
       -0.017224912 -0.0112224 -0.021189643

sequential/dense/MatMul f4 [27, 1024]
000000 03 61 ef 3c d7 3c 09 3e 2d a9 74 bc 1e 34 1a 3d
       0.029221063 0.13402115 -0.014932913 0.03764736
000010 9f 40 98 bd 37 07 62 be 95 9b 9a 3c c9 d7 89 be
       -0.074342005 -0.22073065 0.018873015 -0.26922444
000020 9f 2a ee 3d aa bd 05 bc d9 27 30 bd 96 53 22 bf
       0.11629223 -0.008162895 -0.04300675 -0.6340879
000030 0d 00 db bc 95 a6 b7 3d 79 27 fb bc 21 54 27 3e
       -0.026733423 0.0896732 -0.03065847 0.16340686
000040 ad 50 f3 bd f1 cb e0 bd 35 c8 6d 3b 37 66 cf bc
       -0.11880622 -0.10976399 0.0036282663 -0.025317295
000050 de c0 f5 3d 2b ec 41 3e ac 34 28 3e 88 25 4f bd
       0.11999677 0.18937747 0.16426343 -0.050572902
000060 dc 03 ca bd 8e 06 ce 3c 4d f7 d8 bd 7e da 3e 3d
       -0.09864017 0.02514961 -0.10594044 0.04659509
000070 73 c2 43 3e 20 76 67 3c 51 19 01 3e 38 b3 01 3e
       0.19117145 0.014127284 0.12607314 0.12666023
000080 3d 8d d2 3d 10 e8 93 bc 14 2b f8 bd 46 39 ce bd
       0.10280845 -0.018054992 -0.121175915 -0.10069518
000090 99 0c 03 be 18 71 65 3e d9 58 ad bd fa a8 02 3e
       -0.12797774 0.22406423 -0.08464212 0.12759772
0000a0 6e 47 10 bd 09 a3 9d 3b 90 ba 35 bf 75 98 99 be
       -0.03522437 0.004810695 -0.70987797 -0.29999128
0000b0 12 d2 0b be a5 30 8f be 60 2d a9 3d ea 8c 31 3e
       -0.13654354 -0.279668 0.08260608 0.1733891
0000c0 60 4f 18 bf 9a 71 12 3b 9b e9 89 bd 07 52 94 3b
       -0.59496117 0.0022345544 -0.0673401 0.00452638
0000d0 d3 11 cf be 87 58 12 bc 8a fa c0 3e fa 41 8c 3d
       -0.40443286 -0.008932239 0.37691146 0.068485215
0000e0 15 5d 0b be 1e 88 48 be de 23 0c bc 73 86 4e be
       -0.13609727 -0.19583175 -0.008553473 -0.20168476
0000f0 8b 55 22 3e d0 74 0a be 01 d7 c2 bd a2 a2 31 3e
       0.15852945 -0.13521123 -0.09513665 0.17347196
000100 e6 b8 4a be 37 b8 38 bd 06 76 37 3d e4 14 f5 3d
       -0.19797096 -0.045097556 0.04479029 0.11966875
000110 72 90 56 be 84 4e b3 bd 08 73 ea bd de 22 ad 3d
       -0.20953539 -0.0875521 -0.11447722 0.08453916
000120 94 b4 1e be da f3 4c 3e f2 94 bd 3c a2 f5 6f 3e
       -0.15498573 0.20014897 0.023142312 0.23433545
000130 b4 35 c5 be c8 ae 7e 3d 67 49 1c 3e 1b 36 ec 3d
       -0.38517535 0.062178403 0.15262376 0.11533757
000140 a8 c6 f4 be b7 02 ad bd 83 a1 6f be a2 fd 0f bc
       -0.47807813 -0.084477834 -0.23401456 -0.008788498
000150 03 70 76 3e 57 84 06 be 2b 46 e9 bd db 95 a1 bd
       0.24066167 -0.13136421 -0.113903366 -0.07889911
000160 e9 d3 9f 3e 4a ed b2 bd 46 eb bb be 4c b5 f2 be
       0.31216362 -0.087366655 -0.36702937 -0.47403944
000170 62 8a 76 bc f2 ed 5d 3d 8c d6 2f 3d d5 7c 45 3e
       -0.0150476415 0.054182 0.042929217 0.19285901
000180 83 51 0a 3e c6 d0 38 bc 97 bd d9 bd 90 a8 7d 3d
       0.13507657 -0.011280244 -0.106318645 0.06192833
000190 b8 7e 06 bd 7b 1b 8e be f0 37 8b bd fd 7b 1a be
       -0.032835692 -0.2775534 -0.067977786 -0.1508636
0001a0 4e 94 1f 3d 62 72 97 3d 3b 85 ae bd a4 60 20 bd
       0.038959794 0.07394864 -0.085215054 -0.039154664
0001b0 1c 9b 3c 3d e1 be 23 be 88 d9 b7 be 94 8f f7 bd
       0.04604636 -0.15990783 -0.3590815 -0.12087932
0001c0 5f ec 24 be 0f f3 30 3c a8 ad 69 3c 3a 7d 25 bf
       -0.16105793 0.010800137 0.014262594 -0.64644206
0001d0 47 37 0b be 49 e3 43 3d 4b 79 9b bd 71 d8 d7 bc
       -0.13595305 0.047824178 -0.07591494 -0.026348324
0001e0 1c b2 fd 3d 5a d7 01 bd f1 08 20 be 20 7b 16 bd
       0.12387487 -0.031699516 -0.15628411 -0.036738515
0001f0 6e b1 08 bf 78 0b b8 bd b0 13 4e 3e 3d 78 05 3e
       -0.53395736 -0.089865625 0.20124698 0.13034149
000200 93 da a4 be 79 5a 8f 3e 35 41 24 3e 30 dd e7 be
       -0.3219801 0.27998713 0.160405 -0.4528594
000210 e2 cd 28 3e af 96 6b be 94 ed 18 3e ad 8b d9 bd
       0.16484788 -0.230067 0.14934379 -0.10622344
000220 60 99 3e be 86 18 30 3e 94 7c 72 be 20 12 16 3c
       -0.18613195 0.17196855 -0.23680335 0.009159595
000230 3b 38 8c 3d 32 26 36 be 3b bb af be 61 e1 21 bf
       0.068466626 -0.17788008 -0.34322533 -0.63234526
000240 6d e7 fc bd d1 49 00 be c4 c4 d4 be d6 ea e0 bd
       -0.123488285 -0.12528159 -0.4155637 -0.109822914
000250 15 09 11 3c 45 cb 58 3e fa b6 ab 3d d9 65 7f 3e
       0.008852263 0.21171291 0.083845094 0.24941196
000260 a5 a1 02 3e 32 f0 81 3d 71 77 06 3e e9 99 93 bd
       0.12756975 0.06344642 0.13131501 -0.072070904
000270 a1 66 13 be d9 63 55 be bc ff 14 bc c9 6f 2b bd
       -0.14394619 -0.2083887 -0.009094175 -0.041854654
000280 4f e0 52 be ee b6 b1 be ed ee 49 be ad 77 05 bf
       -0.2059338 -0.34709877 -0.19720049 -0.52135736
000290 f6 90 18 3e c7 f3 fc bd 52 b3 2c 3d 44 ba 1c 3e
       0.14899048 -0.12351184 0.0421632 0.1530543
0002a0 8e ed fd bd 4f ce 27 3e 5f 8b 60 be 46 75 7a be
       -0.123988256 0.16387294 -0.21928166 -0.24458799
0002b0 87 63 7c 3e 23 79 06 3d 9e cf 5c 3d 49 d2 ee 3c
       0.24647342 0.03283037 0.053908937 0.029153006
0002c0 3d c0 18 be 94 3c 46 be 0a d1 24 be 8e ea c6 bc
       -0.14917083 -0.19359046 -0.16095367 -0.024281766
0002d0 d8 34 11 be 5d e8 e5 bd 48 9b 8b 3e 29 87 38 bd
       -0.14180315 -0.112259604 0.27266908 -0.045050774
0002e0 fe d3 30 3d cb c0 85 3e 51 13 17 be c7 00 b2 3d
       0.04317092 0.26123652 -0.14753462 0.086915545
0002f0 86 5b 1e be 8b 0f 84 3e cf 7e e1 be 70 3a cf 3e
       -0.15464601 0.25793108 -0.4404206 0.40474272
000300 f3 4e 19 be 9c 15 cd 3d 60 af 55 3e 64 39 4f 3e
       -0.14971523 0.10013887 0.20867682 0.20236737
000310 04 a3 ca 3b 02 91 52 be 36 9d 97 be 89 a8 18 be
       0.0061839838 -0.20563129 -0.2961213 -0.14908041
000320 a4 b3 81 3d 94 fa ac 3c 4b ee a8 bd b1 30 d2 3d
       0.06333092 0.021115579 -0.08248576 0.102631934
000330 9f 48 b2 3e 2a d1 51 3d 06 0d 44 3d d6 fd a8 bd
       0.3482103 0.051224865 0.047863983 -0.0825154
000340 32 57 51 be 11 8c b7 3d af d8 74 3c 5a 35 3b 3e
       -0.20443419 0.089622624 0.0149442395 0.18282071
000350 95 92 69 be 33 a4 97 3e 9a d1 51 3e b2 c7 81 be
       -0.22809823 0.29617462 0.20490113 -0.25347668
000360 85 28 d8 bc fd 3f 8b be 7b e4 e4 3d 1b d1 52 3b
       -0.026386509 -0.27197257 0.11176392 0.0032168094
000370 de 8c 33 be 00 dc 55 3d 08 1a 86 be a7 94 07 3d
       -0.17534205 0.05221176 -0.26191735 0.03310075
000380 00 6f cd 3d d9 56 64 3d 0f 8c f7 bd 93 63 92 bd
       0.10030937 0.055746887 -0.12087261 -0.071478985
000390 21 05 82 3e 59 ad c3 bc c2 e0 06 be 7d 95 dc 3d
       0.25394538 -0.02388637 -0.13171676 0.107707
0003a0 05 b4 1b be 54 57 49 be ae 70 5b 3d 23 88 b1 3d
       -0.15205391 -0.1966222 0.053574257 0.08668544
0003b0 15 69 f6 bd 60 4b 51 3c 61 fb 2f be ed eb 13 3e
       -0.120317616 0.012774318 -0.17185737 0.14445467
0003c0 a4 22 a8 3d 12 d7 06 3e 6c 93 b9 3d b0 df 67 3c
       0.08209732 0.1316798 0.090613216 0.014152452
0003d0 8d fc 40 be c8 49 8c 3d 29 94 93 bd 95 d5 ca bc
       -0.1884634 0.0685001 -0.07205994 -0.024760047
0003e0 98 5c 4d be 19 fb 2c 3e 52 13 bc 3d 6a d9 2d bd
       -0.20054853 0.16892661 0.091833726 -0.04244367
0003f0 34 2c 33 bf 0c 27 a4 bd a2 4b b0 bd 51 ed b4 3d
       -0.69989324 -0.0801526 -0.08608176 0.08834327
