BirdNet_Trained_Model/trained_model_classifiers/Custom_Classifier3.tflite (tflite, 111776 bytes, 2 tensors)

sequential/dense/BiasAdd/ReadVariableOp f4 [27]
0	0xbcd4e96d	-0.025990212
1	0x3d0729a8	0.03299871
2	0xbdfd0d14	-0.1235601
3	0xbd27b3f9	-0.04094312
4	0xbf19acb0	-0.60029125
5	0xbdde6174	-0.108584315
6	0xbe2248a2	-0.1584802
7	0xbdec817c	-0.11548135
8	0xbe2a1389	-0.16609015
9	0xbca0f0d4	-0.019646086
10	0xbda6f47a	-0.08152099
11	0xbdbaca46	-0.09120612
12	0xbe173f58	-0.14770257
13	0xbe0e9443	-0.13923745
14	0xbdb66543	-0.08906033
15	0xbcbccdea	-0.023047406
16	0xbc8cce8b	-0.017188331
17	0xbd9b1c55	-0.07573763
18	0xbda69d9e	-0.08135532
19	0xbda8e6f9	-0.082471795
20	0xbd8eed6d	-0.06978879
21	0xbe153f8d	-0.14575024
22	0xbe4c336c	-0.19941491
23	0xbe20c14e	-0.1569874
24	0xbd126abb	-0.035746317
25	0xbd2600bf	-0.040528055
26	0xbdd87069	-0.105683155

sequential/dense/MatMul f4 [27, 1024]
0	0x3e90c649	0.2827628
1	0x3f0f50c6	0.55982625
2	0x3e3105e5	0.17287405
3	0xbd910877	-0.07081693
4	0xbed483f5	-0.41506925
5	0xbf380925	-0.71888953
6	0x3e66e4e3	0.22548251
7	0xbf356cbe	-0.7086905
8	0x3f46b808	0.7762456
9	0x3e7dffe9	0.24804653
10	0xbe1dcc25	-0.15409906
11	0xc04a0223	-3.1563804
12	0x3ebbc283	0.36671838
13	0x3e05cf75	0.1306742
14	0xbeb5e3db	-0.35525402
15	0x3fa07454	1.25355
16	0xbf552efb	-0.8327481
17	0xbf7fb696	-0.9988798
18	0xbee2f13c	-0.44324672
19	0xbd6790c9	-0.056534562
20	0x3f944ff9	1.1586906
21	0x3f88947e	1.0670316
22	0x3ee4b064	0.44665825
23	0xbeba6a06	-0.36409014
24	0xbeead114	-0.4586264
25	0x3ee55ffe	0.447998
26	0xbe64589a	-0.22299424
27	0x3db172f0	0.08664501
28	0x3f6f3065	0.9343322
29	0xbe7b377b	-0.24532883
30	0x3f2d0979	0.6759258
31	0x3f378813	0.7169201
32	0x3f02939d	0.5100649
33	0x3e2e7195	0.17035516
34	0xbf4ff7ff	-0.81237787
35	0xbf0ff4ed	-0.562331
36	0xbf6cf292	-0.9255763
37	0x400ceea9	2.2020667
38	0xbf5fb509	-0.8738561
39	0x3f42dc6d	0.76117593
40	0x3e730196	0.23731074
41	0xbee4d399	-0.44692686
42	0xc08558b1	-4.1670766
43	0x3eb886fe	0.3604049
44	0xbedaf5ab	-0.42765555
45	0xbf8f0bf4	-1.1175523
46	0x3eecf16b	0.46277937
47	0x3e060cd4	0.13090831
48	0xc028b1a4	-2.6358423
49	0x3ddf3620	0.108989954
50	0x3dc03701	0.09385491
51	0x3f935fa7	1.1513566
52	0xbfaf2f29	-1.3686267
53	0x3ea828a4	0.32843506
54	0x3fbc16be	1.469444
55	0x3f0d7b8b	0.55266637
56	0xbf87fad9	-1.0623428
57	0xbec91e0d	-0.3928074
58	0x3e479c45	0.19493206
59	0xbfc75976	-1.5574176
60	0x3fea04de	1.8282735
61	0xbf40c11d	-0.7529467
62	0xbf0fed2b	-0.56221265
63	0x3f84b80a	1.0368664
64	0xbf9f211e	-1.2431982
65	0xbf077dea	-0.52926505
66	0x3edafdce	0.42771763
67	0x3fba6175	1.4560992
68	0xbf6ca082	-0.92432415
69	0xbf31503e	-0.69263065
70	0xbf367316	-0.7126936
71	0x3f57551f	0.8411426
72	0xbed9bd50	-0.42527246
73	0x3fa53dbc	1.2909465
74	0x3ef69d55	0.4816691
75	0x3fcc37c1	1.5954515
76	0xc0242e5f	-2.5653303
77	0x3e821573	0.2540699
78	0x3f457191	0.77126414
79	0x3e4a88f1	0.19778802
80	0xc0466623	-3.099984
81	0xbeb2eb5f	-0.349452
82	0xbfd36b9b	-1.6517214
83	0xbbbecdce	-0.0058228737
84	0x4003b51a	2.0579286
85	0xbf47bec6	-0.7802547
86	0xbf498270	-0.78714657
87	0xbfa0ed7d	-1.2572476
88	0x40024d91	2.0359843
89	0xbe8de1b8	-0.27711272
90	0xc00f10ac	-2.2353926
91	0xc05249bf	-3.285751
92	0xbeecb4bd	-0.46231642
93	0x3f151f7a	0.58251154
94	0x3d64d9a6	0.05587163
95	0x3f815282	1.0103304
96	0x3f4437c7	0.7664761
97	0x3f26b90a	0.651261
98	0xbf7d1d34	-0.98872685
99	0x3f008316	0.5020002
100	0xbb2b7714	-0.0026163505
101	0xbfb015c2	-1.375664
102	0xbd3eb7e8	-0.046562105
103	0xbfa35dd3	-1.2763008
104	0x3d7f1be3	0.062282454
105	0x3e59a6d2	0.21255043
106	0xbf0198ca	-0.5062376
107	0xbec01117	-0.3751304
108	0x3e8abfa1	0.27099326
109	0xbf4481bf	-0.76760477
110	0xbfc06fef	-1.503416
111	0xbef94c72	-0.48691136
112	0xbef09762	-0.46990496
113	0xbec1ef79	-0.37878016
114	0x3f46a6a0	0.77598
115	0xc077930a	-3.8683496
116	0xbd4a3c41	-0.04937387
117	0x3f05582f	0.5208768
118	0xbf013f35	-0.5048707
119	0xbf0005c7	-0.50008816
120	0x3da90a35	0.082539
121	0xbe32316c	-0.17401665
122	0xbf6b0bdb	-0.91814965
123	0xbd36ce7c	-0.044630513
124	0xbfe97736	-1.8239505
125	0xbf690885	-0.91028625
126	0x3ff96249	1.9483119
127	0xbcd91710	-0.026500255
128	0xbf91c6d3	-1.1388801
129	0x3fa8dd5d	1.3192555
130	0x3f80c527	1.0060166
131	0xc055fbbe	-3.3434901
132	0x3f3bd703	0.73374957
133	0xc010b6ae	-2.26115
134	0x3fda0503	1.703278
135	0xbf53596a	-0.8255831
136	0xbf767c10	-0.96283054
137	0x3f033c31	0.5126372
138	0xbfebeaf4	-1.8431077
139	0xbe02afc7	-0.12762366
140	0xbb38a97c	-0.0028177192
141	0xbf8983f5	-1.0743395
142	0xbfda436c	-1.7051826
143	0xc03f33c2	-2.987534
144	0x3e1fdec3	0.1561232
145	0x3e830cd5	0.25595728
146	0xbf85078c	-1.0392928
147	0xbe99f514	-0.30069792
148	0x3d29ff30	0.04150313
149	0x3eab5dfa	0.33470136
150	0x3e1ebdfa	0.15502158
151	0x40171666	2.360742
152	0x3f03b7fe	0.51452625
153	0x3ebe6922	0.37189585
154	0x3f624205	0.8838199
155	0xbf11db77	-0.569755
156	0xbf0c06c8	-0.5469785
157	0xbf397f0c	-0.72459483
158	0xbd8feefa	-0.07028003
159	0xbdfc7c4b	-0.123283945
160	0xbfb72840	-1.4309158
161	0xbf97799c	-1.1833987
162	0xbf22b96b	-0.63564175
163	0xbfd67402	-1.6754153
164	0x3e6c32d4	0.23066264
165	0xbe9cd542	-0.30631453
166	0x3cd31108	0.025764957
167	0x3e7977e4	0.24362141
168	0xbf30e709	-0.6910253
169	0x3f5c68b8	0.8609729
170	0xbfe2985a	-1.7702744
171	0xbf9b4a35	-1.2132021
172	0x3f74ef64	0.9567778
173	0x3e97158e	0.29508632
174	0xbe9ade46	-0.30247706
175	0xbee1acfd	-0.44077292
176	0xbea65e9f	-0.32494065
177	0xbf8c06c1	-1.0939561
178	0xbf77a946	-0.96742666
179	0xbf168c1c	-0.5880754
180	0xbf5aa241	-0.8540383
181	0xbf6920e6	-0.91065824
182	0x3fdbee39	1.7182075
183	0xbebe8354	-0.3720957
184	0x3cdc6e68	0.026908115
185	0x3fe86055	1.8154398
186	0xbfb552f4	-1.416594
187	0x3ded9b2c	0.11601862
188	0xbed6e484	-0.4197122
189	0x40541370	3.3136864
190	0xc01bad8a	-2.432467
191	0x408562aa	4.168294
192	0xbfae8486	-1.3634193
193	0x3e34003f	0.17578219
194	0x3f57a6c8	0.84238863
195	0x3f50321f	0.8132648
196	0xbe3448bd	-0.17605872
197	0xbfa91526	-1.3209579
198	0xc034c8df	-2.8247602
199	0xbf430994	-0.7618649
200	0x3d8e5532	0.069498435
201	0x3dccf1cd	0.10007057
202	0xbc0d8b7c	-0.008639213
203	0x3e674305	0.2258416
204	0x3ff12cfb	1.8841852
205	0xbde3424b	-0.11096629
206	0xbda57164	-0.08078268
207	0xbf44977d	-0.7679365
208	0xbf332f08	-0.6999364
209	0x3c764aab	0.015032451
210	0x3e038215	0.12842591
211	0x3f8caf83	1.0991062
212	0xbf9a9696	-1.2077205
213	0x3fce26a3	1.6105541
214	0x3f7c8fdd	0.9865702
215	0xbf665ebb	-0.899883
216	0x3ef6bc51	0.4819055
217	0xbf984805	-1.1896979
218	0x3ee01533	0.43766174
219	0xbd31872e	-0.043341808
220	0xc0092098	-2.1426144
221	0x3d884623	0.066540025
222	0xbf24cd00	-0.64375305
223	0x3e67e080	0.22644234
224	0x3f95781a	1.1677277
225	0x3ec471cf	0.3836808
226	0xbedc5d0b	-0.43039736
227	0xbf47ca45	-0.78043014
228	0x3f3acb19	0.7296615
229	0x3bc745cc	0.0060813185
230	0xbf452893	-0.77015036
231	0x3ef25d93	0.47337016
232	0xbf7c720d	-0.9861153
233	0xbf874022	-1.0566447
234	0x3ed2c219	0.4116371
235	0x3e8b62c4	0.2722379
236	0xbeeb3a98	-0.4594314
237	0xbd69dca5	-0.05709519
238	0xbf3e5d94	-0.7436154
239	0x3f663171	0.8991919
240	0x3d157f09	0.036498103
241	0x3ebc8324	0.36818802
242	0x3f2db4a5	0.67853767
243	0xbe7ca1d2	-0.24671105
244	0xbf44bd7b	-0.76851624
245	0x3e6c87ba	0.2309865
246	0x3e3bf69d	0.18355794
247	0xbe1bf212	-0.15229061
248	0xbf79e458	-0.9761405
249	0x3fbc4c47	1.4710778
250	0x3e5f02a7	0.21778356
251	0x3ebe1e17	0.37132332
252	0xc075721c	-3.8350897
253	0xbe9bd622	-0.30436808
254	0xbf3a39d4	-0.7274449
255	0x3ef5d60a	0.4801486
