BirdNet_Trained_Model/trained_model_classifiers/Custom_Classifier11.tflite (tflite, 111776 bytes, 2 tensors)

sequential/dense/BiasAdd/ReadVariableOp f4 [27]
000000 67 ff 93 bc 8c 79 c1 bb 7e dc 1d bd ff f6 95 bc
       -0.018066121 -0.005904382 -0.038540356 -0.018306253
000010 bf 55 86 bd 27 4f 06 bd c8 c5 5a bd 47 98 25 bd
       -0.065593235 -0.03279033 -0.053411275 -0.040428426
000020 5d fc 1b bd 7c 4f a7 bb a0 1a b9 bc ad d9 3e bd
       -0.03808247 -0.005105911 -0.022595704 -0.04659431
000030 40 1c 9c bd 8f ba 45 bd 79 9f 14 bd bd 83 25 bc
       -0.07622576 -0.04827362 -0.036284897 -0.01010221
000040 85 b0 80 bb d1 f7 2e bd ff 38 85 bd 69 6c 5a bd
       -0.003927293 -0.042716805 -0.06505012 -0.053326044
000050 45 c4 9a bc 6a 46 68 bd 2d 2e 69 bd f4 40 7e bd
       -0.018892417 -0.056707777 -0.056928802 -0.062073663
000060 25 d9 0a bd 25 e2 e8 bc b8 f8 17 bd
       -0.03389849 -0.028428147 -0.03710243

sequential/dense/MatMul f4 [27, 1024]
000000 95 9c ad be 8d a9 16 3f 2c eb 3e 3e 24 1e 50 bd
       -0.33908525 0.58852464 0.18644398 -0.050809994
000010 84 55 ab be db 6f bf be 61 fc 08 3e 59 af e2 be
       -0.3346368 -0.37390026 0.13377525 -0.44274405
000020 2d 25 b1 3e 2d de 84 3d f6 08 e3 3c f2 e1 c1 bf
       0.34598675 0.06487689 0.027714234 -1.5147078
000030 c8 cb 04 3e a2 11 fd 3c ce 0e 15 be 6d d5 d5 3e
       0.12968361 0.030892197 -0.14556429 0.41764393
000040 de b9 a7 be eb c4 d1 be 97 6b 18 be bf 38 06 be
       -0.32758993 -0.4097055 -0.14884792 -0.13107584
000050 da de f8 3e 12 ba da 3e c6 c8 a2 3e b4 e7 2e be
       0.48607522 0.42720085 0.31793803 -0.17080575
000060 93 e6 5e be 25 36 a5 3d c1 ff 2d be 61 8b 3f 3e
       -0.21767645 0.08066968 -0.16992094 0.18705513
000070 6d 6c 6c 3f 1b 03 0e be 04 bd 72 3e f7 51 a7 3e
       0.92352945 -0.13868372 0.23704916 0.32679722
000080 cb 06 8b 3e 59 6c 4c 3d 67 65 3c be b8 27 35 be
       0.2715362 0.049908016 -0.18398057 -0.17690933
000090 b5 08 8e be 35 50 82 3f 1e bd c2 be 67 b3 a5 3e
       -0.27741018 1.0180727 -0.3803491 0.32363436
0000a0 ea 4a ac 3d 1b 8f b3 3c 7e 5f 08 c0 42 7d 06 3e
       0.08412726 0.021918824 -2.1308284 0.1313372
0000b0 5f 1a 7e be 65 53 5e be 12 c6 f0 3e 8b 6f 6d 3e
       -0.24814747 -0.217115 0.47026116 0.23187082
0000c0 d5 87 b3 bf 23 76 59 3d 03 d7 81 ba 9c e4 0a 3e
       -1.4025828 0.05309118 -0.0009905997 0.1356377
0000d0 0e fc 4d bf 0a 3e 10 3e 09 61 43 3f ed d6 52 3e
       -0.8046273 0.14086166 0.7631994 0.205898
0000e0 4d 55 41 bf 01 4b 06 bf e6 b8 2e 3d 4b e2 27 bf
       -0.75520784 -0.52458197 0.0426568 -0.6557967
0000f0 3f 5a 16 3f e5 f1 55 be 41 61 04 be 3f a3 bf 3e
       0.58731455 -0.20893057 -0.12927724 0.37429234
000100 cd fc 11 bf 2a 2f 74 be 27 20 a6 3e f5 ea a1 3e
       -0.5702637 -0.23846117 0.32446405 0.3162457
000110 5c 3e b0 be 69 21 9d be 57 b7 aa be a8 bd 9a 3e
       -0.34422576 -0.30689552 -0.33343002 0.3022282
000120 9e 28 65 be eb 64 05 3f ce 62 69 3e 7f 95 f0 3e
       -0.22378775 0.52107114 0.22791597 0.46989056
000130 aa a6 8d bf 4b 1b 0a 3e 4e 6b bd 3e ef a3 b0 3d
       -1.1066487 0.13486974 0.3699593 0.08625018
000140 43 34 65 bf 67 5a 48 be 71 a6 41 bf af 2f f6 3d
       -0.8953287 -0.19565736 -0.75644594 0.12020814
000150 86 ea 60 3f b9 7e aa be 9e cf 9e be 3b b7 b7 be
       0.87857854 -0.33299807 -0.31017774 -0.3588198
000160 ab a6 2a 3f 0c c0 8d bd 84 47 ca be bd 21 c6 bf
       0.66660565 -0.06921396 -0.39507687 -1.5479046
000170 e3 18 24 be 84 52 91 3e 6e a2 48 bd de 32 27 3f
       -0.16025119 0.28383267 -0.04898303 0.6531199
000180 f5 fb de 3e de 73 5d 3e e0 e6 e5 be 5c 21 82 3e
       0.43551603 0.21626231 -0.44902706 0.25416076
000190 07 b1 75 3d 46 3f 34 bf f4 3d 96 bd e6 ae c3 be
       0.05998328 -0.7040905 -0.07336035 -0.38219374
0001a0 89 ca 31 bd 7e e5 7f bc 59 10 83 be 1a 95 50 be
       -0.043406043 -0.01561868 -0.2559841 -0.20369378
0001b0 ac 47 69 3e 9f 41 a5 be f9 12 8b be e5 93 9a be
       0.22781247 -0.32276627 -0.27162912 -0.3019096
0001c0 f0 27 94 be 01 b4 fb 3c bf 4f 90 3e d9 bd db bf
       -0.2893672 0.030725481 0.2818584 -1.7167312
0001d0 b7 df 8a be 2a 69 c3 3e b9 34 85 be ef e8 7c bd
       -0.27123806 0.3816617 -0.26016787 -0.06174558
0001e0 ec b5 47 3d 2c a6 2f bd 7e 78 08 bf a9 c5 63 3c
       0.04875748 -0.042883083 -0.53308856 0.013902106
0001f0 c0 89 98 bf 4c 46 b7 be 7b d5 73 3f e0 bc 0a 3d
       -1.1917038 -0.3579582 0.9524762 0.03387153
000200 92 a4 06 bf e9 41 0a 3f 2e dd ab 3e 31 80 45 bf
       -0.52594864 0.5400682 0.33567184 -0.7714873
000210 45 bc 0a 3f 9f 4a 1f bf af 5e ab 3e 98 ae c7 be
       0.54193527 -0.6222324 0.33470675 -0.39000392
000220 e8 1f e4 be b1 46 3e 3e 69 03 32 bf 6a 18 b0 bd
       -0.44555593 0.18581654 -0.69536453 -0.085984066
000230 fe 77 30 3e c4 2d 0b bf 26 be 51 bf 83 80 ae bf
       0.17233273 -0.5436671 -0.8193077 -1.3632969
000240 91 75 61 bd 4e 65 c4 3b ec a1 ac be 1b d8 8e be
       -0.05504376 0.005993522 -0.33717287 -0.2789925
000250 4f 4b 93 bd 38 2e aa 3e 9b 11 9f 3d 37 02 3b 3f
       -0.07192098 0.33238387 0.0776703 0.73050255
000260 09 51 ec 3e 77 71 97 3e 57 06 a7 3e 84 57 16 be
       0.46155575 0.29578754 0.32622024 -0.14681822
000270 a1 e8 8f be ed 9f 9c be 39 91 a1 3d 9c 0f e1 bc
       -0.2810717 -0.30590764 0.07889027 -0.027473263
000280 90 f7 53 bf 83 c2 05 bf 09 ca cb be 1c fc 2b bf
       -0.82799625 -0.52249926 -0.39802578 -0.67181563
000290 b4 32 b5 3e 91 10 be be 72 f5 54 3d 31 ae 21 3e
       0.35390246 -0.37122014 0.051991887 0.15789105
0002a0 11 37 49 be 24 c3 cd 3e bc e0 24 bf 1f c2 38 bf
       -0.19649912 0.40187943 -0.6440542 -0.72171205
0002b0 c8 f0 e6 3e 70 4f e5 3d fd 39 90 bc 6d 5c ef 3c
       0.45105577 0.11196792 -0.017605776 0.029218877
0002c0 e8 cf 80 be 67 5b bd be 0c 23 d5 be d6 e1 79 bd
       -0.2515862 -0.36983797 -0.416283 -0.06100639
0002d0 fb 11 01 bf c5 fd c6 be 72 3f 09 3f 81 52 92 bc
       -0.5041806 -0.38865486 0.53612435 -0.017861607
0002e0 c7 6e 3b 3d b0 49 4c 3f 0f 15 24 bf 34 f8 ec 3c
       0.045759942 0.7979994 -0.6409463 0.028926946
0002f0 62 02 20 bf 13 48 8f 3f 04 a3 90 bf d1 65 ac 3f
       -0.62503636 1.119387 -1.1299748 1.3468572
000300 dc 00 a5 be 24 28 ae 3d 1a 2b 36 3e 60 0e f1 3e
       -0.32227218 0.0850375 0.1778988 0.4708128
000310 cd 18 d6 3d ae af 26 bf f5 8f 95 bf 87 67 f7 be
       0.10453949 -0.65111816 -1.1684557 -0.48321173
000320 15 ba 32 bb 0c 80 77 3d c4 84 ee bd 3f c8 0c 3e
       -0.0027271558 0.06042485 -0.11646417 0.13748263
000330 33 f3 82 3f 56 e5 8c bd 30 4f f8 bd 4f 85 9d be
       1.0230469 -0.0687968 -0.12124479 -0.3076577
000340 99 f9 97 be 31 7f 7c bd a0 9a 8f bd a6 a2 1f 3f
       -0.29682615 -0.061644737 -0.07011914 0.62357557
000350 50 d9 e4 be bc f2 3d 3f 1b 7e 23 3f dc 8b 2f bf
       -0.44697046 0.7419851 0.63864297 -0.68572783
000360 df 82 84 3d 2e cf fd be 4a 20 7e 3e af 1d 8c 3b
       0.06470274 -0.49572128 0.24817005 0.0042759995
000370 e0 71 14 bf ef ab 7b 3c f4 02 a3 be 76 66 50 3e
       -0.5798626 0.015360816 -0.3183819 0.20351586
000380 99 e1 06 3f 38 a2 43 bd 19 7e 62 be 91 dd d3 be
       0.52687985 -0.047762126 -0.22118415 -0.4137998
000390 da 88 0e 3f bc e1 35 bc bf 1d db be ec d1 87 3e
       0.5567757 -0.011101183 -0.42796132 0.26527345
0003a0 90 df ce be 7a 82 fa be 3e 76 54 3e e3 4b 8e 3e
       -0.4040494 -0.4892767 0.20748231 0.27792272
0003b0 a7 5d 45 be 6e 56 b0 bc d6 bc b9 be 71 41 f2 3e
       -0.19274007 -0.021525588 -0.36276883 0.47315553
0003c0 79 62 92 3d f8 d2 f4 3e 0e e3 70 3e fe a4 12 be
       0.071476884 0.47817206 0.23524114 -0.14320752
0003d0 02 1e f1 be 42 4e 4a 3d d7 a5 e4 bc 76 a9 f4 bc
       -0.47093207 0.04939104 -0.02791111 -0.029865962
0003e0 32 9b fb be ce cb 21 3f 73 52 9a 3d 74 4c ce bd
       -0.49141842 0.63201606 0.07535257 -0.10073176
0003f0 11 54 9d bf eb c4 aa bd f6 9c 6f be 7f 44 58 3e
       -1.229128 -0.0833834 -0.2339972 0.21119879
