BirdNet_Trained_Model/trained_model_classifiers/Custom_Classifier20.tflite (tflite, 595344 bytes, 14 tensors)

sequential/dense_1/MatMul;sequential/dense_1/Relu;sequential/dense_1/BiasAdd f4 [96]
000000 92 6a 2f bf e5 e0 21 3f 88 7a bb 3f 03 db f7 3d
       -0.6852199 0.63233787 1.4646769 0.1210232
000010 e4 ee 86 40 98 c5 9f be 83 80 2b 3f 10 39 a6 bf
       4.2166615 -0.3120544 0.6699297 -1.2986164
000020 3d 7c df 3f f7 14 42 bf 12 ab 39 40 3a 6d 87 40
       1.745979 -0.7581324 2.9010663 4.2320833
000030 6f 81 0d be 19 c6 48 be c3 4e 99 3f 35 62 57 c0
       -0.13818906 -0.19606818 1.1977161 -3.365369
000040 43 4b 77 c0 03 1c d2 3f 1c c8 98 be 9c fc 02 c0
       -3.8639686 1.6414798 -0.2984017 -2.046668
000050 0c 0c 88 c0 32 55 f4 3e 7d 3e 9e bf 98 43 ac bf
       -4.2514706 0.4772125 -1.236282 -1.3458128
000060 27 76 d7 bf 45 3c f0 bf bc 3f 7c bf f4 29 4c bf
       -1.6832932 -1.8768393 -0.9853475 -0.79751515
000070 e3 ef 9a 3d 4b 5b 20 c0 27 79 01 40 69 64 73 c0
       0.07565286 -2.505572 2.0230196 -3.8030035
000080 15 64 28 40 68 2f 9d c0 35 b9 8a bf 91 db 1b c0
       2.6311085 -4.912037 -1.0837771 -2.4352763
000090 6a fa 1e 40 ab 1d 97 3e eb b5 e1 3e 9c f2 96 bf
       2.484034 0.29514822 0.44084105 -1.1792789
0000a0 8b 69 12 3f 22 d1 d3 3f 53 9d 7f c0 ef 55 61 bf
       0.57192296 1.6548197 -3.9939773 -0.8802175
0000b0 b6 19 16 40 31 f1 2b 3f 75 38 c8 3e 6d 49 e9 3e
       2.3453193 0.67164904 0.39105573 0.45563832
0000c0 d1 4a 29 bf 93 56 5e c0 53 b5 5a 3f ed ea 1c bf
       -0.66129786 -3.474034 0.8543293 -0.6129597
0000d0 85 bc 93 bd 0f 1e 0c c0 ab 8f 1e 40 e3 50 a8 3f
       -0.072136916 -2.1893346 2.4775188 1.3149685
0000e0 5f e7 38 bf d8 db ae bf 12 e0 f7 3f 36 03 ac bf
       -0.72228044 -1.3660841 1.9365256 -1.343848
0000f0 ca b9 67 3e 23 3b c6 3f 71 7a b4 3f aa 1b 13 be
       0.22629467 1.5486797 1.4099866 -0.14366022
000100 91 2d 32 40 e7 87 ab 40 98 9f 6b 3e 52 5a bb 3f
       2.7840312 5.3603396 0.23010099 1.4636939
000110 d0 b3 01 be 66 dc 73 40 9e 1f 27 40 d6 fa 96 40
       -0.1266625 3.810327 2.6113048 4.7181196
000120 8a c5 bf 3f bf a1 3a bf 38 16 d3 c0 bd ee 63 40
       1.4982159 -0.72903055 -6.5964622 3.5614464
000130 4d 3f 35 40 48 13 39 bf 8d 4c aa be 10 b0 4b 3f
       2.8319886 -0.72295046 -0.3326153 0.79565525
000140 12 89 c0 3f 9b 5c c0 3c 79 f4 90 bf cf bd f7 3f
       1.504183 0.023481658 -1.1324607 1.93548
000150 89 44 26 40 fe 84 d9 3f f5 50 0c 40 5d a3 4b bf
       2.597933 1.6993711 2.1924412 -0.7954615
000160 a1 55 6a 40 ac c3 55 bf 22 50 9b 40 13 af 80 3f
       3.6614764 -0.83501697 4.853532 1.0053428
000170 ca 65 b8 3f 8e 60 92 3f 4e 24 43 40 f5 aa 33 c0
       1.4406064 1.1435716 3.0490909 -2.8073094

sequential/batch_normalization/batchnorm/mul_1;sequential/batch_normalization/batchnorm/add_1;sequential/dense_1/MatMul;sequential/dense_1/Relu;sequential/dense_1/BiasAdd f4 [96, 96]
000000 40 2b bb 40 6d dc 69 3d 19 88 07 bd 37 27 9f 3f
       5.8490295 0.05709498 -0.033088777 1.2433842
000010 85 ce 91 be 70 54 5c 40 f8 46 be 3e 39 8a b7 bc
       -0.28477874 3.4426537 0.3716352 -0.022404777
000020 54 b8 47 3e ad 61 4e be 3c 48 92 c0 eb b2 29 3d
       0.1950391 -0.20154448 -4.5713177 0.041430395
000030 36 d1 b4 be 97 dc ac be cf df d7 3e e6 5b 9f c0
       -0.35315865 -0.33762047 0.4216294 -4.979968
000040 01 d6 86 3e 58 e0 25 3e e2 71 43 be d5 12 f1 bd
       0.26335147 0.16198862 -0.19086412 -0.1177117
000050 76 4e 39 3e fa 1d 2d 40 79 86 a2 3f db cb 15 bb
       0.18096337 2.7049546 1.2697288 -0.0022857103
000060 91 69 63 3e 89 60 58 be cd 0a 91 40 0e 19 58 3f
       0.22208239 -0.21130575 4.5325685 0.8441323
000070 d9 0c 45 3e 4d 80 af be 88 39 50 40 61 2a 7e 3e
       0.19243182 -0.34277573 3.2535114 0.24820854
000080 92 44 4c bf e2 4e 38 3d c6 ee 51 c0 d5 f0 5c c0
       -0.7979213 0.044997104 -3.2801986 -3.4521992
000090 c5 0a a2 c0 6d b8 73 c0 3b aa 2a 3f c1 e5 e5 3d
       -5.0638146 -3.8081315 0.66666 0.11225463
0000a0 c9 4c 2b 3e 88 f4 bc bd 3c f5 bd be f8 7e 5d 3e
       0.1672851 -0.09226328 -0.3710116 0.21630466
0000b0 2a ce 2b be 5a 4b da 3c c9 ac c3 3e fa db ff bf
       -0.16777864 0.026647259 0.38217762 -1.9989007
0000c0 f7 0c 14 bf 95 5e b1 c0 46 80 18 be 8e 60 a8 40
       -0.5783228 -5.5427957 -0.14892682 5.2617865
0000d0 f0 5e 9f 3b 64 d1 ac c0 11 6c b6 c0 e9 96 08 c0
       0.0048636124 -5.4005604 -5.7006917 -2.1342108
0000e0 cc 6b 02 bf 73 d8 0f be dd 6a 60 3e d9 de b7 bf
       -0.50945735 -0.14047413 0.21915765 -1.4364883
0000f0 4d 8c 02 3e 46 bb 99 be bd 06 11 be 55 88 cf 3e
       0.12748833 -0.3002569 -0.14162727 0.405337
000100 72 2b a8 be 73 af 07 bf ae 66 35 3e ae 44 a0 c0
       -0.32845646 -0.5300209 0.1771495 -5.0083838
000110 10 18 60 3d e4 c9 68 be 83 d4 2d 3e 14 7e 07 c0
       0.054710448 -0.22733265 0.16975598 -2.1170702
000120 45 00 87 bf d2 32 71 3f 06 22 18 bd 6b 06 bc bd
       -1.0546957 0.9421817 -0.037141822 -0.09180912
000130 85 a0 56 be 3b 1c 01 3f 65 2c 4a bd 67 8e 94 3e
       -0.20959671 0.504337 -0.049358744 0.29014894
000140 c1 3e f7 3e 84 ef 77 be ed e9 54 bd 2f af 3c bd
       0.48290065 -0.24212462 -0.0519809 -0.046065506
000150 09 6c 03 3e 91 00 b7 3e 10 57 85 c0 0c 05 0a be
       0.12834181 0.3574262 -4.1668777 -0.13478488
000160 45 f8 a4 3d 61 61 1d 3e 3a 3e 10 40 f0 3b 98 3e
       0.08055166 0.15369178 2.253798 0.2973323
000170 38 3c ac 3e 8c 3a a9 3c 67 2a 3f bd f6 9f 9f 3e
       0.33639693 0.0206578 -0.046671297 0.31176728
000180 e0 79 7f 40 02 e4 d3 3c 85 03 05 3e 6a c8 8a 40
       3.9918137 0.025865559 0.12989624 4.3369646
000190 3f 76 9a 3d 73 95 e2 3e 15 4e 37 be aa 56 81 3e
       0.07542085 0.44254646 -0.1790088 0.25261432
0001a0 f9 98 db 3e d7 8e bb bd 1c 92 26 c0 32 9e 0f be
       0.42890146 -0.09158104 -2.6026678 -0.1402519
0001b0 80 ef 9e be 44 12 5e be a8 00 9f c0 2b 97 62 3f
       -0.310421 -0.21686655 -4.96883 0.88511914
0001c0 04 49 57 be ec 06 b1 3d 9d fe 9b bc d5 5f f0 bd
       -0.21023947 0.08643898 -0.019042308 -0.117370285
0001d0 70 27 a2 3e 8d ff a8 40 66 2d 8d bf 6c d5 90 3e
       0.31670713 5.281195 -1.102948 0.28287828
0001e0 f2 8a 79 3d ad 6e 61 3e 73 eb a0 c0 01 48 48 40
       0.060923524 0.22014876 -5.0287414 3.1293948
0001f0 89 7f a2 3d 4b 2c 22 3e 6c f5 35 c0 f9 46 c3 bf
       0.07934482 0.15837209 -2.8431044 -1.5256034
000200 44 ae 95 40 07 09 20 3e 64 c8 bb 40 f2 fd 03 c0
       4.6775227 0.15628444 5.8682117 -2.0623746
000210 56 04 b8 be 1b 80 88 c0 a5 bd 20 c0 14 17 59 3e
       -0.35940808 -4.265638 -2.511575 0.2120021
000220 17 e7 12 3c b5 c6 de bd 1d 77 8c be 75 d1 19 3e
       0.008966229 -0.10877744 -0.27434626 0.15021308
000230 b2 b5 ec 3c 2c 6b 53 bd 81 a1 4d be 66 c0 fd bf
       0.028895233 -0.05161588 -0.2008114 -1.982434
000240 18 9c 8e 3f b7 fc 93 3f aa 0a 41 3e ae 4b 05 40
       1.1141386 1.1561497 0.18851724 2.0827441
000250 78 e9 fb bd 6a e4 96 c0 60 c1 63 bf fa e0 9e c0
       -0.1230039 -4.7153826 -0.8896694 -4.964963
000260 11 e4 a8 3f b5 1f ac 3e 90 83 4f 3e 5f 13 02 bf
       1.31946 0.3361794 0.20265031 -0.5081081
000270 73 65 09 bd e4 79 10 be 19 6e 49 be 42 f9 1a 3e
       -0.033544015 -0.14108998 -0.19670905 0.15134147
000280 9a 63 8b 3e e9 73 cd bb 32 84 ce bd 25 d9 62 40
       0.27224427 -0.006269921 -0.10083808 3.5445035
000290 c1 8a 9f 3e 81 18 4b 3d 92 aa 51 be 5e 18 1d 40
       0.31160548 0.049583916 -0.20475224 2.4546123
0002a0 c1 44 3f 40 15 65 85 40 df bd 55 40 53 a5 04 3e
       2.9885714 4.168589 3.3397138 0.12953691
0002b0 d7 e5 60 3d 1f 21 82 3f 90 dc 4d be be 2e 2f 3d
       0.054906692 1.0166358 -0.20103669 0.042769186
0002c0 1f 90 a4 c0 f1 67 e9 3e 6b 9c 3f 3e ee 73 e4 3d
       -5.142593 0.45587113 0.18712012 0.11154924
0002d0 d4 eb 48 bd 0d 0e ae bc 1d e2 9a bf 12 03 b8 be
       -0.04905303 -0.021246934 -1.2100254 -0.35939842
0002e0 ca 5f 64 be c8 77 2b 3e 05 4b a0 40 6d fe 96 be
       -0.22302166 0.16744912 5.0091577 -0.29490986
0002f0 22 e6 12 3e c6 67 9c be dd b8 a4 be f3 ec bf be
       0.14345601 -0.30547923 -0.3217229 -0.37485465
000300 92 dc a9 40 05 a4 3b 3e fc ac e0 3d 98 94 4f c0
       5.308175 0.18324287 0.10970494 -3.2434444
000310 37 c2 8b 3e 34 df dc 3f 87 f6 69 be 57 01 9b bd
       0.27296612 1.7255616 -0.22847949 -0.07568615
000320 92 64 23 3e 11 4f 80 3a 5d c5 41 40 a2 1b 18 3e
       0.15956333 0.0009789189 3.027671 0.14854291
000330 9f ff 88 3d 85 8e 0a 3e 5c 30 83 c0 47 22 53 c0
       0.06689381 0.1353093 -4.0996532 -3.2989671
000340 a3 29 c1 be f7 87 08 be ca 4f 68 3e 20 ac 4f be
       -0.3772708 -0.13333116 0.22686687 -0.20280504
000350 f0 36 4b bd c0 a3 fc bf 0d f0 0f 40 14 11 aa be
       -0.04961294 -1.9737473 2.2490265 -0.33216155
000360 87 32 92 be 9d 99 74 be 78 ec 9d c0 a0 7f ab 3f
       -0.28554174 -0.23886724 -4.935116 1.3398323
000370 95 4f fd bb dc 8c 90 3e 13 1a 78 c0 22 7e 6b c0
       -0.007730434 0.28232467 -3.8765914 -3.6795735
000380 76 34 30 40 56 00 09 be 22 b4 c2 3f fb 03 c1 3f
       2.753202 -0.13379034 1.5211222 1.507934
000390 4e 3b 30 be 70 4c 27 bf 83 49 84 40 a9 cb f1 bd
       -0.17210123 -0.6535101 4.1339736 -0.11806423
0003a0 cd 9a 35 bd 97 56 cd be f2 28 77 be 88 f9 1f bd
       -0.044337083 -0.40105125 -0.24136713 -0.03905633
0003b0 72 5f a1 be 0f b6 cb be b7 2d 3d 3e 61 98 b0 bf
       -0.31518131 -0.39787337 0.1847447 -1.3796502
0003c0 7e 69 15 c0 7a c6 82 c0 4d 87 80 3e 81 15 36 bf
       -2.3345637 -4.086728 0.25103226 -0.7112656
0003d0 8d d4 78 3e 0b e6 8a c0 6b e3 06 c0 fe ca 95 40
       0.24299832 -4.3405814 -2.1076305 4.6810293
0003e0 f3 e4 63 c0 c3 49 21 be 9e f5 4d 3e 78 38 29 3f
       -3.560849 -0.15750794 0.20113227 0.6610179
0003f0 e8 8f 6c 3e 62 e3 a0 be 00 bf 77 3d 20 18 4e 3d
       0.23101771 -0.3142348 0.060484886 0.050315976

sequential/dense_2/MatMul;sequential/dense_2/Relu;sequential/dense_2/BiasAdd f4 [96]
000000 be ec 78 3e f3 a8 af 3f 5a d6 9b 3f 64 df 87 3e
       0.2430906 1.3723434 1.217479 0.2653762
000010 84 30 0f bf 9f c0 e6 bd ac ec 8f 3f 92 33 6a bf
       -0.55933404 -0.11267208 1.1244102 -0.9148494
000020 d4 d8 40 bf b5 67 63 3e bc 3e 8c be 91 23 91 3f
       -0.75330853 0.2220753 -0.27391613 1.1338979
000030 35 04 38 bf 76 35 d1 3e 31 99 44 3f 85 82 69 be
       -0.7188142 0.408611 0.7679625 -0.22803695
000040 ac 7c e4 3f 8a 4b 63 3f 54 29 14 3e 5f c0 38 bf
       1.7850547 0.8878714 0.1446889 -0.72168535
000050 2d 2e 7e be f9 11 8e be b0 ef c2 be 5d 83 e3 bd
       -0.24822302 -0.27748087 -0.38073492 -0.1110904
000060 18 75 e0 3d cd 8b f5 be 0a 31 ad bd 45 41 4f 3f
       0.10959834 -0.47958222 -0.08456619 0.8095897
000070 a4 e0 19 c0 d5 47 95 be 6c a4 d4 3f 86 ac 10 3e
       -2.404336 -0.29156366 1.6612678 0.14128312
000080 3e 2a 82 3f 10 d2 61 3f ba e1 67 be 58 cc 1f 3f
       1.0169141 0.88211155 -0.22644702 0.6242118
000090 bd 84 83 be 04 65 90 be 5b 00 35 3f 55 00 e8 3e
       -0.2568721 -0.2820207 0.7070367 0.45312753
0000a0 9a 51 8f bc 48 75 44 3f f9 7b 0a be a2 1b dd 3e
       -0.017494965 0.76741457 -0.13523854 0.43185145
0000b0 c3 49 bd bf 15 12 03 bf 30 9c b9 3f 4a fb 99 3f
       -1.4788135 -0.51199466 1.450079 1.2029812
0000c0 fc b5 78 3d 16 46 75 3e 64 52 9c 3f e7 5a 0b bd
       0.06072043 0.23952517 1.2212644 -0.034022238
0000d0 4e 7d e9 3b b7 3d c6 3e 42 c2 1d bf a3 5f 8c 3f
       0.007125533 0.3871896 -0.6162454 1.0966686
0000e0 7c e5 99 3c f5 f4 49 bf cc cf da be cf e4 a0 bf
       0.018786184 -0.788894 -0.4273666 -1.2569827
0000f0 60 ad 91 bf 66 c4 53 bf 6c 73 14 3f 1e 1e 9f 3f
       -1.1381035 -0.82721555 0.5798862 1.2431066
000100 41 74 ab 3c a8 b4 5f bf 75 89 32 3f b2 2f 9a be
       0.020929458 -0.87385035 0.6974099 -0.30114514
000110 51 53 48 be a7 90 d8 be 74 76 cc bf 43 93 4b be
       -0.19563033 -0.4229786 -1.5973649 -0.19880395
000120 15 ff ff bd 1c da 9e be f0 05 b4 be e3 30 76 3e
       -0.12499825 -0.3102578 -0.3516078 0.24042086
000130 00 65 08 3f dc b3 ef 3d 32 57 a8 3e e6 f4 33 3e
       0.53279114 0.11704227 0.32879025 0.1757389
000140 6a a1 05 3f 37 fc 5e bd 48 a4 7c 3f e6 0e 8b 3f
       0.52199423 -0.05443975 0.98688173 1.0863922
000150 23 c6 70 3f a3 99 82 bf c6 bf 9d be 29 b6 ce 3e
       0.9405233 -1.0203136 -0.30810374 0.40373352
000160 d0 e4 fb be d3 53 16 3f 92 fa 23 bf fb aa 0f 3f
       -0.49198008 0.58721656 -0.64054215 0.5612027
000170 83 23 7c 3e 5d d9 2b 3f 96 0f 90 be 24 5b e9 3e
       0.24622922 0.67128545 -0.2813689 0.45577347

sequential/batch_normalization_1/batchnorm/mul_1;sequential/batch_normalization_1/batchnorm/add_1;sequential/dense_2/MatMul;sequential/dense_2/Relu;sequential/dense_2/BiasAdd f4 [96, 96]
000000 87 32 da 3d 78 70 6f 3e 72 fa ac 3d 1b 56 94 bd
       0.106541686 0.23382747 0.08446206 -0.07242986
000010 71 19 e1 3d 8f b1 ff bc 18 b1 d1 bb f3 92 6e 3e
       0.10991181 -0.031212596 -0.006399285 0.23298244
000020 09 8e 68 3d ee 7c c1 3d f1 9d e3 3d 8e 4f 1b bc
       0.05677608 0.094476566 0.11114109 -0.0094794165
000030 a9 a8 95 3d 11 7a 56 3e d9 a0 4f 3e 56 0d 5e 3e
       0.0730756 0.20945002 0.20276202 0.21684775
000040 a0 fb bf 3d fe 54 81 3e 4e 1e 96 bd 40 4d a6 3d
       0.093741655 0.25260156 -0.07329999 0.08120203
000050 82 a8 b5 bb 70 bf 11 be a2 87 ed bc 7e 49 c2 bd
       -0.0055437693 -0.14233184 -0.028995339 -0.09486674
000060 02 b2 01 3d d8 53 8f 3c 97 d3 82 bb 6d dc 98 bc
       0.031663902 0.017496035 -0.0039925086 -0.018659795
000070 85 c2 21 3d 17 40 ca 3c 0c 2d e2 bc 4d 23 24 be
       0.03949215 0.024688764 -0.02760937 -0.16029091
000080 cd 52 9a be 8a 98 64 be 2f 6a c1 bd f9 34 af 3e
       -0.30141297 -0.22323814 -0.09444081 0.34220102
000090 e6 3e 7b be 98 fc 1b be d4 69 43 3e e3 37 65 be
       -0.24535713 -0.15233076 0.19083339 -0.223846
0000a0 7f 69 53 3d 37 e5 60 bd 99 21 54 bd 35 fc 77 3d
       0.05161428 -0.054906096 -0.051789854 0.060543258
0000b0 8a 33 0b be 99 96 86 be 9f 46 f4 3c 8e 2c 4d 3e
       -0.1359388 -0.26286772 0.029818831 0.20036528
0000c0 7f 68 bb bd a6 09 eb bd 32 e1 d5 bd 5d 74 60 be
       -0.091507904 -0.1147645 -0.10443343 -0.21919389
0000d0 34 62 16 be f0 8d 63 3e ba 48 63 bd ca 74 68 be
       -0.14685899 0.22222114 -0.05548928 -0.22700801
0000e0 4b 90 60 3b 0a 0b bd bc 4d 49 ab 3d 5e a2 55 be
       0.0034265693 -0.023076553 0.083635904 -0.2086272
0000f0 56 be 93 3d 07 91 e5 bd 69 5e 7d 3d 21 ca c9 bc
       0.07214038 -0.112093024 0.061857615 -0.024632515
000100 fd 23 70 be c4 4f 13 3e 68 71 12 3e a7 46 78 3d
       -0.23451228 0.14385897 0.14301074 0.060614254
000110 bf 3e 9a bd 92 f9 85 3c 1f 71 6e be 7d cf 73 be
       -0.07531499 0.016354356 -0.2328534 -0.23809619
000120 9d 33 c7 3d 1b ed 25 3e e6 21 1c 3e dd df 7d bd
       0.09726641 0.1620373 0.15247306 -0.06198107
000130 19 74 16 3e ac 03 6d 3e 98 12 52 be a7 da ff 3c
       0.14692725 0.23145932 -0.20514905 0.031232191
000140 d0 89 07 3e 2e 92 29 be 02 5f f7 3b 40 8a 0d bd
       0.13236165 -0.1655967 0.0075491676 -0.034555674
000150 34 15 87 be 9e 12 d1 3d e4 0b f8 bd 29 a2 76 3e
       -0.26383364 0.10208629 -0.12111643 0.24085297
000160 09 ce 43 3d 46 fd aa 3d 24 c1 29 be 42 14 40 be
       0.047803912 0.08349089 -0.16577584 -0.18757728
000170 8c ef 32 be 7a b8 64 3e 44 c6 2b be 65 32 38 bd
       -0.17474192 0.22335997 -0.16774851 -0.044969935
000180 ef d6 ab be 99 6d 7c be cc 86 9d bc 05 60 e7 bd
       -0.3356242 -0.24651183 -0.019229315 -0.11297611
000190 6f f2 be 3d e3 f0 c4 3c e1 7c 58 3e a0 e4 9e be
       0.09323584 0.024040645 0.21141388 -0.31033802
0001a0 27 9f 1e be 47 ed 89 3e 23 2c 29 be 0c 16 10 3e
       -0.154904 0.2693884 -0.16520743 0.1407091
0001b0 1d 4f bb 3d 1e 51 2d be 52 b2 0f 3e b6 85 a2 3d
       0.09145949 -0.16925475 0.14032868 0.079356596
0001c0 c5 59 5b be 0b 89 46 be b1 89 14 be 7a 8b 8f 3d
       -0.21420963 -0.19388215 -0.1450565 0.07009025
0001d0 e8 c1 0d 3e e4 c4 d1 bc f8 ee 39 3c 6a 57 1d 3e
       0.138435 -0.02560658 0.0113484785 0.15365377
0001e0 a0 91 e9 bd 2b 2a 6b 3d b8 e1 64 be f1 ca d3 3d
       -0.11404729 0.05741326 -0.2235173 0.103414424
0001f0 1e c5 e5 3d 93 da bb bc ba a7 29 be 45 76 57 be
       0.11219238 -0.022931373 -0.16567889 -0.2104121
000200 81 6e 45 3e a8 d5 e8 3d 9c f9 12 3d 44 ce 19 be
       0.19280435 0.11368877 0.035882577 -0.1502009
000210 50 11 40 be 2a 5b 77 bd e4 cb 6f be 78 77 50 be
       -0.18756604 -0.060389675 -0.23417622 -0.20358074
000220 53 66 83 bc 82 b8 b5 bd e5 53 36 3e b0 0b ad bd
       -0.016040003 -0.08873083 0.1780544 -0.08449495
000230 2c d2 2d bd 85 cb 55 be 13 b7 e5 bd ed 96 8c be
       -0.042436764 -0.20878418 -0.11216559 -0.27458897
000240 3f 45 ab bd 65 f0 c8 3d 6d 07 46 be a3 d6 2e 3e
       -0.08362817 0.098114766 -0.1933877 0.17074065
000250 4c 5e c1 3d 91 1d 0c bc f4 07 0f 3e a1 76 92 be
       0.09441814 -0.008551971 0.13967878 -0.28606132
000260 43 18 a4 3d 33 11 0b be 06 54 64 be d0 c7 f5 3d
       0.0801244 -0.1358078 -0.22297677 0.12001002
000270 dd 03 41 3e 69 1d 85 bd d7 5b 5b be 74 9a cd 3d
       0.1884913 -0.0649975 -0.21421753 0.10039225
000280 75 87 ad be 26 ee 04 3e 20 3a 06 3e df 7f 92 ba
       -0.33892408 0.12981471 0.1310811 -0.0011177025
000290 1f b2 9f be 82 46 cf 3d a9 cb 75 be 1d 36 b0 3d
       -0.31190583 0.1012087 -0.24003471 0.08604071
0002a0 9d b6 0c 3e ae 2f 50 3e 95 91 95 3d ac c5 25 3e
       0.13741536 0.20330688 0.07303158 0.16188687
0002b0 21 01 41 3e 8a 46 8a be da c4 a0 be 4d a1 1a 3e
       0.18848087 -0.27006942 -0.31400186 0.15100594
0002c0 71 50 9d be 1c a5 dd bd a3 a2 47 3e 93 db 2e 3e
       -0.30725434 -0.10822508 0.19495635 0.17075948
0002d0 04 c0 1e 3e 3f c5 24 be 02 4f 59 3e c2 0f 93 3e
       0.15502936 -0.16090868 0.21221545 0.2872296
0002e0 f0 c8 f7 3d 48 7b 69 be 56 24 27 be b8 44 33 be
       0.12098873 -0.22800934 -0.16322455 -0.17506683
0002f0 c8 30 3c be ba 32 d0 3d de e7 8d be fc c0 44 3e
       -0.18377984 0.10165925 -0.27715963 0.19214243
000300 03 eb 9e be ce b3 5d be 16 37 4f 3e 58 3e 26 be
       -0.31038675 -0.21650621 0.20235857 -0.1623472
000310 a3 29 3d 3d 34 88 ca bb ca 28 0f 3d 43 64 6a be
       0.046182286 -0.0061807875 0.03495101 -0.2288981
000320 4b 22 89 be f9 d7 18 3d 85 47 59 bd 3a 53 29 3e
       -0.26783976 0.037315343 -0.053046722 0.16535655
000330 ec 4e 00 be 44 e8 d7 3d 8c 8c 15 3c c9 e7 2d 3e
       -0.12530106 0.10542348 0.009127747 0.1698295
000340 a9 a5 d2 be c7 6b 39 3e 09 91 8e bd 6f 29 02 bd
       -0.41142014 0.1810752 -0.06961257 -0.031777795
000350 ed e7 b4 bd fe 10 a5 3c d9 ec da 3d 4e 90 36 3e
       -0.08833299 0.020149704 0.10689706 0.17828485
000360 30 18 b5 bd 92 bf 4c 3e 07 e2 10 be 0c 3c 1c 3e
       -0.08842504 0.19994953 -0.14148723 0.15257281
000370 d0 48 2c 3e 88 db 69 3d 74 1c 07 3e aa a7 89 bb
       0.16824651 0.057094127 0.13194448 -0.0042008953
000380 e6 aa 18 3e fb a3 27 3d 21 3e bd 3c 6c 43 a6 3e
       0.14908943 0.04092787 0.023100914 0.32473314
000390 94 77 95 be f2 24 15 bd ab 6a 8a bd cb 44 2e 3d
       -0.29192793 -0.036412187 -0.067586266 0.042546075
0003a0 80 0f a4 bb 6d 47 21 be 16 25 b8 3d fa 97 2e be
       -0.0050067306 -0.15749903 0.089914486 -0.17050162
0003b0 5f da 92 bc 88 43 04 be 5c 87 82 bb 40 cd ad be
       -0.017926393 -0.12916386 -0.0039834213 -0.33945656
0003c0 0f 5f 50 be ee f5 61 3e f3 d2 43 3e 88 84 4f 3c
       -0.20348762 0.22066471 0.1912344 0.012665875
0003d0 0f fb 1b be 96 43 34 be 6f 9f 9c 3d 4a e0 3d be
       -0.1523249 -0.17603907 0.07647597 -0.1854259
0003e0 b6 09 d9 3d ed 36 5c bd 8d 01 04 be 55 a1 81 3d
       0.10597555 -0.05376332 -0.12891217 0.063296
0003f0 7c 13 a6 bd b1 b6 8c 3e 9e 8d 66 be e1 e7 a4 3d
       -0.08109185 0.27483132 -0.2251496 0.0805204

sequential/dense_3/MatMul;sequential/dense_3/Relu;sequential/dense_3/BiasAdd f4 [96]
000000 aa 5e b3 be 63 fe 7f bd 2a 27 48 3f f2 66 9f 3d
       -0.3503316 -0.06249846 0.7818476 0.07783307
000010 91 f9 ba 3e 41 4d c9 bd 1c f8 1b 3f 6e 0a ae 3e
       0.3651853 -0.09829188 0.6092546 0.33992332
000020 90 fe aa 3f 8a f4 8e 3f 43 46 0b 40 33 82 3e 3f
       1.3358936 1.1168377 2.1761634 0.7441742
000030 58 63 da 3f 20 db 13 bf 59 3e 11 bf d5 f1 70 bf
       1.7061567 -0.57756233 -0.5673576 -0.94119006
000040 c9 76 de 3e 85 71 59 bf 6c 8b c0 be 78 ca e6 3e
       0.4345 -0.8493884 -0.3760637 0.45076346
000050 2a 8b 41 be 3b 19 f1 bc 9b b6 62 3f f6 b1 53 3f
       -0.18900743 -0.029430976 0.88559884 0.8269342
000060 3a 96 0b bf fe ef 88 3f 0e 9c 50 3f 8a 9d bc be
       -0.545261 1.069824 0.8148812 -0.36838943
000070 70 c0 86 3e 8b f2 16 3f 2d 13 90 bd 22 4a ef 3e
       0.26318693 0.5896384 -0.070349075 0.46736246
000080 5e 9d 01 3f 21 9e c0 3f b1 a8 f3 bd 49 0a bb 3f
       0.5063075 1.5048257 -0.1189741 1.4612514
000090 e2 ff 92 3e 4f 31 5a 3f 5f b4 df 3e 72 01 05 3b
       0.28710848 0.8523149 0.436923 0.002029505
0000a0 84 dd 42 3f cc cb 99 bf fc 59 9e 3e 81 ec 93 bf
       0.76119256 -1.2015319 0.30928028 -1.155655
0000b0 27 34 de 3c f0 2e 95 3f f9 85 35 3d db 43 3e 3f
       0.027124478 1.1654949 0.04431722 0.7432229
0000c0 ca f9 26 3f 75 c3 fc 3d a4 5f 86 bf 9c d5 ec bd
       0.652249 0.12341968 -1.0497937 -0.1156418
0000d0 b2 b2 1f bf 83 31 77 3f 63 3b b8 3c 5b 78 b6 bd
       -0.6238204 0.96559924 0.022489255 -0.08909675
0000e0 fb ed ab be 71 cd 82 3f 62 67 c4 3f 4d e3 4a be
       -0.33580002 1.0218946 1.534405 -0.19813271
0000f0 a0 34 67 3f 9e 60 88 3e 37 dc 71 bf 22 ed 27 3f
       0.90314674 0.26636213 -0.94476646 0.6559621
000100 ff 1e 29 3f eb 58 8a bf 0c 0d a7 3d 00 6d 58 3f
       0.6606292 -1.0808386 0.08156785 0.8454132
000110 30 96 9b be 16 9e 06 be 51 d4 80 3f 5a bf 22 3e
       -0.3038802 -0.13146242 1.0064794 0.15893307
000120 c0 40 10 bf 72 ec 0d 3f e1 26 8e bd 88 aa ea 3e
       -0.563488 0.5543891 -0.06941009 0.4583323
000130 ce b5 e6 3d d1 80 31 be e3 0d 38 bf b6 cd ba be
       0.11265145 -0.17334296 -0.7189619 -0.3648507
000140 de f3 cf 3d a2 4a d0 3f 5e 77 26 3e f0 e7 75 be
       0.10153936 1.6272776 0.16256472 -0.24014258
000150 49 14 d3 3f 4f 93 ea 3e 2a 40 d8 3e 4c 29 41 be
       1.6490566 0.45815513 0.42236453 -0.1886341
000160 c0 3b b9 3f e7 de 2b bd f6 81 b2 3f a5 cb 5e bc
       1.4471359 -0.041960623 1.3945911 -0.013598357
000170 9d fe 5c bf ca 29 14 bf 58 be 4e 3c 8d 93 06 be
       -0.8632601 -0.57876265 0.012618624 -0.13142224

sequential/batch_normalization_2/batchnorm/mul_1;sequential/batch_normalization_2/batchnorm/add_1;sequential/dense_3/MatMul;sequential/dense_3/Relu;sequential/dense_3/BiasAdd f4 [96, 96]
000000 70 cf 02 3d af f6 a4 3d b6 26 fd 3d 85 5a 28 be
       0.03193611 0.08054864 0.12360899 -0.1644078
000010 68 f8 04 3e 27 08 84 3b c7 75 29 bc e4 19 10 be
       0.12985384 0.004029292 -0.010343022 -0.14072376
000020 4e a5 33 3e f6 fb c6 3b 46 d5 20 3e 69 53 ce bd
       0.17543527 0.0060725166 0.15706357 -0.10074503
000030 58 44 0a 3e d7 e8 15 3d e7 f9 d3 bd 48 fb 1a 3e
       0.13502634 0.036599007 -0.103503995 0.15134919
000040 d2 09 ee bd 79 5d 6a bd d2 5b c7 3c eb f1 02 3e
       -0.11622967 -0.05721805 0.024335776 0.12787597
000050 bc 35 6a bd c6 ea 77 3d 0b 9d 10 be a1 b3 8b bd
       -0.05718015 0.06052663 -0.14122407 -0.06821371
000060 44 09 40 3e 8b 14 16 be 02 5f 95 3d 31 09 e7 bd
       0.18753535 -0.14656274 0.07293512 -0.1128105
000070 46 97 08 bd ab 8a bf 3d ac c4 79 bc 71 87 26 3d
       -0.03334739 0.09352621 -0.015244644 0.04065651
000080 29 88 f2 bd 4d 67 8a 3b 41 48 ab 3d d0 fd 68 3d
       -0.11842377 0.00422374 0.08363391 0.05688268
000090 b7 01 a1 3d 96 81 58 3e 6b 17 b9 bd 9e 85 11 be
       0.07861655 0.21143183 -0.0903767 -0.14211127
0000a0 ae 41 11 3d c2 58 1d be 1e f5 5f be 99 c0 4a be
       0.035463028 -0.1536589 -0.21870849 -0.19800033
0000b0 c5 7a 2c 3e f1 d6 21 3e d9 e2 cc 3d e3 d7 7d 3d
       0.16843708 0.1580465 0.10004205 0.061973464
0000c0 96 5d 8e 3c 3f fb 03 3e 24 87 f6 bc fb 95 39 bd
       0.01737861 0.12888812 -0.030093737 -0.04530905
0000d0 11 9d 8c bd 34 fd 75 be be e4 4b bd 5b ee 20 be
       -0.068658955 -0.2402237 -0.049778692 -0.15715925
0000e0 1f ec 9b bd cf a4 4b 3e 61 0c 5e 3c ff 7e 39 3e
       -0.07613396 0.19887088 0.013552756 0.18114851
0000f0 a6 f3 86 bd 3d 8e 11 3e 8b 25 50 be dc b5 04 bc
       -0.06589441 0.14214416 -0.20326822 -0.008099999
000100 35 cc 1f 3e a1 93 bb 3d f1 89 de 3d 9c b7 a5 3c
       0.15605243 0.09159017 0.10866154 0.020229153
000110 5b 31 8f 3d a2 b4 9e bd e8 ec de bd 03 37 83 3d
       0.06991836 -0.07749297 -0.1088503 0.06406977
000120 03 5c a3 3d 6d 63 cc bd 08 4b 58 be 24 37 fd 3d
       0.07976534 -0.099799015 -0.21122372 0.12364033
000130 73 3a 15 3e 70 c4 e7 3d 33 80 00 3e 63 3a d5 3d
       0.14573078 0.11316764 0.12548904 0.10411527
000140 ef 02 c7 3c 9f 76 15 bd f7 3c f4 3d fb d0 e1 3d
       0.024293391 -0.03649008 0.119256906 0.11026188
000150 38 c7 e7 bc b4 28 0f be 11 84 4a be 80 61 2e be
       -0.028293237 -0.13980371 -0.19776942 -0.17029381
000160 16 98 2e 3d 26 f1 30 3d 7a 6b 1c bd 8e 63 19 bd
       0.04262551 0.043198727 -0.038188435 -0.03744846
000170 5f 89 55 3e 4d af 3b be 1a f7 f6 bd 59 a6 12 bc
       0.20853184 -0.1832859 -0.1205885 -0.008950793
000180 6d 67 12 bd d9 ab 23 bd 20 26 86 3d 9b 4d f4 3d
       -0.035743166 -0.03995881 0.065502405 0.119288646
000190 07 b4 93 3c de 5c 05 be 6b 02 0b 3e 81 c8 2d bb
       0.01803018 -0.13023707 0.13575141 -0.0026517215
0001a0 8c 8b 14 3e ca 1a 81 bd 84 cc cb bc 4b 6f 18 be
       0.14506358 -0.06303938 -0.024877794 -0.14886205
0001b0 44 4d d3 bd d6 ad 1f bd 9c 42 5c be 22 af 49 3e
       -0.103174716 -0.038984142 -0.21509784 0.19695714
0001c0 c3 19 f5 bd a5 69 e9 bd 69 42 59 3c 4c 01 26 be
       -0.11967804 -0.11397103 0.013260462 -0.16211432
0001d0 97 66 22 be de 40 6a 3d 71 d0 01 be 74 ac 49 bd
       -0.15859447 0.05719077 -0.1267717 -0.04923673
0001e0 53 fd 42 be 85 22 f5 bd 44 15 b8 3c 05 92 03 be
       -0.19041948 -0.11969475 0.022471078 -0.12848671
0001f0 b9 9b e6 3d 03 a2 97 3d 55 3d fc 3d 91 62 84 be
       0.112601705 0.07403948 0.12316386 -0.2585645
000200 e2 25 22 be 55 b2 95 3d ec a0 7d 3d b0 ed c9 bd
       -0.15834764 0.07309405 0.061921045 -0.098597884
000210 39 1a e7 3c c1 ee cb 3d 43 20 b9 bc 3e 05 28 3d
       0.028210746 0.09957648 -0.022598391 0.041020624
000220 a9 48 c2 3d 82 39 70 3e 43 a0 10 be 37 f8 25 3e
       0.09486515 0.23459437 -0.14123635 0.16207968
000230 7f b6 b6 3d e1 bb 10 be 6b 7f 62 3c ba 48 6d 3c
       0.08921527 -0.1413417 0.013824324 0.014482671
000240 ac 48 f2 bc 80 cf 0d be 0a e4 75 bb 9c f7 1b be
       -0.029575668 -0.13848686 -0.0037519955 -0.15231174
000250 cc 58 65 3d 7f 2f 49 3e 4e 8f 1c 3e c4 57 ee 3c
       0.055992886 0.19647025 0.15289041 0.029094584
000260 a4 4e 27 3e 4b 3e 54 3a 1e 12 ae 3c 13 31 63 bd
       0.16338593 0.00080964406 0.021248873 -0.055466723
000270 f2 ab 00 3e 9e bf d3 3d a5 72 2d be 6b c3 9a 3d
       0.12565592 0.103392825 -0.16938265 0.07556804
000280 c8 3b 68 3e b0 ce 95 3d fc 70 6e bb 44 ad ff 3d
       0.22679055 0.07314813 -0.0036383262 0.1248422
000290 2b d6 dc bc 14 99 3c 3e 95 57 dc bd d6 0d 45 3e
       -0.026957592 0.1841777 -0.107588924 0.19243559
0002a0 18 a5 31 be 3e f4 dd 3d 12 1d 3c 3e fb 33 34 be
       -0.17348135 0.10837601 0.18370464 -0.17597954
0002b0 23 06 95 bd 3d 6f 8a 3c 24 5e 01 3e 8f 65 c4 bd
       -0.07276561 0.016898746 0.12633568 -0.09589683
0002c0 36 13 cf 3c cd 27 25 be 59 83 b3 3c 55 ad f9 3d
       0.025277715 -0.16128464 0.021913217 0.121912636
0002d0 fe 73 86 3e ad 85 9c bb 37 39 57 3e b5 de 83 bd
       0.2626037 -0.0047766776 0.2101792 -0.06438962
0002e0 7f e1 3f 3d 40 f8 69 bd 51 e6 ac bd 14 a7 e7 bd
       0.04684591 -0.057121515 -0.08442367 -0.113111645
0002f0 92 12 c5 bd 12 63 35 bb fe e6 09 3e f1 b4 d7 bd
       -0.09622683 -0.0027677459 0.13467023 -0.10532559
000300 ac 64 7c 3d ca 26 ae 3d 30 9a 27 be 5f 05 07 be
       0.061619446 0.08503492 -0.16367412 -0.13185643
000310 2f 2d 29 be c6 6f 97 bd d5 ea 86 3e a0 f6 9a bd
       -0.16521142 -0.07394366 0.26351038 -0.07566571
000320 a5 a4 a8 3d 0d 09 9e bd a9 37 b2 3d cf be 44 bd
       0.082345285 -0.0771657 0.087020226 -0.04803353
000330 5f b7 30 3e 53 6c 82 bd 42 18 95 bd 89 17 28 bd
       0.1725745 -0.063683175 -0.072800174 -0.04103807
000340 a2 8d 95 3d 92 62 23 3e fd 77 bf 3d aa bc a1 3d
       0.07302405 0.1595557 0.09349058 0.07897313
000350 9d df 64 be 3b c4 de bb 82 4c f0 3c 3d fb 5e bd
       -0.22350927 -0.006798295 0.029333357 -0.05443882
000360 a9 08 0c be 69 4c bf bd 9d e7 35 3e f4 95 37 bd
       -0.13675179 -0.09340746 0.17764135 -0.04482074
000370 ca 95 15 be 3c 39 dd 3d c8 36 a0 bc 8c bd 9a bd
       -0.14607921 0.10801932 -0.019557372 -0.075556844
000380 7e c0 16 3e 6d 67 b3 3d 68 13 35 bd 71 3a 0f 3e
       0.14721867 0.08759961 -0.04420796 0.13987137
000390 85 c6 0f bd c5 f1 e6 bc e0 aa a9 3d da 90 84 3d
       -0.035101432 -0.028191457 0.08284545 0.06472941
0003a0 a2 92 60 bd ab d1 e4 bd 7d 21 f0 bd 4b 78 fd bd
       -0.05482734 -0.111728035 -0.117251374 -0.1237646
0003b0 fc 08 57 3d 4b 13 05 bd 9c 63 fa bc 1a 80 f0 3d
       0.052498803 -0.032489102 -0.030565076 0.117431834
0003c0 fb 7d 5b bd c5 8c 51 be 2a 0e 3f be a5 f0 11 be
       -0.05358694 -0.20463856 -0.18657747 -0.14251955
0003d0 bd 22 d6 bd 24 a5 bd 3d 8a a3 69 3d 9d f8 40 be
       -0.104558446 0.09260014 0.05704073 -0.18844838
0003e0 30 c6 1c be 9d 75 01 3e 10 1e a5 3c 5c cb 73 3d
       -0.15309978 0.12642522 0.020155936 0.05952011
0003f0 5b 35 69 3c 6d 8d 2e 3d 8b 2b 50 3d 74 95 01 be
       0.014233912 0.042615343 0.050822776 -0.12654668

sequential/dense_4/MatMul;sequential/dense_4/Relu;sequential/dense_4/BiasAdd f4 [96]
000000 79 68 2b 3f cb 4e 37 3e 29 d4 94 3e 27 5b 2c 3f
       0.6695629 0.17901151 0.29068115 0.6732659
000010 3e 15 eb 3e 8f 11 72 be 3c 70 20 bf e4 ec 58 3f
       0.45914644 -0.2363951 -0.62671256 0.84736466
000020 ad 56 5c bf 1b f7 9e bf 4b b2 07 3f c7 c3 b9 3e
       -0.86069757 -1.2419161 0.5300643 0.3628218
000030 e9 09 fd be d6 ad 44 3f f0 41 46 bd b0 e5 6e bf
       -0.49421623 0.7682775 -0.048402727 -0.93319225
000040 a3 59 a5 be d1 70 8b 3e 19 3e bd 3f e7 e2 fb 3c
       -0.3229495 0.2723451 1.4784576 0.030747844
000050 40 be 05 bf 6d f0 48 3f ab af f8 3d e1 19 b1 be
       -0.52243423 0.7849186 0.12142881 -0.34590057
000060 e3 0b 62 3f 3d 5d 4c be 5f f4 db bd a1 14 04 3f
       0.8829939 -0.19957443 -0.107399695 0.5159398
000070 62 a5 6b bf b8 89 45 3f 21 0f 42 3f 9e 25 57 bf
       -0.9204923 0.7716327 0.75804335 -0.84041774
000080 ea c1 a5 3f 28 1c bb bf a9 bd 45 3f 6f ba d8 be
       1.2949803 -1.4617968 0.77242523 -0.42329738
000090 7f 73 ce 3e 13 91 f8 be bd ba 15 3e 75 c9 32 3f
       0.40322492 -0.48548183 0.14622016 0.6983865
0000a0 e1 36 dd bd 4a ca cd 3e 6d 10 e6 3f 41 f9 29 bf
       -0.10801483 0.40193397 1.7973763 -0.66395956
0000b0 a8 1f a0 be 30 36 96 be d8 9e ec 3e 6b 95 c1 3e
       -0.31274152 -0.29338217 0.46214938 0.3780931
0000c0 78 ea e0 be d5 21 cb 3f 98 03 b0 bf 08 23 b6 3f
       -0.43928885 1.58697 -1.3751097 1.4229441
0000d0 3b 9e 05 3f 83 30 5b bf ba d5 f4 3e f9 7b 8d 3f
       0.52194566 -0.856209 0.4781931 1.1053458
0000e0 4f 55 55 3f ff d7 36 3f 79 c3 af 3e 1c 0b 75 be
       0.83333296 0.71423334 0.3432882 -0.23930019
0000f0 e2 a0 4d 3f 56 8f d6 be 41 f9 19 3f 00 0c f0 bf
       0.8032361 -0.41906232 0.60145956 -1.8753662
000100 36 6a 0b bf 3e f4 45 bf bb 6d 94 3e d4 d8 b6 3e
       -0.5445894 -0.7732581 0.28989968 0.35712302
000110 1d 08 27 bf 5e 14 d5 3f 18 f8 d6 3e 06 09 12 3e
       -0.65246755 1.664684 0.41986156 0.14261255
000120 dd f6 cd bc 9b ff 60 bf 77 81 98 3e 38 6c 77 3f
       -0.025142128 -0.87890023 0.29786274 0.96649504
000130 03 e1 45 bf 35 cc 8a 3e a4 cd 00 3e f8 b3 20 bf
       -0.77296466 0.27108923 0.12578446 -0.6277461
000140 14 72 d0 3e 92 bc ef 3e f6 da 03 40 5f aa 75 bc
       0.40712035 0.46823555 2.0602393 -0.014994233
000150 a1 e1 5c 3e b0 ad 5a 3f 3f 93 8c 3f d9 ca 1f 3f
       0.21570446 0.85421276 1.0982436 0.62418896
000160 99 be 3e be 49 52 26 3f be bd 10 be 06 31 c9 bc
       -0.18627395 0.6496931 -0.14134881 -0.024559509
000170 26 6f 40 3f f8 67 61 3f 72 20 db 3e d7 06 a0 bf
       0.751696 0.8804927 0.4279819 -1.2502087

sequential/batch_normalization_3/batchnorm/mul_1;sequential/batch_normalization_3/batchnorm/add_1;sequential/dense_4/MatMul;sequential/dense_4/Relu;sequential/dense_4/BiasAdd f4 [96, 96]
000000 d9 59 d9 3d 83 08 28 3c 1d bd 03 be 4c 1a 8b 3d
       0.1061284 0.010255936 -0.1286511 0.06792125
000010 52 a9 ff 3d 8d eb 21 3d bc d0 5e 3e be ea b4 bd
       0.12483467 0.03953128 0.21759313 -0.08833836
000020 6a 45 74 3e 55 c2 21 3e 99 3e a0 3d 1e e0 57 bd
       0.23854604 0.15796788 0.078244396 -0.05270397
000030 10 79 f0 3d 93 1a ca bd 9f 2a dc bd db bf be bd
       0.11741841 -0.0986835 -0.10750317 -0.09313937
000040 3c 40 21 3d 4e 21 3b be f1 c3 ea bd 4d c3 ad bd
       0.0393679 -0.18274423 -0.11463154 -0.08484516
000050 7b 37 a0 bd e9 a4 1a be ff 1b 62 3e e1 7e 33 3d
       -0.07823082 -0.1510197 0.22080992 0.043822173
000060 c7 7e 24 3d c0 4c 13 3e 37 dc b6 3d e4 58 cb bc
       0.040159967 0.14384747 0.089287214 -0.02482266
000070 28 57 84 be fe 83 87 bd d7 42 ea bd de 45 3a be
       -0.25847745 -0.066169724 -0.1143853 -0.18190715
000080 51 33 06 3e 73 5c eb bd bc 13 84 3d 45 02 2c bc
       0.13105513 -0.11492243 0.064490765 -0.010498588
000090 c6 15 db 3d 9a ef 1e 3d 37 59 17 be 7e 32 ad bd
       0.10697512 0.03880272 -0.14780127 -0.08456896
0000a0 bb 3a 80 be a2 1d cb 3d c3 f5 c9 bb 18 a5 1d bd
       -0.25044808 0.099177614 -0.0061633303 -0.038487524
0000b0 d7 91 43 3e 70 35 29 be 75 e3 8c 3d a5 17 b0 3d
       0.19098602 -0.16524291 0.068793215 0.0859826
0000c0 63 70 30 be d2 3c 7d 3d 77 70 92 bd cb aa 9b bd
       -0.17230372 0.06182558 -0.07150357 -0.076009355
0000d0 9b c0 3b be b7 8c 4d bb b1 7d af bd 53 53 ea 3d
       -0.18335192 -0.003136439 -0.085688956 0.11441674
0000e0 e8 5f 39 3e e2 9a d8 bd 88 87 b0 3d 8f 11 2c bd
       0.18102992 -0.105764166 0.086196005 -0.042008933
0000f0 56 2c a8 bd 1d 0f 7a be 96 c9 0d bd 32 50 5f 3d
       -0.082115814 -0.24419828 -0.034616075 0.05451984
000100 37 c2 e1 bd f9 c5 a7 ba 5f 53 0b 3e 47 df 41 3e
       -0.11023372 -0.0012800089 0.13606022 0.1893283
000110 33 4e 29 be f1 25 4a 3d b2 b0 00 be f7 7e 53 bc
       -0.16533737 0.04935259 -0.12567404 -0.012908689
000120 80 65 14 3d e2 8c 01 be 54 2b 08 be e0 cc d1 bb
       0.03622961 -0.12651399 -0.13297778 -0.006402597
000130 95 45 7f bd 80 3f 19 be ef 63 05 be 9f 47 4f 3d
       -0.062322218 -0.1496563 -0.13026403 0.050605413
000140 75 1b c5 3d 3e fe a5 bc e8 95 14 bd dd 02 0f be
       0.09624378 -0.020262834 -0.036275774 -0.13965936
000150 5a 27 b5 3c fb 02 98 3d d6 55 91 3d 76 59 bc bd
       0.02211349 0.074224435 0.0709645 -0.09196751
000160 f4 a5 de 3d 12 38 ca bd f9 41 19 3e 60 c0 67 bd
       0.10871497 -0.09873976 0.14966573 -0.056579947
000170 d2 cc 13 bd d5 fb 45 3c ea 5b df 3d 6f 5f e2 3d
       -0.036084004 0.012083967 0.10906203 0.11053359
000180 6e fb d9 3d e2 d7 42 be 9c 9a 01 be 83 9c d3 bd
       0.106436595 -0.19027665 -0.12656635 -0.103325866
000190 8e 32 15 be 0c 4d 1b 3e 25 96 84 be 52 5e 16 3e
       -0.14570066 0.1516611 -0.258958 0.14684418
0001a0 6e c9 f9 3d 2f 4c be bc a9 35 bc bd dd a4 0a bd
       0.12196623 -0.023229687 -0.09189922 -0.033848632
0001b0 8a 88 00 be c7 3c b8 3d 70 6d a9 3c 47 58 43 3e
       -0.12552086 0.08995967 0.020682067 0.19076644
0001c0 f0 07 d2 bd 55 ab 00 3c c8 0d 2a 3d 6b 18 fd 3c
       -0.1025542 0.007853349 0.04151705 0.030895432
0001d0 25 da 1e 3c 7e dc b1 bd 49 8e 58 be d3 17 92 3d
       0.009695564 -0.08684634 -0.21148027 0.0713345
0001e0 2f ad 9f 3d 01 18 03 bd 11 e0 0a 3e ab 4e 91 bd
       0.07796704 -0.032005314 0.13562037 -0.07095083
0001f0 c7 16 3e 3c 0e 94 e8 3d 9e 5b 67 bc 2d 80 0d 3e
       0.01160211 0.11356364 -0.014120964 0.13818426
000200 ad a0 c9 3d ec fb f8 bd cb 34 d9 3d 00 68 b8 bd
       0.098450996 -0.12157425 0.106057726 -0.090042114
000210 5b ff 75 bb ea 5e f7 bd fd 96 f9 3d 9c 40 2b 3e
       -0.0037536237 -0.1207865 0.12187002 0.16723865
000220 d3 0a ad bd e7 b8 bc bc 8f b2 84 3c d4 45 86 bd
       -0.0844933 -0.023037387 0.016198425 -0.065562874
000230 09 28 da 3d 97 47 38 3d 9b 2d 05 be 10 12 70 3d
       0.10652167 0.04499015 -0.13005678 0.058610976
000240 4b be 15 be 11 ce ed bd af 76 58 39 da ae 1b 3e
       -0.14623372 -0.1161157 0.00020643578 0.1520342
000250 c2 3f 74 3e 49 20 03 3e 8d 2a 6e 3c a4 f4 04 be
       0.23852447 0.12805285 0.014536512 -0.12983948
000260 4f 41 fb bd 80 4a b3 3d 3c 80 18 be 93 f8 90 3d
       -0.12268316 0.08754444 -0.14892668 0.07078662
000270 7f 1b 06 be 2f 75 34 be 61 6e a6 bd fd da 67 bd
       -0.13096426 -0.17622827 -0.08126522 -0.056605328
000280 27 5a 0f 3e 3c 81 4d bc 57 b5 c2 bd f2 e7 f0 bd
       0.13999234 -0.012543019 -0.09507244 -0.1176299
000290 be 76 d0 bd db 4f a8 3b 30 bf d9 3d 99 56 d3 3d
       -0.10178898 0.0051364726 0.10632169 0.103192516
0002a0 24 87 da bd a9 45 04 be 22 9e 32 3e 03 bf cf 3b
       -0.10670307 -0.12917198 0.17443135 0.006339909
0002b0 19 14 39 be 6b 2b 05 3d 49 8b b0 3d a9 cb 36 bb
       -0.18074073 0.03251211 0.086203165 -0.0027892387
0002c0 80 c5 4b 3e 39 73 76 3e 29 ef a5 bd cb 54 e0 3d
       0.19899559 0.24067391 -0.08102257 0.10953673
0002d0 c4 6e cd 3d 79 91 2a be 60 e9 fa 3d bc c5 9d 3d
       0.100308925 -0.16657056 0.12251544 0.077037305
0002e0 cc d4 5e 3d af 5b a6 3c 6f c0 41 be 8b 03 40 be
       0.054402158 0.02030739 -0.18921064 -0.18751352
0002f0 de 62 14 bb 50 8c df bd 09 f8 10 bc 2a df 42 3e
       -0.0022641937 -0.10915434 -0.008848199 0.19030443
000300 07 58 45 3e f7 fd 82 bc b0 27 45 bc 21 0d 90 bd
       0.19271861 -0.01599024 -0.012033388 -0.07033754
000310 a3 46 0d bd 84 00 23 bd 60 fb 18 3e fb 71 02 be
       -0.034491193 -0.039795414 0.14939642 -0.12738793
000320 e4 c1 00 be 5a 8c 71 3d bf 9d a9 bd 7d 9d 40 be
       -0.12573963 0.05897174 -0.08282041 -0.18810077
000330 f4 d8 ae 3d 10 1f 77 3d db 7d 2b 3d c6 b2 12 bd
       0.08537474 0.060332358 0.041868072 -0.035815023
000340 61 e1 ae 3d da f1 5d 3e 45 f0 2d 3e 4f 8b 14 bd
       0.08539081 0.2167429 0.16986187 -0.036265668
000350 44 f0 70 3d 1f 9c 45 be 1b b8 48 3d 45 79 cd bd
       0.058822885 -0.19297837 0.0490037 -0.10032896
000360 1b 81 5c 3e 84 3f fa bd 43 f7 6d 3d 36 87 0d be
       0.21533625 -0.12219146 0.058097135 -0.1382111
000370 0c 0f 85 bd bd 74 81 ba fe 1c be 3d 1e c0 8d bd
       -0.064970106 -0.000987671 0.092828736 -0.06921409
000380 09 4b ce 3d 69 58 16 3e 7c 2e 35 be c0 4b 6b bd
       0.100729056 0.14682163 -0.17693514 -0.057445288
000390 98 16 d6 bd 41 fd 18 3d 4d d2 3e be 2c 92 07 be
       -0.10453528 0.037350897 -0.18634911 -0.13239354
0003a0 51 82 de bd ab bb 9f 3d 90 ad a4 3d bb e5 19 3d
       -0.108647 0.07799467 0.08040917 0.037572604
0003b0 29 27 f5 bc 43 5c 79 3e 45 eb 50 be 89 ae 0c 3d
       -0.0299259 0.24351601 -0.20402248 0.034346137
0003c0 19 4d 88 bd a5 af f8 3c 43 f3 d1 bd 4f 3b c4 3d
       -0.0665533 0.030357191 -0.102514766 0.09581625
0003d0 aa 91 8e bd 92 fa e8 bd 8b a8 74 be de ff ef bd
       -0.06961377 -0.113759175 -0.23892419 -0.11718725
0003e0 6b a1 3e bc de 1c 1b be 2a f1 24 3d 69 c1 ec 3d
       -0.011635165 -0.1514773 0.040269054 0.115603276
0003f0 b4 91 af bd 9e 19 32 bd 81 03 27 be c0 99 17 3e
       -0.085727125 -0.04348146 -0.1630993 0.14804745

sequential/dense_5/MatMul;sequential/dense_5/Relu;sequential/dense_5/BiasAdd f4 [96]
000000 3c 8b 00 bf a2 58 94 3f 71 80 04 3e 3f a4 f5 3e
       -0.50212455 1.1589549 0.12939622 0.47976872
000010 12 d7 10 3f 7c 76 43 3f 26 ac a9 3f 68 75 25 3f
       0.5657817 0.7635267 1.325566 0.6463227
000020 01 88 67 3f dc bc dc 3e 92 a9 6c 3e 24 57 01 be
       0.904419 0.43112838 0.23111561 -0.12630898
000030 e9 45 01 bf d4 f1 e2 3f 21 cb 3b 3f 0b 57 61 bd
       -0.504973 1.773005 0.73356825 -0.05501465
000040 8f 96 d6 3f cb bc 86 3f 78 84 89 bf c0 cc b1 3f
       1.6764697 1.0526365 -1.0743551 1.389061
000050 36 3b 06 3e 56 0d 67 3f 7e bb e8 3d 7d 62 3d 3f
       0.13108525 0.90254724 0.11363886 0.73978406
000060 a2 32 ad 3e 14 c3 62 be 18 0c 40 3f f2 f0 be 3f
       0.33827692 -0.22144729 0.75018454 1.4917281
000070 f5 0f 2f 3e ca c8 7d 3f d8 ce c4 3f 74 9b 6f 3f
       0.17095931 0.99134505 1.5375624 0.9359658
000080 4b 91 9d 3e 6e bb 06 be f9 84 a5 be bc 83 00 bf
       0.30774912 -0.13157436 -0.32328013 -0.5020101
000090 29 e3 62 3f e9 87 19 3f 34 f3 a0 be 65 5f 5f 3f
       0.8862787 0.5997301 -0.3143555 0.87254936
0000a0 b5 89 1e 3f c6 9d 95 3f e5 3e 04 bf 53 8f 73 3f
       0.61928874 1.1688774 -0.5165847 0.9514057
0000b0 cd 37 eb 3c c2 61 c3 be e6 e6 2a 3f 26 c3 a2 3f
       0.028713131 -0.3816052 0.66758573 1.2715805
0000c0 dd 35 80 3f f9 b2 24 3f 26 62 7d 3f 9b dd 88 3e
       1.0016438 0.6433559 0.9897789 0.26731572
0000d0 33 9d ae bf fe 94 6f 3f 93 42 85 3f 2e 3e cd bd
       -1.3641723 0.9358672 1.0410942 -0.100216255
0000e0 af 72 0b 3f e1 b7 19 3e a6 d8 c0 3f 56 99 9e 3f
       0.5447187 0.1501155 1.5066116 1.2390544
0000f0 41 34 87 3e 8c 96 92 3f ff 48 15 3f 12 17 ee be
       0.26407054 1.1452193 0.5831451 -0.46501976
000100 8a 26 c0 3f 35 88 86 3e db 57 90 3c d0 33 6d 3f
       1.5011761 0.26275793 0.017620018 0.92657185
000110 d8 35 92 3f 8c 46 ac 3e 26 33 84 3f 02 63 d6 3e
       1.1422682 0.33647573 1.0328109 0.41872412
000120 b2 27 05 bf 74 c3 e6 bd 5f 9b 2e 3f d2 c6 3f 3f
       -0.52013695 -0.112677485 0.6820583 0.7491275
000130 f8 e7 8f 3f e2 fd 42 3f 77 7f 2d 3f 41 a7 90 3f
       1.1242666 0.76168644 0.6777262 1.1301042
000140 37 79 d8 be a2 44 a4 3f 1f 35 81 3f 09 9b 4a 3f
       -0.4227998 1.2833445 1.0094336 0.79142815
000150 fa a4 2b 3f a8 1c aa bd 81 96 f6 3e f1 f4 9a 3f
       0.6704861 -0.08306247 0.481617 1.2106
000160 38 ed 80 be 7d e9 ad 3f 3e 18 96 bf 7b 13 19 3f
       -0.25180984 1.358688 -1.1726148 0.5979535
000170 b2 90 2a be 3c 18 13 3f 93 3b 24 3f 1b 42 be 3f
       -0.1665676 0.57458854 0.64153403 1.4863924

sequential/batch_normalization_4/batchnorm/mul_1;sequential/batch_normalization_4/batchnorm/add_1;sequential/dense_5/MatMul;sequential/dense_5/Relu;sequential/dense_5/BiasAdd f4 [96, 96]
000000 d6 8c 22 3e c8 ff f9 bc d0 87 c6 bd 72 05 03 3e
       0.15874037 -0.030517474 -0.09693873 0.12795046
000010 f1 3f a1 3c ba 24 ef bd eb 64 8d bd 5a ad 3e be
       0.01968381 -0.11676927 -0.06904014 -0.18620816
000020 e2 38 e5 3d 11 c8 f8 3d 95 ef 11 3d d8 d2 df bc
       0.1119249 0.12147535 0.035628874 -0.027322218
000030 2a a8 18 3c dc 4e 41 3e 7c 26 2c 3c 28 e8 43 bd
       0.009317437 0.18877739 0.010507222 -0.047828823
000040 70 53 9d b9 53 c6 f8 3d ae 0a e7 bd 8b 8d 35 be
       -0.0003000754 0.12147202 -0.11281334 -0.17729776
000050 c1 34 d7 3d 82 fe 1e be 68 5a b1 3c 07 74 2d 3d
       0.10508109 -0.15526775 0.021649554 0.04234698
000060 e8 68 10 3e 17 c0 38 3e 0f de 24 be f9 6c 43 3e
       0.14102519 0.18042026 -0.16100334 0.19084539
000070 89 c3 a0 3d 5c a0 ba bc 08 4c 43 3e a7 3d bf 3d
       0.07849795 -0.022781543 0.19071972 0.09337931
000080 97 8b 1f 3d f1 93 da bd e1 db 1d bd b3 6b e2 bd
       0.038951483 -0.10672749 -0.03853977 -0.11055698
000090 3e df ec bd 5f c7 27 3e dd 49 3c 3d d2 02 b2 bd
       -0.115660176 0.16384648 0.04596888 -0.08691944
0000a0 b3 96 ea 3c c1 c0 cb bd 73 8c f3 3d dd 7b 38 3d
       0.028636312 -0.09948874 0.11892023 0.04504
0000b0 c7 3f 82 3d 4f 43 35 bd 92 f7 07 be 10 4a e6 b9
       0.06359821 -0.044253644 -0.13278034 -0.000439242
0000c0 c7 40 e2 bd 81 d9 9c bd 0a a9 4b bd f2 bd a7 3d
       -0.110475115 -0.07658673 -0.049721755 0.08190526
0000d0 15 28 16 3e 30 45 b3 bd cc 54 61 bd 7c e0 fc bd
       0.14663728 -0.08753431 -0.05501251 -0.123475045
0000e0 3b 6f 2d 3e 8d 81 ab 3d f2 f9 03 bd 46 fe 4b bd
       0.16936962 0.08374319 -0.03222079 -0.04980304
0000f0 fd 81 f7 3d 15 bc 64 be ae bc 90 bd aa c1 aa bd
       0.1208534 -0.22337373 -0.07067238 -0.0833772
000100 3f 85 f8 3d 5a f7 27 3e f9 f8 71 ba 7b 05 5f 3d
       0.1213479 0.16402951 -0.000923052 0.054448586
000110 4f ad fb bc e8 35 9c bd b7 2d 25 3d 36 1a b4 3d
       -0.030722288 -0.07627469 0.0403268 0.08794062
000120 1b 62 96 3d 23 95 93 bd 1f 61 05 be 92 a7 0b 3d
       0.07342931 -0.0720618 -0.1302533 0.034095354
000130 3c e1 96 bc 8f 5b 82 3d f4 e3 db bd 79 46 c7 bc
       -0.018417947 0.0636512 -0.10736838 -0.024325596
000140 0c f6 f3 3d 25 06 ac 3d 22 bc 15 3e 94 6e f6 3d
       0.11912164 0.083996095 0.14622548 0.1203281
000150 5a 57 3e be 25 29 6f bd 9b 3e eb bc d7 75 54 3e
       -0.1858801 -0.058388848 -0.028716376 0.20748077
000160 3d 66 0f be fb 93 5f bd 5c 73 e0 bc 77 3a 50 3e
       -0.14003845 -0.054584485 -0.027398758 0.20334803
000170 c1 89 7a bc 6c e7 8f bd 71 21 a5 3d b1 b4 24 3e
       -0.015291632 -0.07026562 0.08063019 0.16084553
000180 b3 dd 2f 3e ca 74 af bc 5e 9e 21 3e 0f 78 ab bd
       0.17174415 -0.021417994 0.15783069 -0.08372509
000190 51 5b 1e be 08 d9 96 bd 49 d5 1d 3d 5f 8a 1f be
       -0.15464522 -0.07365614 0.038533483 -0.15580128
0001a0 ad 6f 1e bc 80 40 b6 bd 4d 83 18 be 88 16 14 be
       -0.00967018 -0.08899021 -0.14893837 -0.1446172
0001b0 d3 d1 30 be 57 c0 fc bd 4d 24 05 bd e4 70 29 3e
       -0.17267542 -0.123413734 -0.032505322 0.1654697
0001c0 08 63 24 3e a2 e5 59 3e f0 de 2d be 24 1e 8d bd
       0.16053402 0.21279004 -0.16979575 -0.068905145
0001d0 8f b7 0f be e3 30 d4 3d 71 c7 63 bd d0 fb 05 bd
       -0.14034866 0.10360887 -0.055610124 -0.03271085
0001e0 77 e6 ac 3d be db 1b 3d d1 70 65 3d 80 76 19 be
       0.08442395 0.03805136 0.056015793 -0.1498661
0001f0 9d bf 18 3d e4 23 22 3d 04 ba eb bc bf 50 9f bd
       0.03729211 0.03958501 -0.028775223 -0.07779073
000200 1a 30 28 3e 33 a7 08 be 01 d9 43 3d 80 58 c9 bd
       0.164246 -0.13345031 0.047814373 -0.09831333
000210 16 e9 68 3e f6 6f f0 3d 6d b3 e0 bc dc 10 a1 bd
       0.22745165 0.11740105 -0.027429307 -0.07864544
000220 47 f0 f6 bd eb 9b a5 bd 05 57 f6 bd d7 bc 00 be
       -0.12057548 -0.080863796 -0.120283164 -0.12572037
000230 71 e2 ad bc 19 ff ed 3b 43 0c 02 3e 96 2f 20 3d
       -0.02122614 0.007263076 0.1269999 0.03910788
000240 b2 9c eb 3d db f3 05 3e d5 ed 82 bd ed 15 1d be
       0.11504497 0.13081305 -0.06393019 -0.15340395
000250 ce 02 0f 3e 4f 0b 29 bd b4 e3 13 bd b9 b2 f5 3d
       0.13965914 -0.04127055 -0.036105826 0.11996979
000260 6a 98 66 3e b4 9f fb 3d 03 be 17 be c2 a9 75 bd
       0.22519079 0.1228632 -0.14818577 -0.059976347
000270 14 3e 38 be 24 59 c7 3d a6 a6 bd bd 4e 86 22 bd
       -0.17992431 0.09733799 -0.09260301 -0.039678864
000280 34 83 eb bd 1c ac 45 3e 69 57 0d 3e 90 df 2d bc
       -0.114996344 0.19303936 0.13802876 -0.0106123835
000290 15 10 ee 3d 05 cd 0e 3e c5 7d c4 bd 49 46 58 3d
       0.11624161 0.13945396 -0.09594301 0.052801404
0002a0 48 5a dd 3c 6e c7 1c 3d 00 6b fe bd 2f 78 b2 bd
       0.027020589 0.03827613 -0.124227524 -0.087143295
0002b0 9a 5e 49 3e 0a 96 f5 bd 64 ea c3 bc fe f7 de 3d
       0.19664994 -0.11991508 -0.023915477 0.108871445
0002c0 44 d3 34 be 21 42 28 3e fb f9 67 bd 6e 25 86 be
       -0.17658716 0.16431476 -0.056634884 -0.26200432
0002d0 71 b7 a6 bd 76 13 67 3d c2 15 39 bd e8 b2 44 be
       -0.081404574 0.056415044 -0.045186765 -0.19208872
0002e0 26 59 0e 3d 57 83 58 be f5 15 11 be ba 44 a9 3d
       0.034752987 -0.21143852 -0.14168532 0.08265062
0002f0 a2 30 a4 bd fc 8a e0 bd af 22 84 bd 09 d0 e9 bc
       -0.080170885 -0.10964009 -0.06451928 -0.028541582
000300 7d 46 a3 bd f1 39 a7 bd 5a 75 2d be 0e a8 11 3e
       -0.07972429 -0.08165348 -0.16939297 0.14224264
000310 cf 03 c3 3b 16 d0 75 bd f8 31 68 bd f4 25 68 3d
       0.0059513818 -0.0600129 -0.05668828 0.05667682
000320 7f 0b ad bd 76 b6 d0 3d 36 c1 de 3d f5 cc b9 3c
       -0.08449458 0.10191052 0.10876696 0.022680739
000330 e6 f9 59 bd 97 1d 18 3d 52 fe ef 3d 63 3e 2d 3e
       -0.053216837 0.037137594 0.117184296 0.1691833
000340 75 85 72 bb 11 51 ae 3d 2b fd 32 3e 35 f2 93 bc
       -0.0037005816 0.08511556 0.17479388 -0.01805983
000350 b7 84 25 be 14 b4 93 3b 2b 6b ea bc fb 5d f8 bd
       -0.16163908 0.004507551 -0.028615555 -0.121273
000360 b8 b3 a0 3d ab dd 72 3d 40 77 d4 3d 59 84 12 be
       0.07846779 0.05929343 0.10374308 -0.14308299
000370 25 41 48 bd 1c ba 0a 3e d6 c4 07 3e 7a 25 c7 3c
       -0.04889025 0.13547558 0.1325868 0.024309862
000380 ec 30 bb 3d cb 26 29 be 97 6f c1 3d 5b fb 25 3e
       0.091401905 -0.16518705 0.09445112 0.16209166
000390 38 ae 0d be 56 56 4e be 2e fa 2c bd 6d 25 1d be
       -0.1383599 -0.20150122 -0.042230777 -0.15346308
0003a0 d2 90 9f 3d fd 0c 8b bc 3a ac d1 3d 6b a3 06 3e
       0.07791294 -0.016973967 0.10237928 0.13148277
0003b0 d5 85 26 be 4a 9d 8d bc 33 8c 10 be 4d 93 bc bd
       -0.1626199 -0.017286915 -0.14115982 -0.09207783
0003c0 64 fe 2a bc 7c 6f e7 3d f6 21 4c be 2b b9 0f bd
       -0.010436628 0.11300561 -0.1993483 -0.0350887
0003d0 5a 0e 27 be 34 42 19 bd 9d ff 42 3e 0a 9d 73 3e
       -0.16314068 -0.03741665 0.19042821 0.23790374
0003e0 8f bb b1 bd 18 9b 30 be 8f 91 1f bd 9d f9 dd 3b
       -0.08678352 -0.17246664 -0.038957175 0.006774141
0003f0 59 08 81 3d 60 83 38 bb 5a fd ad bc 0e 2a b2 3d
       0.0630042 -0.0028154477 -0.021238972 0.086994275

sequential/dense_6/MatMul;sequential/dense_6/BiasAdd f4 [27]
000000 7d aa f8 3f bc b6 25 3f 3b aa 9d 3f 35 8a 8c be
       1.9427029 0.64731956 1.2317575 -0.27449194
000010 69 97 15 c0 fc 87 44 3f a4 ad 48 be 6c fe 08 3e
       -2.3373663 0.76769996 -0.19597489 0.13378304
000020 83 2a 88 3f 39 3f 83 3d 13 09 3b 3e 1b 1f 86 3f
       1.0637974 0.06408543 0.1826518 1.0478243
000030 e3 8c 89 bd 1f 9b 6f bc 8c 05 cd be 57 76 9b 3e
       -0.06716325 -0.014624386 -0.40043294 0.30363724
000040 0d 0f 27 3f 1f 31 de 3f a7 31 97 3f 97 9c 45 40
       0.6525734 1.735874 1.1812028 3.0876825
000050 57 1a 47 bd c4 95 d2 3e 52 7f 0c 3f ff 64 12 3e
       -0.048609104 0.41129887 0.54881775 0.1429634
000060 89 59 a3 3f 28 e5 48 bf 10 1b c0 3f
       1.2761699 -0.78474665 1.5008259
