BirdNet_Trained_Model/trained_model_classifiers/Custom_Classifier1.tflite (tflite, 111776 bytes, 2 tensors)

sequential/dense/BiasAdd/ReadVariableOp f4 [27]
-0.012200034 -0.0063723065 -0.03791618 -0.01676087 -0.069232516 -0.03366904 -0.04874922 -0.041374613
-0.04198862 -0.006105771 -0.024575623 -0.043409973 -0.079156436 -0.048531823 -0.040265646 -0.024545524
-0.008897411 -0.03970463 -0.06639264 -0.056227267 -0.021555603 -0.055398084 -0.056452483 -0.06472752
-0.034391355 -0.024368627 -0.03859929
00000000: a7e2 47bc c8ce d0bb ff4d 1bbd 184e 89bc
00000010: c7c9 8dbd 8ce8 09bd 43ad 47bd 6d78 29bd
00000020: 42fc 2bbd eb12 c8bb d152 c9bc a8ce 31bd
00000030: c51c a2bd 4ec9 46bd 97ed 24bd b213 c9bc
00000040: 72c6 11bc 52a1 22bd ddf8 87bd 904e 66bd
00000050: 6095 b0bc 1ae9 62bd b83a 67bd dd8f 84bd
00000060: f3dd 0cbd b7a0 c7bc 4a1a 1ebd

sequential/dense/MatMul f4 [27, 1024]
-0.25143504 0.6142224 0.08203549 0.025074178 -0.40302986 -0.37357712 0.20887806 -0.40892175
0.3707682 0.07888632 0.026200539 -2.0411372 0.11204358 0.06124166 -0.17597994 0.35574245
-0.39021122 -0.43758795 -0.10653721 -0.13258798 0.44528785 0.47638628 0.3132468 -0.13167027
-0.2814689 0.24144165 -0.11201606 0.18310162 0.84614563 -0.058141213 0.2911654 0.346453
0.2612868 -0.0016266989 -0.12196566 -0.21926188 -0.41128132 0.9090904 -0.46262294 0.30942115
-0.0038819264 0.09815163 -2.1843977 -0.038302727 -0.26373407 -0.24570705 0.4472565 0.30174068
-1.431083 -0.01677472 0.026140451 0.29972225 -0.89849955 0.13300526 0.849888 0.18399058
-0.7148876 -0.44293845 0.1140386 -0.70277935 0.7789158 -0.24177568 -0.10453562 0.40711084
-0.6653524 -0.22488363 0.4273329 0.40169427 -0.3501247 -0.34795347 -0.24819069 0.37128353
-0.22972032 0.6131092 0.17252865 0.46328768 -0.89124197 0.07678474 0.35962418 0.085292116
-1.1325693 -0.16413644 -0.73452616 0.091414034 0.99877346 -0.3751641 -0.39811218 -0.39287132
0.60731 -0.099219665 -1.2640221 -1.1339678 -0.14136556 0.26380682 -0.012340322 0.64631784
0.37817073 0.32399952 -0.45896715 0.31316885 0.026764873 -0.7129495 0.046891868 -0.43216726
0.14311422 0.04101184 -0.20514564 -0.15969579 0.24215125 -0.35950953 -0.89921 -0.34260365
-0.3118437 0.057174418 0.19065374 -1.1866542 -0.1955225 0.3991784 -0.35862395 -0.092483096
0.043994267 -0.12931545 -0.64807445 -0.08777002 -1.359861 -0.41429475 0.96983933 0.084088944
-0.4442571 0.65384066 0.322178 -0.7805907 0.46080154 -0.71558356 0.32633185 -0.3816479
-0.45549798 0.17990807 -0.79163486 -0.052134342 0.105040155 -0.4664573 -0.915585 -1.260518
0.03831719 0.10228106 -0.5320991 -0.25488126 -0.04982516 0.24663487 0.11379989 0.69781286
0.34848145 0.22232288 0.3349205 -0.12944737 -0.2102911 -0.30019745 0.08480635 -0.06949893
-0.90671086 -1.2285787 -0.36923647 -1.07147 0.27946225 -0.35474092 0.041917667 0.2799769
-0.15399942 0.30215135 -0.66255593 -0.7544626 0.46119413 0.031641092 0.05231399 0.07897646
-0.108257875 -0.3717816 -0.492139 -0.14156602 -0.46593443 -0.27324003 0.73899066 0.056565735
0.015428678 0.85614604 -0.6146235 0.0874245 -0.531508 1.2071522 -1.1718209 1.2959721
-0.4103982 0.008572845 0.33507317 0.5153291 0.10779015 -0.72275543 -1.656684 -0.5095428
0.0100539215 0.007702359 -0.17665476 0.16161598 1.0304427 -0.034048 -0.06183643 -0.25512528
-0.37370574 0.05921618 -0.056090742 0.6151705 -0.50226516 0.7247237 0.5491724 -0.6751629
0.112356655 -0.4694088 0.21919076 0.12448391 -0.52045006 0.11836877 -0.29815948 0.105967686
0.5537738 -0.035829376 -0.27555352 -0.3786199 0.52571315 0.0719049 -0.49557245 0.22726846
-0.48464867 -0.561593 0.25175112 0.2806217 -0.2828404 0.0070344657 -0.37648004 0.4828255
0.09896444 0.46731994 0.18726188 -0.10937265 -0.46182442 0.1114344 0.044344176 -0.00054662995
-0.5083093 0.6099988 0.11287092 -0.046258476 -1.600902 -0.117878176 -0.34649384 0.29298732
00000000: 18bc 80be ae3d 1d3f 3902 a83d 5d68 cd3c
00000010: ee59 cebe 8045 bfbe 21e4 553e 315e d1be
00000020: 54d5 bd3e 278f a13d 83a2 d63c fea1 02c0
00000030: 1b77 e53d 89d8 7a3d 1634 34be e023 b63e
00000040: c4c9 c7be 870b e0be 2e30 dabd 25c5 07be
00000050: c5fc e33e e7e8 f33e e261 a03e 92d4 06be
00000060: b11c 90be 7b3c 773e ad68 e5bd fe7e 3b3e
00000070: 009d 583f 7b25 6ebd a213 953e 4a62 b13e
00000080: 62c7 853e f536 d5ba 22c9 f9bd 3086 60be
00000090: 7793 d2be 26ba 683f eadc ecbe 736c 9e3e
000000a0: eb67 7ebb b903 c93d 2ccd 0bc0 52e3 1cbd
000000b0: 2708 87be a19a 7bbe cefe e43e c17d 9a3e
000000c0: ba2d b7bf 236b 89bc 8024 d63c 3275 993e
000000d0: 1104 66bf 8832 083e 4392 593f 0768 3c3e
000000e0: e002 37bf d4c8 e2be 128d e93d 59e9 33bf
000000f0: 0767 473f 0b94 77be c516 d6bd d570 d03e
00000100: 8954 2abf e547 66be 61cb da3e dfaa cd3e
00000110: 8b43 b3be f526 b2be b325 7ebe e018 be3e
00000120: ce3b 6bbe b9f4 1c3f 5aab 303e 0b34 ed3e
00000130: 6f28 64bf 5141 9d3d a920 b83e a2ad ae3d
00000140: 08f8 90bf 6213 28be e809 3cbf 4837 bb3d
00000150: 9eaf 7f3f 8215 c0be 5cd5 cbbe 6e26 c9be
00000160: ab78 1b3f ae33 cbbd 7acb a1bf db25 91bf
00000170: 22c2 10be b011 873e 102f 4abc 1675 253f
00000180: 989f c13e 44e3 a53e befd eabe ab57 a03e
00000190: 0242 db3c dc83 36bf b011 403d 0745 ddbe
000001a0: 898c 123e 08fc 273d b311 52be 4b87 23be
000001b0: 7ff6 773e a211 b8be a032 66bf bf69 afbe
000001c0: faa9 9fbe b92f 6a3d bc3a 433e 49e4 97bf
000001d0: 0d37 48be 1c61 cc3e 8f9d b7be c767 bdbd
000001e0: 5533 343d 456b 04be 35e8 25bf c5c0 b3bd
000001f0: ed0f aebf 711e d4be 6447 783f d336 ac3d
00000200: ab75 e3be 1a62 273f 84f4 a43e cbd4 47bf
00000210: 2eee eb3e 7c30 37bf f814 a73e 5b67 c3be
00000220: 0837 e9be d239 383e 95a8 4abf d28a 55bd
00000230: 4b1f d73d 7ed3 eebe c763 6abf a758 a1bf
00000240: 7cf2 1c3d bb78 d13d a637 08bf cc7f 82be
00000250: 7815 4cbd da8d 7c3e eb0f e93d dda3 323f
00000260: 296c b23e 9ca8 633e b37a ab3e da8d 04be
00000270: 8d56 57be 7bb3 99be f4ae ad3d 7455 8ebd
00000280: 341e 68bf 1142 9dbf 900c bdbe ee25 89bf
00000290: ad15 8f3e 9aa0 b5be dcb1 2b3d 2259 8f3e
000002a0: 06b2 1dbe 95b3 9a3e 449d 29bf 7624 41bf
000002b0: a321 ec3e 179a 013d 3247 563d 69be a13d
000002c0: 4eb6 ddbd 285a bebe a5f9 fbbe aff6 10be
000002d0: f58e eebe 1ee6 8bbe 7e2e 3d3f 79b1 673d
000002e0: 91c8 7c3c 632c 5b3f f757 1dbf 9e0b b33d
000002f0: e910 08bf f783 9a3f 3afe 95bf 6ae2 a53f
00000300: b61f d2be 1e75 0c3c b68e ab3e 9cec 033f
00000310: 15c1 dc3d 8006 39bf 390e d4bf 6671 02bf
00000320: 34b9 243c 1264 fc3b fce4 34be a97e 253e
00000330: 8ce5 833f ea75 0bbd 3248 7dbd c89f 82be
00000340: 5c56 bfbe aa8c 723d 68bf 65bd d07b 1d3f
00000350: 7394 00bf 7e87 393f 9096 0c3f 7ad7 2cbf
00000360: 3f1b e63d 5a56 f0be 8b73 603e 6cf1 fe3d
00000370: 373c 05bf 536b f23d 5ca8 98be 9605 d93d
00000380: 1fc4 0d3f d3c1 12bd 5a15 8dbe 78da c1be
00000390: 2395 063f e042 933d acbb fdbe 10b9 683e
000003a0: df23 f8be 8fc4 0fbf 86e5 803e a6ad 8f3e
000003b0: 75d0 90be 6081 e63b fec1 c0be e734 f73e
000003c0: dead ca3d 8f44 ef3e 94c1 3f3e c5fe dfbd
000003d0: 4074 ecbe b837 e43d 3da2 353d b74b 0fba
000003e0: 8f20 02bf e228 1c3f de28 e73d 8779 3dbd
000003f0: 5bea ccbf 1d6a f1bd a467 b1be 6f02 963e
