BirdNet_Trained_Model/trained_model_classifiers/Custom_Classifier10.tflite (tflite, 111776 bytes, 2 tensors)

sequential/dense/BiasAdd/ReadVariableOp f4 [27]
00000000: d154 71bc 5f24 b03b 9c64 aebc 9f0e 84bc
00000010: ceab 09bd 19a8 c5bc d7c3 ecbc dfa8 debc
00000020: d7bb d7bc e557 233b 1aff 8bbc c13c cbbc
00000030: 8d91 06bd b147 febc 800d b9bc 87de e2bb
00000040: 3ee8 64bc 87e1 38bc 4cfc debc ac02 d1bc
00000050: cf02 66bc d65f 10bd 2e67 07bd 298a eabc
00000060: e150 46bc 7fa6 6dbc afae 88bc
-0.014729694 0.0053754295 -0.021288209 -0.016120253 -0.03361111 -0.024128007 -0.028901977 -0.027180133
-0.026334686 0.0024924215 -0.017089415 -0.024809243 -0.03285365 -0.031040045 -0.022589445 -0.0069235
-0.0139713865 -0.011284239 -0.027219914 -0.02551397 -0.014038756 -0.035247646 -0.033057384 -0.028630333
-0.012104244 -0.014505028 -0.016684858

sequential/dense/MatMul f4 [27, 1024]
00000000: 2a56 9bbc 000e 323e c88a 023d c85f 203c
00000010: 5422 abbd ada6 afbd d64d c53d 2191 00be
00000020: 8e71 b93c 6d7a b13c bd6d 1c3d 035b d3be
00000030: e1d4 85bd 568a 4d3d 4ade 8ebd 3c50 bd3d
00000040: 998e 1cbe 862b cbbd 1c03 96bd 58cc 853c
00000050: cb46 173e b701 1e3e 9821 723d 1983 0cbe
00000060: 5437 d3bc 4083 b6bc ca56 88bd c790 203d
00000070: 6713 6d3e 591c 95bd 5162 d33c 776d e63d
00000080: ee85 923d 1fed 8c3d fa9b c6bd 11f3 53bd
00000090: e347 92bd cc3b 023e dcfb 1ebe c94d d83d
000000a0: 09cb c83c 5590 b63d c6d3 cdbe 4f23 66be
000000b0: 654b 07be 8490 3bbe fbc7 a13d 43d0 4a3e
000000c0: cc8e d6be fc76 e8bc cb19 c0bc 106a 3a3d
000000d0: 8a89 5ebe ce4a 2bbc 1342 813e b8fe b03d
000000e0: 29d0 e8bc 869e 3ebd dcb6 92bd 68fe eebd
000000f0: 830e 373e b173 13be 2ddb c9bd 85d9 133d
00000100: 8f84 2dbe 505c 10be 0630 8f3d b043 a73d
00000110: c714 11be 30f5 92bd cd32 aebd b925 b53d
00000120: 1d42 01be a7b1 413e 6eba 263d d550 443e
00000130: b6c8 e3be a4f8 d23d 0246 f13d 3bf7 e53c
00000140: 51d3 aabe c1a2 30bc 5ea4 97be 912e 293d
00000150: adcf 613e 9ae7 2fbe 79de 8abd 6cb3 e5bd
00000160: 46eb 4e3e 4316 063d 5cd1 81be 4fd9 debe
00000170: d5c6 69bd fc66 803d 26b0 8ebc 7351 f53d
00000180: 6ecf ab3d de00 1b3d 9435 a3bd f0d8 76ba
00000190: f659 27bd 5540 69be 2084 3bbc f092 d8bd
000001a0: 5c3f ca3c a1a7 8c3b bad2 06be 1c79 1b3c
000001b0: b781 ce3d 7b77 c5bd 8204 b2be 13ba d7bd
000001c0: 41ab efbd b02f 723d 3758 903d 69a3 d0be
000001d0: aba7 3dbe e930 e83d 26ce cabd 3164 dcbc
000001e0: 99b2 ad3c 9d7b 613c 9456 29be 7a9c 05bd
000001f0: 3d69 d6be 6a7c 97bd 2881 573e 6233 143e
00000200: 3d76 87be fc61 3e3e b107 ea3d ffcd 8abe
00000210: c0ae 333e 4977 58be a2dc f03d bb1a 6ebc
00000220: 8059 f7bd 2c2e 973d d710 0bbe 70e6 9abb
00000230: 74cc e93d 83dd b6bd b1ff abbe 48f8 ecbe
00000240: 4eac c0bd affd 36be a7b4 c2be 88eb c7bd
00000250: aa82 063c 27e4 173e b1c1 093d 996e 0f3e
00000260: 2146 063e d1db 0ebd 7dac c13d ac32 7bbd
00000270: ff51 09be ace5 42be 4ed0 93bc f71d d03b
00000280: f7e3 81be f17f 39be d407 05be 7b7c f1be
00000290: f6ed 153e 7b69 26bd f847 c43c 574c 973b
000002a0: 864b 65bd 305c 263e ac12 15be e811 90be
000002b0: 8d51 f93d fa03 3fbd 0dd1 01bd a0b7 07bd
000002c0: 51e2 74bd d630 edbd d29e 99bc 3adb dbbd
000002d0: e9cc 15be 22ba 09bd 60a0 6e3e 317e 95bd
000002e0: 5c26 4dbd be84 883e e31f 0cbe 9dd8 d33d
000002f0: 0d00 a3bd 0ce7 553e 08e9 aebe 40bc a73e
00000300: 6b50 d9bd 685d 8c3c 9609 423e e24b 183e
00000310: 92f2 4cbd 601c 22be 6f9c 90be 323e ccbd
00000320: 9c3d d43d b8c1 043c 798b a53c 741c 5a3d
00000330: ba0e b03e 381c e63c e1b8 13bc f92d 9abd
00000340: c010 fbbd 532f e63d ffcc a7bc f090 973d
00000350: 974f 6cbe 2b5e 3e3e 99f3 3e3e 60bd 75be
00000360: 5797 dfbc d82c 3cbe 8063 4b3d 9855 883d
00000370: 377f 08be a681 27bc 759b ffbd 2457 b63d
00000380: cb8d 4f3e c94d 05bb 805b 90bd e0cf 66bd
00000390: 2c99 653e f4f9 803d 7a77 32be 8b79 bb3d
000003a0: ebba 11be 7302 63bd 50fa 9e3d 8cc0 fd3c
000003b0: 4662 00be 0119 813d 2b86 a2bd d0e8 413e
000003c0: 8db1 a63c 2370 5c3d f2ad 1f3d 34e0 4ebd
000003d0: 549c bdbd b7ff 5c3d 8575 81bc 1b4c 323d
000003e0: 41a4 4bbe 4047 ca3d 0db1 5b3d 9dae 1ebd
000003f0: 915b 03bf 27e5 a1bc 5469 08bd 55d7 a93d
-0.018961985 0.17388153 0.031870633 0.009788461 -0.08356157 -0.08576713 0.09633987 -0.12555362
0.022637155 0.021664822 0.038190592 -0.41280374 -0.06534744 0.050180756 -0.06975992 0.09243819
-0.15288772 -0.09920411 -0.07324812 0.01633279 0.14773099 0.15430342 0.05911407 -0.13721885
-0.025783218 -0.022279382 -0.06657179 0.03920057 0.23151933 -0.072807975 0.025803717 0.112513475
0.07154451 0.06881165 -0.09697719 -0.051745478 -0.071426176 0.12718123 -0.15525764 0.10561711
0.024510877 0.08914248 -0.40200633 -0.22474407 -0.13212354 -0.18316847 0.07899471 0.19806008
-0.4190582 -0.028377049 -0.023449799 0.045511305 -0.21732154 -0.010454847 0.25245723 0.08642334
-0.028419571 -0.0465379 -0.07163784 -0.11669618 0.1787663 -0.14399602 -0.098562576 0.036096115
-0.16945098 -0.14097714 0.069915816 0.08167207 -0.14168082 -0.07175672 -0.08505783 0.08845086
-0.12622876 0.18915425 0.040705137 0.1917146 -0.44489068 0.10301331 0.11780931 0.02807199
-0.33364347 -0.010780991 -0.2961759 0.041304175 0.22051878 -0.17178193 -0.067807145 -0.11215863
0.20206937 0.032736074 -0.2535504 -0.43525168 -0.057074387 0.06269643 -0.017417978 0.11978426
0.083891734 0.037842624 -0.079692036 -0.00094164815 -0.040857278 -0.22778447 -0.011445075 -0.10574901
0.024688415 0.004292444 -0.13166323 0.009489324 0.10083335 -0.0964193 -0.34769064 -0.10533538
-0.11702586 0.05912751 0.07048076 -0.40749672 -0.18520992 0.11337454 -0.09902601 -0.026903244
0.021203326 0.013762382 -0.16536933 -0.03261993 -0.41877165 -0.07396777 0.21045363 0.14472726
-0.26457396 0.18592066 0.11427248 -0.27110288 0.1754713 -0.21139254 0.11760832 -0.01453274
-0.12077618 0.073818535 -0.13580643 -0.0047271773 0.114159495 -0.08928969 -0.33593515 -0.46283174
-0.094078645 -0.1787021 -0.38028452 -0.09761721 0.008209864 0.14833127 0.033631984 0.14007033
0.1311269 -0.034877602 0.09456728 -0.06132762 -0.13410185 -0.19032925 -0.018043663 0.0063512283
-0.25369236 -0.18115212 -0.12991267 -0.47165284 0.14641556 -0.040627938 0.023960099 0.0046172547
-0.055980228 0.16246104 -0.14557904 -0.2813866 0.12173758 -0.04663465 -0.031693507 -0.033134103
-0.059786145 -0.1158158 -0.01875249 -0.107351735 -0.14628948 -0.033624776 0.23303366 -0.0729946
-0.05008541 0.26663774 -0.13684039 0.1034405 -0.07958994 0.20888919 -0.34162164 0.3276081
-0.10611042 0.017134383 0.18948969 0.14872697 -0.05003602 -0.15831137 -0.2824435 -0.099728
0.103633136 0.008102827 0.020208107 0.05324979 0.34386235 0.028089628 -0.009016247 -0.075283
-0.12259054 0.11239495 -0.020483492 0.074006915 -0.23077236 0.1859061 0.18647613 -0.23998022
-0.027293844 -0.18376482 0.049655437 0.06656951 -0.13329779 -0.010223782 -0.12480823 0.089033395
0.20268933 -0.0020340553 -0.07048702 -0.05635059 0.22421712 0.06297675 -0.17428389 0.09154042
-0.1423146 -0.055422258 0.07762587 0.030975603 -0.12537488 0.06303597 -0.07935747 0.18936467
0.020348335 0.05381788 0.038984247 -0.050506786 -0.09258333 0.053954806 -0.015803108 0.04352961
-0.19886877 0.09876871 0.053635646 -0.038740743 -0.51311594 -0.019762589 -0.033303574 0.082930245
