BirdNet_Trained_Model/trained_model_classifiers/Custom_Classifier17.tflite (tflite, 595344 bytes, 14 tensors)

sequential/dense_1/MatMul;sequential/dense_1/Relu;sequential/dense_1/BiasAdd f4 [96]
0	0x42540a12	53.009834
1	0x42203f9b	40.062115
2	0xc201a23c	-32.408432
3	0xc1a3de11	-20.48343
4	0xc23efca7	-47.74673
5	0xc280aeaf	-64.34118
6	0xc09e1fc7	-4.941379
7	0x42830a84	65.52054
8	0x4131effe	11.121092
9	0x428e2abc	71.083466
10	0x407b4586	3.9261184
11	0x41cb5a2c	25.41903
12	0x4147bf28	12.484169
13	0xc2518d17	-52.387783
14	0xc21cce6f	-39.201595
15	0x41af09d8	21.879807
16	0x415a3b0c	13.639416
17	0x417eee1b	15.933131
18	0xc20cedf1	-35.232365
19	0x41b25163	22.28974
20	0x428036b7	64.106865
21	0x412c8926	10.7834835
22	0xc2893d7c	-68.62009
23	0x421ff8fd	39.993153
24	0x4178e50a	15.555918
25	0xc0b5a4df	-5.676376
26	0x418f845d	17.93963
27	0x4285f9a6	66.987595
28	0x4206969e	33.647087
29	0x421b497f	38.821774
30	0xc24a6fab	-50.60905
31	0xc279d3c2	-62.456795
32	0xc1b17fdd	-22.187433
33	0x4157f8f9	13.498284
34	0x42830223	65.50417
35	0x42b883e1	92.257576
36	0xc2657a3c	-57.36937
37	0xbf376da3	-0.7165167
38	0xc2892faa	-68.593094
39	0xc240005e	-48.00036
40	0xc0da3c00	-6.819824
41	0x42b8ab7b	92.33492
42	0x42a1a368	80.81915
43	0xc1d90bdf	-27.130796
44	0xc259ef0f	-54.483456
45	0xc26a3e52	-58.56086
46	0x428b4794	69.6398
47	0xc1b8d34f	-23.103178
48	0xc116d1bc	-9.426205
49	0xc2ccedd2	-102.46449
50	0xc006f387	-2.1086137
51	0x42db21e4	109.56619
52	0xc2067c8d	-33.62163
53	0x4115d105	9.36353
54	0xc24b0991	-50.759342
55	0x40bae350	5.840248
56	0xc286c7a4	-67.38992
57	0x422ec35f	43.690792
58	0x42687f9d	58.124622
59	0x41bef915	23.871622
60	0x41fe9805	31.824228
61	0x401e6b71	2.4753077
62	0xc28fad29	-71.8382
63	0xc1ecdeaa	-29.608723
64	0x42221fce	40.53106
65	0x423ecb2e	47.698418
66	0x42163b7c	37.55809
67	0x41fa7d5d	31.311213
68	0x421f24ff	39.78613
69	0xc03f7d51	-2.9920237
70	0x401460b5	2.3184025
71	0xc201f4e0	-32.489136
72	0x4200076f	32.00726
73	0x415dfe16	13.874533
74	0x421b690b	38.85258
75	0x421a62f9	38.596653
76	0x413f245f	11.94638
77	0x4211c1f4	36.439407
78	0xbf531b56	-0.82463586
79	0x418f9260	17.946472
80	0x41ee8143	29.813116
81	0x40baf561	5.8424535
82	0x41b57ce9	22.685991
83	0x423b096d	46.759205
84	0x4156e0fa	13.429926
85	0x4180c424	16.095772
86	0xc1a534ab	-20.650717
87	0xbeeee861	-0.46661666
88	0x424865f7	50.099575
89	0xc2a63eef	-83.12292
90	0xc22d8887	-43.383327
91	0x42a67a90	83.23938
92	0xc1d4fc41	-26.62317
93	0x41aebca2	21.842106
94	0xc2431019	-48.76572
95	0x42b89885	92.29789

sequential/batch_normalization/batchnorm/mul_1;sequential/batch_normalization/batchnorm/add_1;sequential/dense_1/MatMul;sequential/dense_1/Relu;sequential/dense_1/BiasAdd f4 [96, 96]
0	0x3d067ee8	0.03283587
1	0xbccb6a5e	-0.024830993
2	0xbfa61eed	-1.2978188
3	0xbccf8ba6	-0.025335144
4	0x409940e2	4.7891703
5	0xbd785384	-0.06062652
6	0x36cc35d1	6.085939e-06
7	0x3fa1b7f1	1.263426
8	0x40910fcc	4.5331783
9	0x40bb37bd	5.850554
10	0xc0b86e07	-5.763431
11	0x3b75cde5	0.0037506756
12	0x3e0e1ae7	0.1387745
13	0xbf9671b7	-1.1753453
14	0x3ea20bf5	0.31649747
15	0xbf84b000	-1.0366211
16	0x3f92479b	1.1428102
17	0xbe470f94	-0.19439536
18	0x411a347f	9.637816
19	0xbd7e8eeb	-0.062148016
20	0x3e39e74c	0.18154639
21	0x3fc7a9fa	1.5598748
22	0x3d1ecd6c	0.038770124
23	0xbc273dd8	-0.010207616
24	0x3c80fbbf	0.015745042
25	0xc0233b80	-2.5505066
26	0xbf654f03	-0.8957369
27	0xbd374d24	-0.0447513
28	0xbbd1f337	-0.0064071673
29	0xbfab1b7c	-1.3367763
30	0xc09e89e5	-4.954333
31	0x3d860a2e	0.0654491
32	0xc0eb043c	-7.344267
33	0xbd4dbafc	-0.05022715
34	0xc18c9fd2	-17.578037
35	0x3d7f75e1	0.062368277
36	0xbccb2e95	-0.024802485
37	0x3f12a3d6	0.57281244
38	0xbc32b3e9	-0.010907152
39	0x40ac99de	5.3937826
40	0xbfc85661	-1.5651361
41	0xbd3e5e7c	-0.046476826
42	0x3ad3d0af	0.0016160215
43	0x3faa7ae6	1.3318756
44	0xbd2451e0	-0.040117145
45	0x3fcd0709	1.6017772
46	0xbd0d8f75	-0.03456064
47	0x3fd6c65e	1.6779287
48	0x3966b5bb	0.00022002209
49	0xbd6d64f0	-0.05795759
50	0xbd5ebbb6	-0.054378234
51	0x3fb881df	1.4414634
52	0xbc241b4d	-0.010016275
53	0xb9b52817	-0.0003455288
54	0x40b0429a	5.50813
55	0x3f9b3d47	1.2128075
56	0xc08743d4	-4.22703
57	0xbbfbc182	-0.00768298
58	0x3e921597	0.28532097
59	0x3f8f1540	1.117836
60	0x3e4ea542	0.20180228
61	0x3d043f47	0.03228691
62	0xbda37a16	-0.079822704
63	0x40027425	2.038339
64	0xbe6941ef	-0.22779058
65	0xbd1857fc	-0.037193283
66	0x3fa61d79	1.2977744
67	0x3cd83303	0.026391512
68	0x3bf7f9e7	0.0075676325
69	0x3ecd5b6d	0.40108815
70	0xbdab570e	-0.08366214
71	0xbd19cc16	-0.037548147
72	0x3c3fbb71	0.011702404
73	0x3e1a8e9b	0.15093462
74	0xbcbb8620	-0.022891104
75	0xbd0d48e0	-0.034493327
76	0xbbb66b1b	-0.005566967
77	0x3c860bce	0.01636305
78	0x3a3be284	0.00071672373
79	0xbd210da6	-0.039319657
80	0xbf0bc020	-0.54590034
81	0x3fc9ec39	1.5775214
82	0xbcf226bc	-0.029559486
83	0xbc4eaa31	-0.012613819
84	0xbc84256d	-0.016131127
85	0xbef17473	-0.47159156
86	0x3ea988e9	0.33112267
87	0xbf8363bf	-1.0264815
88	0xbcfd6d35	-0.030935863
89	0x3f963f44	1.1738057
90	0x408537fc	4.163084
91	0x3d70ecf6	0.058819734
92	0x3fafccaf	1.373434
93	0xbd27c172	-0.04095597
94	0xbc19167d	-0.0093437405
95	0x3f668885	0.9005206
96	0xbc436781	-0.011926533
97	0xbd9bc7d5	-0.07606474
98	0xbf632aa8	-0.88736963
99	0x3d11f0cd	0.035630036
100	0xc0612709	-3.5180075
101	0xbf9de126	-1.2334335
102	0x3807b6b5	3.2356667e-05
103	0xbfcb51d4	-1.5884347
104	0xc143385e	-12.2012615
105	0x40a20058	5.062542
106	0xc0a2ae0c	-5.083746
107	0x3b7e6fc9	0.0038823953
108	0x3fc3f853	1.5310158
109	0xbff8701f	-1.9409217
110	0xbf8047ca	-1.0021908
111	0xbf5f802c	-0.8730495
112	0x3fbc97b0	1.4733791
113	0xbe18b913	-0.1491435
114	0x3e288751	0.16457869
115	0x3dc610a0	0.0967114
116	0x3e2c5dc1	0.1683264
117	0x3fa16114	1.2607751
118	0xc0d5fc14	-6.6870213
119	0xbc04e0cb	-0.008110235
120	0x3c5cd176	0.013477674
121	0x414ddba6	12.866125
122	0x3f210da6	0.6291145
123	0xbd1a3c1d	-0.037654985
124	0x3a46d9c9	0.0007585553
125	0xbf49ba3d	-0.787998
126	0x40b51374	5.6586246
127	0xbd8ef45a	-0.069802
128	0xc0c8deaa	-6.2771807
129	0x3d463fb1	0.048400585
130	0xc07163a2	-3.771706
131	0x3df5c29f	0.12000012
132	0xbc0f243f	-0.008736669
133	0x409495eb	4.6433005
134	0xbc44cb2f	-0.012011333
135	0x407a4391	3.910374
136	0x3fbc2140	1.4697647
137	0xbd2936d2	-0.041312046
138	0xbb93177b	-0.004488883
139	0xbeb38cd5	-0.35068384
140	0x3dd1f019	0.10250873
141	0x3faeebd2	1.3665717
142	0xbc5d4122	-0.013504298
143	0x3f8d40d3	1.1035408
144	0x3820521e	3.822345e-05
145	0x3cbde669	0.023181157
146	0x3db36db8	0.087611616
147	0xbea87a67	-0.32905886
148	0xbca11803	-0.01966477
149	0x3c131615	0.008977433
150	0x4120e4d2	10.055864
151	0xbfa842a6	-1.314534
152	0xc0a1bbff	-5.0541987
153	0xbc93a9b1	-0.018025251
154	0x3d892408	0.066963255
155	0xbfd23bab	-1.6424459
156	0x4003c5d0	2.0589485
157	0xbd423173	-0.04741044
158	0xbdd1cf1b	-0.1024458
159	0x3fbce7a3	1.475819
160	0xbedc2dad	-0.43003598
161	0x3c915d67	0.017744733
162	0xbfccb392	-1.59923
163	0xbc0a6ee6	-0.008449292
164	0xbcb20faa	-0.021735985
165	0x3e8e64f6	0.27811402
166	0xbc476247	-0.012169427
167	0x3d7df204	0.061998382
168	0x3bd23ff6	0.006416316
169	0x3ff08f4d	1.8793732
170	0xbd38dc85	-0.04513218
171	0xbc934a72	-0.017979834
172	0x3cc0cfe7	0.023536636
173	0x3b6e93a0	0.003640391
174	0xbc0c5415	-0.008564969
175	0xbd50b743	-0.050956022
176	0x3fedc482	1.8575594
177	0x400c8a6e	2.195949
178	0x3ca5d5ac	0.020243488
179	0x3c6e78e0	0.014555186
180	0x3cb2c920	0.02182442
181	0x3ff04b2d	1.8772942
182	0xbf9558c0	-1.1667709
183	0xbfa2966b	-1.2702154
184	0xbc04b1ba	-0.008099014
185	0x3ff6c98b	1.9280256
186	0x412387a5	10.220616
187	0xbd7b7b5b	-0.061396938
188	0x4046af21	3.104439
189	0x3dc380b0	0.095460296
190	0xbb9f15dd	-0.004854901
191	0xbfbe30df	-1.4858664
192	0x3d32ebf1	0.043682043
193	0xbd202fdb	-0.03910814
194	0x3f8c0b94	1.0941033
195	0x3d2054bb	0.039143305
196	0x3ec9ce0a	0.39415008
197	0x3f18bb01	0.59660345
198	0x37aee1a7	2.0847494e-05
199	0xbfd9a896	-1.7004573
200	0xc08c841e	-4.3911276
201	0x408d000c	4.4062557
202	0xc0289918	-2.634344
203	0xbbe7a386	-0.007069054
204	0x3f933615	1.150088
205	0xbfd68cc9	-1.6761714
206	0x3c2f982c	0.010717433
207	0xbfc1968c	-1.5124068
208	0x40e06feb	7.013662
209	0xbcd785c0	-0.026308894
210	0x40e2fc4c	7.093298
211	0xbd87cca6	-0.066308305
212	0xbd5927b9	-0.053016398
213	0xbf996d78	-1.1986532
214	0xbf735fa4	-0.9506781
215	0x3c04a16f	0.008095129
216	0xbb2de532	-0.0026534316
217	0x3f9fccc9	1.248437
218	0x3f75d7d5	0.9603246
219	0x3cc7c004	0.024383552
220	0xb9f2a24a	-0.00046278752
221	0x3f9f1b03	1.2430118
222	0x40f4e151	7.6525044
223	0x3c39a694	0.011331219
224	0x40f96071	7.7930226
225	0x3d4dda7c	0.05025719
226	0xc058a5bb	-3.3851154
227	0xbcb37267	-0.021905137
228	0xbb8759b2	-0.0041305656
229	0x40399660	2.8998032
230	0xbc25dcbb	-0.010123427
231	0x40b5c952	5.680825
232	0xbfbf2c7f	-1.4935454
233	0xbd15b9b3	-0.03655405
234	0xbc8060bf	-0.015671132
235	0xbff28129	-1.8945667
236	0xbcc46c9f	-0.023977576
237	0x3f7b4097	0.9814543
238	0xbcb5ef27	-0.022208763
239	0xbfe65274	-1.7993913
240	0x388d23fb	6.730106e-05
241	0x3d869fbb	0.06573435
242	0xbe52366f	-0.20528577
243	0xbf895db0	-1.0731716
244	0x3cf05c15	0.029340783
245	0x3bad2294	0.005283663
246	0x4103867f	8.220336
247	0xbf8614c2	-1.0475085
248	0x40dfb8c2	6.9913034
249	0xbc217a61	-0.009855838
250	0x3ed0c394	0.40774214
251	0xc04538e1	-3.0815966
252	0x40680761	3.6254504
253	0x3d8b1564	0.06791189
254	0xbde66db7	-0.11251395
255	0x3f9384f6	1.1524951

sequential/dense_2/MatMul;sequential/dense_2/Relu;sequential/dense_2/BiasAdd f4 [96]
0	0x41cb9c62	25.451359
1	0x420ec6bd	35.69408
2	0x414069bf	12.025817
3	0xc1237fb0	-10.218674
4	0xc23bb027	-46.922024
5	0xc086747c	-4.2017193
6	0x42191847	38.27371
7	0x41c268bf	24.301146
8	0x4032e6f1	2.7953455
9	0x410ef51d	8.934842
10	0x41e9c945	29.223276
11	0x40d4154c	6.6275997
12	0x41b9ee7a	23.241444
13	0xc0cf2d0e	-6.47425
14	0xc1138d94	-9.222065
15	0xc20afd40	-34.747314
16	0xc1cf181e	-25.886776
17	0xc00f1518	-2.2356625
18	0x412b3a26	10.701696
19	0x413cdcf8	11.803947
20	0x3faa8d5f	1.3324393
21	0x4209867e	34.38134
22	0xc17479a2	-15.2796955
23	0xc2027e14	-32.623123
24	0x41cfa252	25.954258
25	0x4119c191	9.609757
26	0x40cbe52d	6.3717256
27	0xc035b343	-2.8390663
28	0x4193fd7c	18.498772
29	0xc129c98d	-10.611707
30	0x41055322	8.332796
31	0x40192a8a	2.3932214
32	0x41d10d74	26.131569
33	0x4180d5a7	16.104322
34	0x41fbf49b	31.494436
35	0xc12d54ef	-10.833236
36	0x40833842	4.1006174
37	0x41048006	8.281256
38	0x41bcac70	23.584198
39	0xc178a52e	-15.540327
40	0xbee6200a	-0.4494632
41	0xc16cb688	-14.794563
42	0x4180a19e	16.078915
43	0x420ad4c2	34.70777
44	0xc0d1c174	-6.554865
45	0x40a8cc47	5.274936
46	0xbf4a992d	-0.7913998
47	0xc0b3ead9	-5.622418
48	0xc1bd2840	-23.644653
49	0x4203cdda	32.951027
50	0x41e7e0ed	28.984827
51	0x4198ce83	19.100836
52	0x4156af10	13.41774
53	0x423f47e5	47.82021
54	0x40c4410d	6.132941
55	0xc220883f	-40.133053
56	0xc20150b6	-32.32882
57	0xc1e59043	-28.69544
58	0xc0494604	-3.1448984
59	0x41c2d1cb	24.352438
60	0x3f25bc30	0.64740276
61	0x413d8989	11.846078
62	0xc125647b	-10.337031
63	0x4124e2bb	10.305354
64	0xc2089963	-34.14979
65	0xc1cb7a12	-25.434605
66	0x4237b81f	45.929806
67	0x411254d3	9.145709
68	0xc187bd5c	-16.96746
69	0xc132f567	-11.184913
70	0x41928456	18.314617
71	0x40fef1f3	7.967035
72	0xc19e679f	-19.800596
73	0xc1aa5468	-21.291214
74	0x41efa829	29.95711
75	0x4112849c	9.157375
76	0x4186dcc3	16.857794
77	0x420c0ea2	35.01429
78	0xc1b78f5d	-22.945002
79	0x42500700	52.006836
80	0x41fdeac5	31.739634
81	0x4219dd11	38.465885
82	0xc0a85c01	-5.261231
83	0xc0aa543a	-5.3227816
84	0x41b1d48a	22.228779
85	0xc1066d71	-8.401719
86	0x400e38e2	2.2222219
87	0xc1718643	-15.095279
88	0xc104d530	-8.302048
89	0x419a4fe9	19.289019
90	0xc1e08997	-28.067183
91	0xc12238bd	-10.138852
92	0xc13a4ed3	-11.644244
93	0xc146bbaf	-12.420821
94	0x4119ec3f	9.620177
95	0xc11207c7	-9.126899

sequential/batch_normalization_1/batchnorm/mul_1;sequential/batch_normalization_1/batchnorm/add_1;sequential/dense_2/MatMul;sequential/dense_2/Relu;sequential/dense_2/BiasAdd f4 [96, 96]
0	0xbdf7e04e	-0.121033296
1	0xbde8312d	-0.113375045
2	0xbd09aa1e	-0.033609502
3	0xbc0cf1f5	-0.008602609
4	0xbe18cd39	-0.14922036
5	0x3c979207	0.018502248
6	0xbc6d311a	-0.014477039
7	0xbe28f81e	-0.16500899
8	0xbea03641	-0.31291392
9	0xbca7c491	-0.020479472
10	0x3cc22d22	0.023703162
11	0xbf29c383	-0.6631395
12	0xbeaa0c5a	-0.33212548
13	0xbb5677f2	-0.0032725302
14	0xbc93b124	-0.018028803
15	0xbd10e2e5	-0.035372633
16	0x3b8814fc	0.004152892
17	0xbe534576	-0.20631966
18	0xbbfadc76	-0.0076556755
19	0x3c0420dc	0.008064475
20	0xbd347065	-0.0440525
21	0xbe1a11fb	-0.15045922
22	0x3d4f1ad0	0.05056268
23	0x3d2b890d	0.04187875
24	0xba8554ca	-0.0010172364
25	0x3c5eaec9	0.013591477
26	0x3ce7cdfa	0.02829646
27	0xbd0a9a9a	-0.033838846
28	0xbe264f36	-0.16241154
29	0x3dce5fa9	0.100768395
30	0xbb436728	-0.0029816125
31	0xbe185209	-0.14875044
32	0x3bb96260	0.005657479
33	0xbc13d365	-0.009022568
34	0xbe52aa2f	-0.20572732
35	0x3c6e8351	0.014557675
36	0xbd2be610	-0.04196745
37	0x3ca5325e	0.020165619
38	0xbd55a784	-0.05216171
39	0x3cca8d60	0.024725616
40	0x3bc39c37	0.00596955
41	0xbe696331	-0.22791745
42	0x3b9524fe	0.004551529
43	0x3ba191f9	0.0049307314
44	0x3c3c93ab	0.011509816
45	0x3d2cbfaf	0.04217499
46	0x3cfbae30	0.030722708
47	0x3d2680df	0.040650245
48	0x3d26fee6	0.040770434
49	0x3bbd3739	0.0057744053
50	0x3b12012e	0.0022278535
51	0x3d26a1ce	0.040681653
52	0xbcb84bd3	-0.022497093
53	0x3c499d54	0.012305576
54	0xbdbd41c8	-0.092410624
55	0xbe18f489	-0.14937033
56	0x3c69b7b2	0.014264988
57	0x3d9b6daf	0.0758928
58	0xbde9ac7d	-0.11409853
59	0x3dfe9961	0.124315985
60	0xbe2fedf8	-0.17180622
61	0xbdef505d	-0.1168525
62	0x3c1be3f0	0.009514794
63	0xbd8c8402	-0.06861116
64	0xbd2ffca6	-0.042965554
65	0xbe1795ea	-0.14803281
66	0xbdbebc2c	-0.09313235
67	0x3db318a4	0.08744934
68	0xbda110d4	-0.07864538
69	0xbdb3a074	-0.087708384
70	0xbd0e3b3b	-0.034724455
71	0x3d35ef25	0.04441752
72	0x3d3e90fa	0.04652498
73	0x3c6bde28	0.014396228
74	0xbe399b31	-0.18125607
75	0x3de58cbf	0.11208486
76	0x3eca76b7	0.39543697
77	0xbd1681d7	-0.03674492
78	0x3c512ef3	0.012767541
79	0xbcaf5d84	-0.021406896
80	0x3bac8bcd	0.005265689
81	0x3b6dd7f7	0.0036292055
82	0x3ea1c458	0.3159511
83	0xbd9f2f5e	-0.077727064
84	0xbdbce4d9	-0.09223337
85	0xbdab1fe3	-0.08355691
86	0xbd89f8ca	-0.06736906
87	0xbde08ae4	-0.10963991
88	0x3db90291	0.09033693
89	0xbef0c7e6	-0.4702751
90	0xbe40f04a	-0.18841663
91	0x3ccb0060	0.024780452
92	0xbdb07bd9	-0.08617372
93	0x3d4d17fd	0.050071705
94	0x3eafa69f	0.3430681
95	0xbc37dff4	-0.011222828
96	0x3daca07f	0.0842905
97	0xbe121e44	-0.14269358
98	0xbd5c307e	-0.053757183
99	0xbc172a79	-0.009226435
100	0xbe19522b	-0.14972751
101	0xbd5812ee	-0.052752428
102	0x3bac8e4b	0.005265986
103	0xbe42e407	-0.19032298
104	0x3e59d830	0.21273875
105	0xbe639d6c	-0.2222802
106	0xbc86d5ff	-0.016459463
107	0xbf24606a	-0.64209616
108	0xbe42cf30	-0.19024348
109	0xbe5bbabc	-0.21457952
110	0xbca1c254	-0.019745983
111	0xbdb021da	-0.08600207
112	0x3ca96a7a	0.020680655
113	0x3de24fb9	0.11050362
114	0xbdde67ec	-0.10859665
115	0xbd954fcf	-0.07290613
116	0x3dc75d47	0.09734588
117	0x3dd679d9	0.10472459
118	0x3cb3267e	0.02186894
119	0xbca5b83f	-0.020229457
120	0xbe335702	-0.1751366
121	0xbe08c3bb	-0.13355915
122	0xbda7bd24	-0.081903726
123	0x3d22a82e	0.03971117
124	0xbdc70825	-0.0971835
125	0xbd16278d	-0.036658812
126	0xbd944250	-0.072392106
127	0xbdc97637	-0.09837001
128	0xbcc92f37	-0.024558647
129	0xbe0908cb	-0.1338226
130	0x3dc1cb1a	0.09462567
131	0xbcad4ade	-0.021153864
132	0xbd040c97	-0.03223857
133	0xbd420d19	-0.047375772
134	0xbd1aca53	-0.037790608
135	0xbca39718	-0.019969508
136	0x3cfdb5bf	0.030970452
137	0x3d8af7e7	0.06785565
138	0x3b80ca52	0.0039303685
139	0xbd802434	-0.06256905
140	0x3ae32a0b	0.0017331255
141	0x3db34769	0.08753855
142	0x3d246d12	0.04014308
143	0xbd808b2c	-0.06276545
144	0x3e1d4a38	0.15360343
145	0x3d092547	0.033482816
146	0x3c36e02e	0.011161847
147	0x3c8c943c	0.017160527
148	0x3d0bd9bf	0.034143206
149	0xbc510525	-0.012757574
150	0x3cdf6c29	0.027273254
151	0x3e9de2e8	0.30837178
152	0x3d178bf1	0.036998693
153	0x3ddc4d85	0.10756973
154	0xbe2a13c3	-0.16609101
155	0x3e0f7284	0.14008528
156	0x3e0ccd7b	0.1375026
157	0x3d157c86	0.036495708
158	0xbbbe17c7	-0.0058011743
159	0xbecccc5d	-0.39999667
160	0xbc8a307e	-0.016868826
161	0xbe1dc241	-0.15406133
162	0xbdaeb807	-0.08531194
163	0x3df229ed	0.11824403
164	0x3d3a0dd6	0.04542335
165	0xbda7f55c	-0.082010955
166	0xbd710b08	-0.05884841
167	0xbd40365b	-0.046926837
168	0x3d482c3c	0.04887031
169	0x3d1af5ea	0.03783218
170	0x3da6313b	0.08114859
171	0xbdf9307c	-0.12167451
172	0x3f930b12	1.1487753
173	0xbe63eb0a	-0.22257629
174	0xbc23a6e4	-0.00998852
175	0x3d4eb01e	0.050460927
176	0xbb83646e	-0.004009775
177	0xbdb361a3	-0.08758857
178	0xbe49075c	-0.19631714
179	0x3d91a822	0.07112147
180	0xbdaa035b	-0.08301421
181	0xbdc0c044	-0.09411672
182	0xbd1bd6a7	-0.038046505
183	0xbe0c9c21	-0.13731433
184	0x3c9d1e35	0.019179443
185	0xbe9cb61c	-0.30607688
186	0xbe23a638	-0.15981376
187	0x3d7610db	0.06007467
188	0x3e01244d	0.12611504
189	0xbc2070f9	-0.00979256
190	0x3e6e5b1a	0.2327694
191	0x3bba7101	0.0056897406
192	0xbde5f6ac	-0.112286896
193	0x3e0b811d	0.13623472
194	0xbd57f080	-0.052719593
195	0xbccd36c2	-0.025050525
196	0x3e14e3a4	0.14539963
197	0xbd926167	-0.07147484
198	0xbc9b661e	-0.018969592
199	0x3e135c73	0.14390735
200	0xbe4e1966	-0.20126876
201	0x3e4fe46c	0.2030198
202	0x3cb9fa9b	0.022702506
203	0xbdbefc30	-0.09325445
204	0x3dabdbc4	0.08391526
205	0x3ec30483	0.3808938
206	0xbc8e235c	-0.017350845
207	0xbdd85c85	-0.10564522
208	0xbce02daf	-0.027365534
209	0xbe15eb5d	-0.14640565
210	0xba45e593	-0.0007549163
211	0x3d57a364	0.052646056
212	0xbd877487	-0.06614023
213	0x3e47ba32	0.19504622
214	0x3ce5ec11	0.028066667
215	0xbd76c466	-0.060245894
216	0x3d711c20	0.058864713
217	0xbdaa406c	-0.08313069
218	0x3dda5474	0.106606394
219	0xbda730bb	-0.081635915
220	0xbd5e75d8	-0.054311603
221	0xbd7494de	-0.059712283
222	0x3d3a0f14	0.045424536
223	0xbe14de87	-0.14538012
224	0xbbe04b4c	-0.0068449136
225	0x3c25725a	0.010098064
226	0x3d8c9534	0.06864396
227	0xbc9ba776	-0.01900075
228	0xbd656f20	-0.05601418
229	0x3d0d4266	0.03448715
230	0xbdbb42bc	-0.09143588
231	0xbab916ad	-0.0014121138
232	0xbb1f16b9	-0.0024275018
233	0xbe32487b	-0.17410462
234	0xbb496cb0	-0.0030734949
235	0xbd206fe7	-0.03916922
236	0xbc1a79ab	-0.009428422
237	0xbdd39f8f	-0.10333168
238	0x3d90f593	0.070780896
239	0x3b17adb2	0.0023144302
240	0xbe46ae10	-0.19402337
241	0xbd0202c9	-0.031740937
242	0xbc82230d	-0.015885854
243	0x3d868b5f	0.06569552
244	0xbb2dc3c8	-0.00265144
245	0xbd24075b	-0.040046077
246	0xbc32e7f6	-0.010919562
247	0x3df85fc2	0.12127639
248	0xbd5f17de	-0.05446612
249	0xbe52c17b	-0.2058162
250	0x3e6ea2ee	0.2330434
251	0x3c1323bd	0.008980689
252	0xbe1b524d	-0.15168114
253	0xbdac56de	-0.08415006
254	0x3ac2902f	0.0014843995
255	0x3ec7fca2	0.3905993

sequential/dense_3/MatMul;sequential/dense_3/Relu;sequential/dense_3/BiasAdd f4 [96]
0	0x412ba695	10.728169
1	0xc102f3ff	-8.184569
2	0xc17ea1f0	-15.9145355
3	0x3f7e33b2	0.9929763
4	0x40fd42f8	7.914425
5	0xc156e6ea	-13.4313755
6	0x41cd2fda	25.648365
7	0xc0917321	-4.545304
8	0x40995898	4.7920647
9	0xc102c108	-8.172127
10	0x40e25069	7.0723157
11	0x404db025	3.213876
12	0xc056b02e	-3.3545032
13	0x421ec00e	39.687553
14	0xc0b91691	-5.7840047
15	0xc19af5bf	-19.369993
16	0x3ec37026	0.381715
17	0xc1490240	-12.563049
18	0x417b76b2	15.716478
19	0xc11bc23f	-9.734923
20	0x41f9686a	31.175983
21	0x4111f39b	9.121974
22	0x41ddab44	27.708626
23	0x4138b8f2	11.545153
24	0xc07262d1	-3.7872813
25	0xc1867bf7	-16.81053
26	0x41135688	9.208626
27	0xc0d43b62	-6.632249
28	0x416baf23	14.730258
29	0x4235dbbd	45.46459
30	0xbfb9c251	-1.4512426
31	0x40fe32a2	7.943681
32	0x4103e533	8.243457
33	0xc11964fe	-9.587156
34	0xc0ad39b4	-5.413294
35	0xc1334628	-11.204628
36	0xc1935f6d	-18.421595
37	0xc1ffaaa8	-31.958328
38	0x41583e99	13.515283
39	0x40d5c764	6.6805897
40	0x41ca3c8a	25.27956
41	0x3d26be18	0.04070863
42	0xc1923c3b	-18.27941
43	0x40b3b31d	5.6156144
44	0x401d0f7d	2.4540703
45	0x3fe6f942	1.8044817
46	0x420e1813	35.52351
47	0x408b0130	4.343895
48	0x3f1bf3e3	0.60919017
49	0xc0921e71	-4.566216
50	0x40c5b008	6.177738
51	0x4163dd2a	14.241495
52	0x42383d4f	46.05987
53	0x41fc79d2	31.559483
54	0xc12af3c3	-10.684512
55	0xc075d65f	-3.8412092
56	0x40fe23ad	7.941855
57	0x40a03263	5.0061507
58	0xc130a0fa	-11.039301
59	0x419a983e	19.324337
60	0x41803183	16.024176
61	0x420313f8	32.7695
62	0xc076d82d	-3.8569443
63	0xc167fd07	-14.499274
64	0x40873107	4.224735
65	0xc00ca9ba	-2.1978593
66	0x41923e66	18.280468
67	0x3e0e0ca6	0.13872012
68	0xbf2a76e9	-0.6658769
69	0x412b75f3	10.716296
70	0xbde3f7b2	-0.111312285
71	0x4227ab15	41.917072
72	0xc0319f8f	-2.7753637
73	0x41ae545c	21.791191
74	0x40dcbbd6	6.897929
75	0xc05a0bfc	-3.4069815
76	0x41ea47ab	29.284994
77	0xc0895ea3	-4.2928023
78	0xc0a1cc03	-5.056154
79	0xc00db39b	-2.2140872
80	0xc19358fb	-18.418447
81	0x408da2fe	4.4261465
82	0xc0cddd8f	-6.4332957
83	0x41a0874b	20.066061
84	0xc20935ad	-34.302418
85	0xc1760722	-15.376741
86	0x40793673	3.8939483
87	0x42323528	44.55191
88	0x41230e81	10.191041
89	0xc0fea5f4	-7.957758
90	0x406d7f94	3.7109118
91	0x41993b30	19.1539
92	0x42103b26	36.057762
93	0x4189ba05	17.21583
94	0x41ba32e2	23.274845
95	0xc00db738	-2.2143078

sequential/batch_normalization_2/batchnorm/mul_1;sequential/batch_normalization_2/batchnorm/add_1;sequential/dense_3/MatMul;sequential/dense_3/Relu;sequential/dense_3/BiasAdd f4 [96, 96]
0	0xbd7c97c5	-0.061668176
1	0x3cb3b6f0	0.021937817
2	0x3a3a10e7	0.00070978556
3	0xbe85de0a	-0.26145965
4	0x3ee81031	0.45324853
5	0x3e1dfa3a	0.15427485
6	0x3e87fe35	0.26561132
7	0x3b84eb6c	0.004056385
8	0xbc24bf5e	-0.010055391
9	0x3d8ed327	0.06973868
10	0x3c3ddc57	0.011588178
11	0xbbb9210c	-0.0056496914
12	0xbd47be0f	-0.04876524
13	0x3c05d148	0.008167572
14	0x3e5bf451	0.21479918
15	0x3ccb4bee	0.02481648
16	0xbe3e00bc	-0.18554968
17	0x3c55c225	0.013046776
18	0x3cc735ed	0.024317706
19	0xbbc6cd8d	-0.006066984
20	0xbcb4f47f	-0.022089241
21	0xbdab5183	-0.083651565
22	0x3d18990d	0.037255336
23	0x3d8255d3	0.06364026
24	0x3cfe0517	0.031008286
25	0x3d8c5efe	0.06854056
26	0x3a627043	0.0008637944
27	0x3d15ede6	0.03660383
28	0x3c9e88f4	0.019352414
29	0x3a89d49f	0.0010515637
30	0x3c41869c	0.0118118785
31	0xbd9ab3f0	-0.075538516
32	0x3c829ba5	0.015943358
33	0xbe0f9c1f	-0.14024399
34	0x3dfb6142	0.1227441
35	0x3d70254d	0.058629323
36	0xbde8358a	-0.11338337
37	0xbdd61030	-0.10452306
38	0x3aa3918f	0.0012479293
39	0xbe2117f8	-0.157318
40	0x3d50df48	0.050994188
41	0xbd3fc209	-0.046815906
42	0xbdcfd1db	-0.10147449
43	0x3d5789b4	0.05262156
44	0x3dadbf2d	0.084837295
45	0xbded675c	-0.1159198
46	0xbe00226b	-0.1251313
47	0x3bb1c9c4	0.0054256637
48	0xbe10d43d	-0.14143462
49	0x3d5dd361	0.054156665
50	0x3e6d8bad	0.23197813
51	0xbdbade65	-0.0912445
52	0x3aa66ed9	0.001269783
53	0x3cd4be40	0.025969625
54	0xbd1cc690	-0.0382753
55	0x3d192166	0.037385367
56	0xc0809393	-4.0180144
57	0x3b0274f6	0.001990614
58	0x3caa97f1	0.020824404
59	0xbd070b77	-0.032969918
60	0xbc29fa8a	-0.010374675
61	0x3ce61c6d	0.028089726
62	0x3c9a79cf	0.018856911
63	0x3e8ccfa2	0.2750216
64	0xbeb5c4a7	-0.35501596
65	0xbd36b876	-0.04460951
66	0xbb72d056	-0.0037050447
67	0xbdc11d72	-0.094294444
68	0xbc95d385	-0.018289337
69	0xbe9be74e	-0.3044991
70	0x3c802a5c	0.015645199
71	0xbb59b695	-0.00332204
72	0x3d72194b	0.059106153
73	0xbe07019d	-0.13184209
74	0x3d802bc1	0.062583454
75	0xbe121cfe	-0.14268872
76	0x3e04ad2b	0.12956683
77	0x3b5b7c10	0.0033490695
78	0xbe299d38	-0.1656388
79	0x3da0f914	0.07860008
80	0x3e675d18	0.22594106
81	0x3e426561	0.18983985
82	0x3d07f5bf	0.033193346
83	0xbd6803b9	-0.056644175
84	0xbd3373ea	-0.043811716
85	0xbd2f80cd	-0.042847443
86	0xbcb5f3e6	-0.022211026
87	0xbdfb34b2	-0.1226591
88	0xbe3eac45	-0.18620403
89	0x3dbd69a9	0.09248669
90	0x3f070202	0.5273744
91	0xbde8075a	-0.11329527
92	0xbbc697d9	-0.006060582
93	0x3ca9b527	0.020716263
94	0xbb4e26c8	-0.003145622
95	0xbd48d0d9	-0.049027298
96	0xbd193f32	-0.037413783
97	0x3d86f6ed	0.06590066
98	0xb929c774	-0.00016191398
99	0x3f32b601	0.69808966
100	0xbea5ee84	-0.32408535
101	0x3b95a282	0.0045664916
102	0x3e141c4a	0.14463916
103	0xbbc53ac5	-0.0060189688
104	0x3ae59d68	0.0017518224
105	0xbd0679e6	-0.032831095
106	0x3c9c3b5a	0.01907127
107	0xbbabadab	-0.0052392087
108	0x3cd671b6	0.026177268
109	0xbe4e6423	-0.20155387
110	0x3d46c6b6	0.04852935
111	0xbe3d451f	-0.18483399
112	0xbb4bb862	-0.0031085243
113	0x3b962fe5	0.004583346
114	0x3d0db524	0.034596577
115	0x3da14b03	0.078756355
116	0x3d411919	0.047143076
117	0xbb525bd7	-0.0032098198
118	0xbdf43c54	-0.11925569
119	0xbc57de8a	-0.013175616
120	0x3dfc8bd2	0.12331356
121	0x3dc85a8e	0.09782897
122	0xbd45da08	-0.048303634
123	0x3e1ed425	0.15510614
124	0x3cac657d	0.021044487
125	0x3b496266	0.0030728816
126	0xbb3bcd2a	-0.0028656223
127	0x3e2254fb	0.1585273
128	0xbc956b43	-0.018239623
129	0xbd505e89	-0.050871406
130	0x3dddedd7	0.1083638
131	0xbdf6276f	-0.1201924
132	0x3da7c60d	0.08192072
133	0x3c37e24b	0.011223386
134	0x3c112b35	0.008860399
135	0xbe85e85b	-0.26153836
136	0xbd1a79f1	-0.03771395
137	0xbd898945	-0.06715635
138	0x3e607a84	0.21921736
139	0x3d6f0202	0.058351524
140	0x3d149cfa	0.036282517
141	0x3e16485b	0.14676039
142	0xbe05eb58	-0.13078058
143	0xbdd20d64	-0.1025646
144	0xbedcd7f6	-0.43133515
145	0x3eba8bbf	0.36434743
146	0x3e561117	0.20904957
147	0xbde211c6	-0.11038546
148	0x3cdfef0d	0.027335668
149	0x3c5e3958	0.0135634765
150	0xbba15dc9	-0.00492451
151	0xbd2ae429	-0.041721497
152	0xc0bda344	-5.92618
153	0xbaeb15ee	-0.0017935613
154	0xbcdc4fdd	-0.02689355
155	0x3d6734bf	0.056446787
156	0xbbe8bd9a	-0.0071026804
157	0x3e2ef0fa	0.17084113
158	0xbc64a7f1	-0.013956056
159	0x3ddc1654	0.10746446
160	0xbe509d6f	-0.20372556
161	0xbd0d38d9	-0.034478042
162	0x3d51c237	0.05121061
163	0xbd87cb7b	-0.06630608
164	0xbcc8daf1	-0.024518462
165	0xbe3a5bd3	-0.1819909
166	0x3bf01462	0.0073266486
167	0xbbb6a764	-0.0055741537
168	0x3cf42ad8	0.029805586
169	0x3df38fd1	0.11892665
170	0xbf142914	-0.5787518
171	0x3ed194c7	0.4093382
172	0x3e78112d	0.24225302
173	0x3d8b119e	0.067904696
174	0x3d35f3f3	0.0444221
175	0x3d9cc66d	0.07655034
176	0xbe10f94b	-0.14157598
177	0x3ebef9f0	0.37300062
178	0xbc3d36d3	-0.011548716
179	0xbccc55ed	-0.024943316
180	0xbd0c48ad	-0.034248997
181	0xbe28a10f	-0.16467689
182	0x3ad93936	0.0016572836
183	0x3d6e9efc	0.058257088
184	0xbe80eb6c	-0.25179613
185	0xbcefb3b6	-0.029260498
186	0x3ecf17e5	0.40447918
187	0x3db98645	0.09058813
188	0x3bb04124	0.005378859
189	0x3b6e36c6	0.0036348565
190	0xbc0bee5f	-0.008540719
191	0xbd04435e	-0.03229081
192	0x3d660e03	0.056165706
193	0xbbf959e0	-0.007609591
194	0xb9d46ea6	-0.0004051823
195	0xbf4e1a85	-0.80509216
196	0x3f01414b	0.50490254
197	0xbe6e478b	-0.23269479
198	0x3d86a487	0.0657435
199	0x3a456a42	0.0007530787
200	0x3be82b94	0.007085273
201	0xbc9170ea	-0.017754037
202	0x3d2dd568	0.04243985
203	0xbca18b14	-0.019719638
204	0x3d193b4d	0.03741007
205	0xbd759d95	-0.059964735
206	0xbcd6b312	-0.026208434
207	0xbded9397	-0.11600416
208	0xbe1f0826	-0.15530452
209	0xbb156653	-0.0022796586
210	0x3cc9a216	0.024613421
211	0x3db5184b	0.08842524
212	0xbceacba5	-0.028661558
213	0xbcfb65a5	-0.030688116
214	0xbddafbbb	-0.10692545
215	0x3de02ad8	0.10945672
216	0xbd8e6852	-0.06953491
217	0x3e2977fa	0.16549674
218	0xbd31e7e8	-0.043434054
219	0x3ce20ca2	0.027593914
220	0x3d0bcd96	0.03413161
221	0x3b51eacf	0.0032030826
222	0x3b9f725b	0.004865927
223	0x3e253dd7	0.16136871
224	0x3b31394e	0.0027042213
225	0x3d0c9a43	0.034326803
226	0xbdbb1873	-0.09135523
227	0x3db95bf7	0.09050744
228	0x3d9e60fb	0.07733341
229	0xbdd327f8	-0.10310358
230	0xbc1215b2	-0.008916305
231	0x3bf22c44	0.007390531
232	0x3d050d0e	0.032483153
233	0xbd6fd4c5	-0.058552522
234	0x3e5753a1	0.21027996
235	0x3d8845be	0.06653927
236	0xbe09ac9d	-0.13444753
237	0x3d9bef34	0.07613984
238	0xbe00917e	-0.12555501
239	0x3dc9849c	0.09839746
240	0xbcf464ad	-0.029833162
241	0x3d9cafb9	0.07650704
242	0x3e512ff8	0.20428455
243	0x3de64aff	0.11244773
244	0xbc96f7ae	-0.01842865
245	0xbdd1ab4a	-0.10237749
246	0x3da9a05a	0.08282538
247	0xbd32ae42	-0.043623216
248	0xbf8d076a	-1.1017888
249	0x3b198f99	0.0023431538
250	0x3d33fbef	0.043941434
251	0x3d84a05b	0.06475898
252	0x3b3fa4ef	0.0029242595
253	0xbd83f626	-0.064434335
254	0xbc82970c	-0.015941165
255	0xbdf71033	-0.12063637

sequential/dense_4/MatMul;sequential/dense_4/Relu;sequential/dense_4/BiasAdd f4 [96]
0	0x41b1eb55	22.239908
1	0x41c71822	24.886784
2	0x40f9aa8b	7.802068
3	0xc1cd01e8	-25.62593
4	0x40697f1e	3.6483836
5	0x411e10e4	9.879124
6	0x4026add2	2.6043591
7	0x410490ea	8.285379
8	0xc084e24a	-4.152623
9	0xc170b82c	-15.044964
10	0xc1231a5c	-10.193935
11	0xc10c0221	-8.75052
12	0xc074064d	-3.8128846
13	0x410d622f	8.836471
14	0x41826098	16.297165
15	0xc1039080	-8.222778
16	0x41ac011e	21.500546
17	0x42013835	32.30489
18	0x40542adb	3.3151157
19	0xc08b1b92	-4.3471155
20	0x4202f760	32.741577
21	0xc06abc67	-3.6677492
22	0xc0b207a8	-5.5634346
23	0xc17092de	-15.035856
24	0x3fe18d72	1.7621291
25	0xc202b335	-32.675007
26	0x40b6f711	5.7176595
27	0xc102ccd3	-8.175006
28	0xc1319164	-11.097996
29	0xc1967c61	-18.810732
30	0xc0a20f87	-5.0643954
31	0x41621c3a	14.131891
32	0xc1fda4d7	-31.705488
33	0x41a28e91	20.319613
34	0x41abdb9f	21.482237
35	0xc15064f8	-13.024651
36	0xc19edc79	-19.857653
37	0x4049a2ab	3.1505535
38	0x4184c222	16.594791
39	0xbfdf9078	-1.7465963
40	0x41e200f9	28.250475
41	0x420ce7c3	35.22633
42	0x3fea49c9	1.8303767
43	0x40c3d5c6	6.1198454
44	0xc085b4ed	-4.1783357
45	0xc18020b9	-16.015978
46	0xc088fbda	-4.2807436
47	0x411d399e	9.826567
48	0x41d6c5ac	26.84652
49	0x42257cec	41.371994
50	0xc0074b1a	-2.1139588
51	0x418dfe9b	17.74932
52	0x40d855b8	6.7604637
53	0x417c0863	15.752048
54	0x41a9b4b7	21.21324
55	0xbf34e39b	-0.706598
56	0xc1856a0d	-16.676783
57	0x426e9dae	59.653984
58	0x41863994	16.778114
59	0x4056c3ea	3.3557076
60	0xc191d733	-18.230078
61	0xc10262bd	-8.149106
62	0xc1316b99	-11.088769
63	0xc157201b	-13.445338
64	0xc12343c3	-10.204043
65	0x416d5f72	14.835802
66	0x41cc31f7	25.524397
67	0xc184ff62	-16.624699
68	0x40e460d5	7.1368203
69	0xbf38c389	-0.7217336
70	0xc083be20	-4.1169586
71	0xc1b9d2e2	-23.22797
72	0x4025ae96	2.5887809
73	0x414f9ff5	12.976552
74	0xc0a33c73	-5.101129
75	0x41059c62	8.350679
76	0xc11ae8a1	-9.681794
77	0x40787587	3.8821733
78	0xc108b44f	-8.544021
79	0xc115d342	-9.364077
80	0xbf0b6794	-0.5445492
81	0xc165024d	-14.313062
82	0x3fb422b8	1.4073095
83	0x410d054d	8.813794
84	0xc08df0a8	-4.435627
85	0xc0909fff	-4.519531
86	0x4190fffa	18.124989
87	0xc16cfe64	-14.812107
88	0xc0a3e821	-5.122086
89	0x40c64da4	6.1969776
90	0x41e24d37	28.287703
91	0x41fd0e05	31.631845
92	0x417baae4	15.729221
93	0x416fcde8	14.98777
94	0x41c7008a	24.875263
95	0x4187816c	16.938194

sequential/batch_normalization_3/batchnorm/mul_1;sequential/batch_normalization_3/batchnorm/add_1;sequential/dense_4/MatMul;sequential/dense_4/Relu;sequential/dense_4/BiasAdd f4 [96, 96]
0	0xbbd69167	-0.006548095
1	0x3d58506e	0.05281108
2	0xbd5abb6a	-0.05340139
3	0xbcba0f25	-0.0227123
4	0xbad51537	-0.0016256933
5	0x3cb1db64	0.021711059
6	0xbd693967	-0.05693951
7	0xbc4f2c0e	-0.012644781
8	0x3cc08c6c	0.023504458
9	0x3d1fe0c1	0.0390327
10	0xbd9292ea	-0.07156928
11	0xbd88eef0	-0.06686199
12	0x3d287ed2	0.04113657
13	0xbd4cf100	-0.050034523
14	0x3cbb2fe9	0.022849994
15	0xbe1e6a44	-0.15470225
16	0x3b0e6b0a	0.002173128
17	0xbe4b614e	-0.19861338
18	0xbd095897	-0.03353175
19	0xbe0a0b26	-0.13480815
20	0xbce65176	-0.028115015
21	0x3d7f1663	0.06227721
22	0xbdb20156	-0.08691661
23	0x3b953106	0.004552963
24	0x3a1a45cf	0.0005885036
25	0x3d8449ba	0.06459375
26	0xbdd5f140	-0.104464054
27	0x3c8facf6	0.017538529
28	0xbd8b2f52	-0.06796135
29	0x3d2bf866	0.041984938
30	0xbd31d789	-0.04341844
31	0xbd4b7998	-0.049676508
32	0xbc585f48	-0.013206311
33	0xbaea2038	-0.0017862385
34	0x39c0323d	0.00036658524
35	0x3e28c360	0.1648078
36	0xbc197ce6	-0.009368157
37	0xbebdb400	-0.37051392
38	0xbdb54c1a	-0.08852406
39	0xbdcd493d	-0.10023735
40	0xbba34f96	-0.0049838526
41	0xb9fa7941	-0.00047774057
42	0x3d63c234	0.05560513
43	0xbd516dd4	-0.05113013
44	0xbde31fd0	-0.11090052
45	0x3cc61209	0.024178522
46	0x3d876991	0.06611932
47	0xbe13f6ec	-0.14449662
48	0x3cd473bd	0.025934095
49	0x3d5173d1	0.05113584
50	0x3cef1e98	0.029189393
51	0xbd4a02cb	-0.04931907
52	0x3e567b65	0.20945509
53	0x3ddea02b	0.10870393
54	0xbda8ebce	-0.08248101
55	0xbd100461	-0.035160426
56	0xbda091d2	-0.07840313
57	0x3d87dd8a	0.06634052
58	0x3e330793	0.17483358
59	0xba10c9d1	-0.0005523237
60	0xbdf2dbed	-0.11858354
61	0x3c10c8d6	0.0088369455
62	0xbe38a365	-0.1803108
63	0x3b2f0a5b	0.0026709053
64	0xbddffde2	-0.10937096
65	0x3d0ee7c3	0.034888994
66	0xbd4e7b99	-0.05041084
67	0x3e2f7d02	0.1713753
68	0xbd1cdd95	-0.038297255
69	0xbc8cc27c	-0.017182581
70	0xbd0a2d5f	-0.033734675
71	0x3c277dc0	0.010222852
72	0xbd942717	-0.07234018
73	0xbbfceb9c	-0.0077185165
74	0xbc2ba125	-0.010475432
75	0xbc95a81e	-0.018268641
76	0x3ccbab2c	0.024861895
77	0xbd851e05	-0.064998664
78	0x3e1acec8	0.15117943
79	0xbded372e	-0.1158279
80	0xbd666a1f	-0.05625355
81	0xbd14aa13	-0.036295008
82	0xbbba9237	-0.0056936997
83	0x3cea2f24	0.028586932
84	0xbe180400	-0.14845276
85	0x3db75e4e	0.08953534
86	0xbc875bc3	-0.016523248
87	0xbdc02616	-0.09382264
88	0x3ad8d4d4	0.001654292
89	0xbc5b9a63	-0.013403508
90	0xbd9459f2	-0.07243718
91	0x3d99258c	0.074778646
92	0x3dac743d	0.08420608
93	0xbbffb0c0	-0.0078030527
94	0x3b9de954	0.0048190746
95	0xbcafaccc	-0.0214447
96	0xbe06ac16	-0.13151583
97	0xbdc38e9b	-0.09548684
98	0x3d2bcb4d	0.04194193
99	0xbc4e79a7	-0.012602246
100	0x3c5f9696	0.013646742
101	0x3c85d343	0.016336089
102	0xbc0fe1f9	-0.008781903
103	0xba878cb2	-0.0010341613
104	0x3c67da82	0.014151217
105	0xbdd874b5	-0.10569135
106	0xbd37576c	-0.044761106
107	0x3d207241	0.03917146
108	0xbd0962a1	-0.033541325
109	0x3da2e843	0.07954457
110	0xbd56a444	-0.05240275
111	0x3daf8fd7	0.08572357
112	0x3b8d3278	0.004308995
113	0xbe13c6c5	-0.14431293
114	0x3ce4b85b	0.027919939
115	0x3cb3afc6	0.021934401
116	0x3cb1267b	0.021624794
117	0xbcd8886b	-0.026432237
118	0x3d13a7b8	0.03604862
119	0xbd1c548d	-0.03816657
120	0x3cd6f142	0.026238088
121	0x3d4cb085	0.04997303
122	0xbd68609b	-0.056732755
123	0x3ccd50d3	0.025062954
124	0x3d82e617	0.063915424
125	0x3d318d58	0.043347687
126	0xbcf74921	-0.030186238
127	0x3c987091	0.018608363
128	0x3bfb367d	0.0076664076
129	0x3c28b1f8	0.010296337
130	0x3bbde0ae	0.005794606
131	0xbdba0aa9	-0.090840645
132	0xbdc24e85	-0.09487633
133	0x3bddade4	0.006765114
134	0xbd04cc94	-0.032421663
135	0xbd750f63	-0.059829127
136	0x3b951484	0.004549565
137	0x3abf8fb2	0.0014614968
138	0xbd5ff35e	-0.054675452
139	0xbe2b4fe6	-0.16729698
140	0xbdc6ca12	-0.097065106
141	0x3cdd9c38	0.02705203
142	0x3ca95ec7	0.020675076
143	0xbe3a9ced	-0.18223925
144	0xbd96887b	-0.0735025
145	0xbb878a15	-0.0041363337
146	0xbd08a836	-0.033363543
147	0x3b242c50	0.0025050826
148	0x3e5ec090	0.21753144
149	0xbda8d0f0	-0.08242977
150	0xbc95142f	-0.0181981
151	0xbe6a6a8d	-0.22892208
152	0x3c98db14	0.018659152
153	0x3e4039fe	0.18772122
154	0xbe81b82b	-0.25335822
155	0x3db9a20d	0.09064112
156	0xbdbfaf2b	-0.093595825
157	0x3bb8a71a	0.0056351544
158	0xbe885013	-0.26623592
159	0xbc4d6e0f	-0.012538447
160	0x3ba06837	0.004895236
161	0x3d5154e9	0.051106367
162	0xbe10a24d	-0.14124413
163	0xbe016ad4	-0.12638408
164	0xbd3e025a	-0.04638896
165	0x3a408d9e	0.00073453214
166	0x3d5149f9	0.051095936
167	0x3dc30cfe	0.095239624
168	0xbd7ac5fa	-0.06122396
169	0xbd489566	-0.048970602
170	0x3d6c2a34	0.057657436
171	0xbd18f866	-0.037346266
172	0x3d754396	0.059878908
173	0xbd852b4a	-0.06502397
174	0xbbeee79b	-0.007290793
175	0xbd447a13	-0.04796798
176	0xbeab596d	-0.33466664
177	0xbe9f9d63	-0.31174764
178	0xbab7bc26	-0.0014017865
179	0x3c60a09f	0.01371017
180	0xbe3083d0	-0.17237782
181	0x3b276c8d	0.002554688
182	0xbdc77995	-0.09739987
183	0xbd90007e	-0.07031344
184	0x3b47cf2e	0.003048848
185	0x3c8664f3	0.016405558
186	0xbd6d4b6d	-0.05793326
187	0x3e1bc816	0.15213045
188	0xbd05d408	-0.032672912
189	0x3d2227c5	0.03958871
190	0x3b2d3ac2	0.0026432727
191	0xbdd7fb97	-0.10546034
192	0xbdb846b0	-0.089978576
193	0xbd668da6	-0.05628743
194	0xbd85cc48	-0.06533104
195	0xbca5de48	-0.020247594
196	0x3c9077dc	0.017635278
197	0xbd45bde2	-0.04827679
198	0x3d33abc8	0.043864995
199	0x3a3f22f3	0.00072912796
200	0x3ba323c6	0.0049786298
201	0xbd93c42d	-0.07215152
202	0x3cdb5245	0.026772628
203	0xbdadc427	-0.08484679
204	0x3cf7d3ec	0.03025242
205	0x3e00e51a	0.12587395
206	0xbd9f4d1c	-0.07778379
207	0x3d60650e	0.054783873
208	0x3b7ea238	0.0038854014
209	0x3e0daac7	0.13834678
210	0x3c680942	0.0141623635
211	0xbdf99312	-0.121862546
212	0x3c609c85	0.013709192
213	0x3d392840	0.0452044
214	0xbdef8b0a	-0.116964415
215	0xbc834026	-0.0160218
216	0xbc4f9f07	-0.012672192
217	0x3d077591	0.033071104
218	0x3d40d3d1	0.047077004
219	0xbcf84977	-0.030308468
220	0x3d17c033	0.03704853
221	0x3cf59030	0.02997598
222	0xbd1a032e	-0.03760069
223	0x3e2e3f50	0.1701634
224	0xbbf33f4c	-0.007423317
225	0xbc1aca80	-0.009447694
226	0xbacb5dee	-0.0015515664
227	0x3c069b15	0.008215685
228	0xbc88440a	-0.016634006
229	0x3efa1085	0.48840728
230	0xbd3c0dd7	-0.045911636
231	0x3e288f12	0.16460827
232	0x3bdf1520	0.006807938
233	0x3a99fdba	0.001174859
234	0x3ca39098	0.019966409
235	0x3cf7609e	0.030197438
236	0x3d0700f1	0.032959882
237	0x3b8656b6	0.004099692
238	0x3d9f8c62	0.07790448
239	0xbdf6a677	-0.120434694
240	0xbd77f30d	-0.060534526
241	0xbd7a951e	-0.061177365
242	0x3d4ad02c	0.049514934
243	0xbcfa82d3	-0.03057996
244	0x3e3768c1	0.17911054
245	0xbd583403	-0.052783977
246	0x3cd94bb8	0.026525363
247	0x3df9b98c	0.121935934
248	0x3cdd399c	0.02700501
249	0x3dde4688	0.108532965
250	0x3c3998d8	0.011327945
251	0xbde72877	-0.11287015
252	0x3d73edaf	0.059552845
253	0x3b45d5ef	0.0030187329
254	0x3dffb398	0.12485427
255	0xbaf52bd8	-0.0018705083

sequential/dense_5/MatMul;sequential/dense_5/Relu;sequential/dense_5/BiasAdd f4 [96]
0	0xc0fbcf6a	-7.869069
1	0x419c3425	19.525461
2	0xc1fbf8da	-31.49651
3	0x4206d8e0	33.711792
4	0x41afc416	21.970745
5	0xc1a29559	-20.322924
6	0xc05b742e	-3.428966
7	0xc19a8a02	-19.317387
8	0xc215bb1d	-37.432728
9	0xbfe0a0cc	-1.7549071
10	0xc1875e89	-16.92116
11	0xc135aad3	-11.354205
12	0x406f419b	3.7383792
13	0x41bab2a4	23.337227
14	0xc20cbb60	-35.182983
15	0x421c1810	39.0235
16	0xc23fa05b	-47.906597
17	0xc1f30f18	-30.38237
18	0xc11acec2	-9.675478
19	0x421ab8b8	38.68039
20	0xc08b866a	-4.360158
21	0x4151037e	13.063353
22	0x423cb3ec	47.175705
23	0xc33e59eb	-190.35124
24	0xc151fa46	-13.123602
25	0x42b82911	92.08021
26	0x41880ca8	17.00618
27	0xc15a6f54	-13.65218
28	0x41166f83	9.402225
29	0xc3002c31	-128.17262
30	0xc2043641	-33.052982
31	0xc159237d	-13.571164
32	0xc1c8ac3d	-25.0841
33	0x4108faaf	8.561202
34	0x41e4ce29	28.600664
35	0x4193ef93	18.49198
36	0x41329e4a	11.163645
37	0xc0b01271	-5.502251
38	0xc1f5c24c	-30.719872
39	0x41c034e9	24.025835
40	0x414c231d	12.758573
41	0x425db293	55.42439
42	0xc1fed50e	-31.85403
43	0x41c41b43	24.513311
44	0x41a88f9b	21.07012
45	0xc2239779	-40.897923
46	0xc33a1497	-186.08043
47	0xc1235c60	-10.2100525
48	0xc0827172	-4.0763483
49	0x41729735	15.161916
50	0xc03dd704	-2.9662485
51	0xc198de29	-19.108477
52	0xc073118c	-3.797946
53	0xbf3ea6fe	-0.7447356
54	0x417f084a	15.939524
55	0xc16300de	-14.187712
56	0x4182c872	16.347874
57	0xc0da56de	-6.823104
58	0x41ac6c1c	21.552788
59	0xbf1bb9c3	-0.60830325
60	0x4189bffd	17.218744
61	0xc066e521	-3.607735
62	0xc1228caf	-10.159347
63	0x4133672f	11.212691
64	0x423fffbd	47.999744
65	0xc135e066	-11.367285
66	0xc2268ab6	-41.63546
67	0xc1f439ed	-30.528284
68	0xc1b82618	-23.0186
69	0xc22ceaf5	-43.22945
70	0x401812cb	2.376147
71	0x41376836	11.462942
72	0x414c0425	12.751012
73	0x40cd5f66	6.4178953
74	0x41f780cd	30.937891
75	0x423ae10f	46.719784
76	0x421e1eb4	39.529984
77	0xc202f74c	-32.7415
78	0x41879dd5	16.952066
79	0xc1fbc259	-31.469896
80	0xc1cfe721	-25.987856
81	0xc1d28490	-26.314728
82	0x4217c89f	37.94592
83	0x416e9971	14.912461
84	0x4260686d	56.10198
85	0xc1da93b9	-27.32213
86	0xc1c51d91	-24.639437
87	0x42187147	38.110622
88	0x41cda9bf	25.707884
89	0x42710153	60.251293
90	0x41c19cc3	24.201544
91	0x42140d23	37.01283
92	0xc1b68096	-22.812786
93	0x41d15e93	26.171179
94	0xc18d7d33	-17.686132
95	0xc1fab500	-31.338379

sequential/batch_normalization_4/batchnorm/mul_1;sequential/batch_normalization_4/batchnorm/add_1;sequential/dense_5/MatMul;sequential/dense_5/Relu;sequential/dense_5/BiasAdd f4 [96, 96]
0	0x3deac626	0.11463575
1	0x3d945ec0	0.07244635
2	0x3cd1d19a	0.025612641
3	0xbcba3efd	-0.022735113
4	0x3b79f51b	0.003814048
5	0xbd0f56ca	-0.034994878
6	0x3d596123	0.053071152
7	0x3b873833	0.0041265725
8	0x3d883548	0.066507876
9	0xbc269f3f	-0.010169803
10	0xbda5f14b	-0.081026636
11	0xbb1f88ca	-0.0024343007
12	0x3bf6a19c	0.0075265896
13	0xbdc4ba2a	-0.096058205
14	0x3c1212b7	0.008915595
15	0x3d2aa8c7	0.041664865
16	0xbdb54b1e	-0.08852218
17	0xbc6a4ad4	-0.014300067
18	0x3ca390b4	0.01996646
19	0x3e7a4353	0.24439745
20	0xbd0175b5	-0.031606395
21	0xbdcff476	-0.10154049
22	0xbd159a7b	-0.036524277
23	0x3daf126d	0.08548436
24	0x3cba6420	0.022752821
25	0x3c589b0f	0.013220563
26	0x3cea51cb	0.028603455
27	0x3e276ed0	0.16350865
28	0xba55fd0c	-0.0008163012
29	0xbc7e09f7	-0.0155053055
30	0x3deccc2e	0.11562382
31	0x3d3e2704	0.046423927
32	0x3e2549da	0.16141453
33	0x3ca75235	0.020424942
34	0x3e046c7a	0.12932006
35	0x3cfeb132	0.031090353
36	0x3d86659c	0.06562349
37	0xbbb225c0	-0.005436629
38	0xbc73e799	-0.01488676
39	0x3e621b11	0.22080638
40	0xbc6e2fd1	-0.0145377675
41	0xbe5a458a	-0.2131559
42	0x3dd11fd5	0.102111496
43	0x3d4504d3	0.048100304
44	0x3d7a7034	0.06114216
45	0x3cfa26b3	0.030536031
46	0xbd830bca	-0.06398733
47	0xbd5c9004	-0.05384828
48	0x3a103bb4	0.00055020605
49	0x3c25c5ce	0.010117961
50	0xbd78b943	-0.060723554
51	0xbd34836f	-0.044070657
52	0x3dd9d28a	0.1063586
53	0x3d336354	0.0437959
54	0xb90b8682	-0.00013306181
55	0x3d3fa786	0.046790622
56	0xbc43ba66	-0.011946296
57	0xbd034048	-0.032043725
58	0x3c3523c5	0.011055891
59	0xbc395cad	-0.0113135995
60	0xbe03c13f	-0.12866686
61	0xbcc8d296	-0.024514478
62	0xbcbf8502	-0.023378853
63	0x3d294231	0.04132289
64	0xbd495a89	-0.049158607
65	0xbd20d2e8	-0.039263636
66	0xbc81a19b	-0.01582413
67	0x3c65c3c6	0.014023727
68	0x3ea0fb78	0.31441855
69	0x3c81b2fc	0.015832417
70	0xbdc0765c	-0.09397575
71	0x3d8eee14	0.069790035
72	0x3b1aa02a	0.0023594
73	0x3c9247df	0.017856536
74	0x3c155d65	0.009116505
75	0x3d3e7272	0.046495862
76	0x3cfd2123	0.03089959
77	0x3cdc9fbe	0.02693164
78	0x3c5e8542	0.013581576
79	0x3db21220	0.08694863
80	0xbb332730	-0.002733659
81	0x3d5cd7f6	0.053916894
82	0xbc623315	-0.013806124
83	0xbe1053e4	-0.14094502
84	0xbcb1c90a	-0.021702308
85	0x3d26afdc	0.040695056
86	0xbde36229	-0.11102707
87	0x3dc5bb31	0.096548446
88	0x3da38b80	0.07985592
89	0x3c3bc0be	0.011459528
90	0xbdada59f	-0.08478855
91	0x3c50152e	0.012700362
92	0x3e277414	0.16352874
93	0x3cc89a52	0.024487648
94	0xbcb34eb9	-0.021888124
95	0x3d92572e	0.071455345
96	0xbddeda96	-0.10881536
97	0x3de72376	0.112860605
98	0xbc1fd884	-0.009756211
99	0x3dc1c03e	0.094604954
100	0x3bb8b3de	0.005636676
101	0x3d301377	0.042987313
102	0xbd6a7adf	-0.057246085
103	0xbd38a37c	-0.045077786
104	0x3d73b1e2	0.059495814
105	0xbbb60eb4	-0.005555952
106	0xbdda5a7c	-0.1066179
107	0x3c24cb97	0.010058305
108	0xb93687e5	-0.00017407497
109	0x3e38a995	0.1803344
110	0xbdb721cf	-0.08941995
111	0xbcb07f57	-0.021545095
112	0xbdf92c0d	-0.12166605
113	0xbe14ba75	-0.14524253
114	0xbc105968	-0.008810379
115	0xbda45a58	-0.08025044
116	0xbc92cc3a	-0.017919648
117	0xba077616	-0.00051674375
118	0xbbfdca0c	-0.007745033
119	0xbcc13998	-0.023587033
120	0xbd41c919	-0.047310922
121	0xbc8a2a9c	-0.01686602
122	0x3ba2842d	0.0049596042
123	0x3df0f0d6	0.11764686
124	0x3c024a9a	0.007952357
125	0xbc6b5447	-0.014363355
126	0xbe0b6fdd	-0.13616891
127	0x3d55fede	0.052245013
128	0x3a8d68e8	0.0010788711
129	0xbc930e8b	-0.01795127
130	0x3e558b17	0.2085384
131	0x3c5b6966	0.013391828
132	0x3ccdfa56	0.025143784
133	0x3bbc7cac	0.0057521667
134	0xbd3570bd	-0.04429697
135	0xbec61349	-0.38686588
136	0x3cae1cd1	0.021253975
137	0x3e3e870a	0.18606201
138	0x3de39d6e	0.11114012
139	0xbdeaa5ba	-0.11457391
140	0x3d329e09	0.043607745
141	0x3ccd21da	0.025040556
142	0xbd384fab	-0.044997852
143	0x3e1bdeb9	0.1522168
144	0xb8dd5ec6	-0.00010555754
145	0xbe26347b	-0.16230957
146	0x3b91e60e	0.0044524735
147	0xbd0e53cb	-0.03474788
148	0x3d543bf8	0.051815003
149	0x3d006df6	0.031354867
150	0x3c46e768	0.0121401325
151	0xbd763a8b	-0.060114425
152	0x3d726bdb	0.05918489
153	0xbdb3105f	-0.08743357
154	0xbb6551df	-0.0034991426
155	0x3cd73b50	0.0262734
156	0x3e19592d	0.14975424
157	0xbdbecca6	-0.09316377
158	0x3d426567	0.047459986
159	0x3be2b0ac	0.0069180336
160	0x3d393461	0.045215968
161	0xbc4ea6ba	-0.012612993
162	0x3b80217c	0.0039102416
163	0x3d572ef1	0.052535
164	0x3de237f1	0.11045826
165	0x3c648adf	0.013949125
166	0x3d2a4876	0.04157301
167	0x3dfb0fcd	0.12258873
168	0x3aab69d5	0.0013077805
169	0xbb9dabd0	-0.0048117414
170	0xbbda9ab2	-0.006671273
171	0xbc6be6c8	-0.014398284
172	0xbda03ffc	-0.07824704
173	0x3c3d1c59	0.011542403
174	0x3d7c56af	0.061606105
175	0x3db519fb	0.08842846
176	0xbc4e2828	-0.012582816
177	0x3d1d9650	0.038473427
178	0x3cdd1bbc	0.026990764
179	0xbc99e39a	-0.018785287
180	0xbcd9caaa	-0.026585896
181	0x3d0ee8cc	0.03488998
182	0x3e2015bf	0.15633295
183	0xbd491af4	-0.04909797
184	0x3c502dd5	0.01270624
185	0xbc6fda75	-0.014639487
186	0x3cd0d238	0.025490865
187	0xbd95ad7a	-0.07308479
188	0x3e1c9256	0.15290198
189	0xbd82f466	-0.063942716
190	0x3d14f7ea	0.03636924
191	0x3d656a5a	0.056009628
192	0x3e24bf6a	0.16088644
193	0x3e1ffcb7	0.15623747
194	0x3da4ef81	0.08053494
195	0x3d502979	0.0508208
196	0x3a3c1858	0.00071752584
197	0x3d8621b8	0.065494
198	0x3d1996c4	0.037497297
199	0xbc3f6d47	-0.011683769
200	0xbd68b555	-0.056813557
201	0xbc712e5c	-0.014720526
202	0x3dbb9eb1	0.09161127
203	0x3c8b68f9	0.017017828
204	0x3b8314cb	0.0040002814
205	0x3da2c8fb	0.0794849
206	0xbd0cbd01	-0.034359936
207	0x3d98ebe4	0.074668676
208	0x3d37def5	0.044890363
209	0xbe51f76f	-0.20504545
210	0xbb98d62b	-0.0046642027
211	0x3d7eb298	0.06218204
212	0xbc457fcd	-0.012054396
213	0x3d9db2de	0.07700132
214	0xbd16c3be	-0.036807768
215	0xbdf8f0d0	-0.12155306
216	0xbcdd9f82	-0.027053598
217	0xbd75cb17	-0.060008135
218	0xbcc5fa8a	-0.024167318
219	0x3da94ae3	0.08266237
220	0x3b8ab237	0.0042326706
221	0x3c1ec8be	0.009691415
222	0x3ddc527e	0.10757922
223	0xbd7bb63b	-0.061453085
224	0x3e0a8e6d	0.13530894
225	0xbc685b11	-0.014181868
226	0x3e82f36e	0.25576347
227	0x3d38ba55	0.045099575
228	0x3d198e33	0.037489127
229	0xb9c3025a	-0.0003719505
230	0xbe5f6c80	-0.21818733
231	0xbe8f413e	-0.27979463
232	0x3c8092cc	0.015694998
233	0xbdb177d0	-0.086654305
234	0xbdcdfb20	-0.10057664
235	0xbc076bf2	-0.008265482
236	0xbb1fa543	-0.0024359978
237	0x3d3e72c7	0.04649618
238	0xbd92dee3	-0.071714185
239	0x3d760c8a	0.060070552
240	0xba823834	-0.0009934963
241	0xbd0ad1f1	-0.033891622
242	0xbc7ca183	-0.015419367
243	0x3d6926b8	0.05692169
244	0x3e3d58e7	0.18490945
245	0xbdcc78a0	-0.09983945
246	0x3befde7a	0.0073202224
247	0xbd36cee5	-0.044630904
248	0xbda73803	-0.0816498
249	0xbc793080	-0.015209317
250	0xbbf42ff2	-0.0074520046
251	0x3ccb65c2	0.024828795
252	0x3d4c8cf6	0.04993912
253	0x3daf823d	0.08569763
254	0xbd2b1b25	-0.041773934
255	0xbd2f609c	-0.042816743

sequential/dense_6/MatMul;sequential/dense_6/BiasAdd f4 [27]
0	0xc02921c3	-2.6426857
1	0xc060e250	-3.513813
2	0xc07077ca	-3.7573113
3	0xc076465b	-3.8480442
4	0xc0d97f1e	-6.796767
5	0xc088b0d8	-4.2715874
6	0xc0505129	-3.2549536
7	0xc081313e	-4.037261
8	0xc081acdd	-4.0523515
9	0xc057c006	-3.3710952
10	0xc0607166	-3.5069213
11	0xc02a1127	-2.657297
12	0xc031f47e	-2.7805476
13	0xc08d29fb	-4.4113746
14	0xc0704466	-3.7541747
15	0xc06b4050	-3.6758003
16	0xc03e34b1	-2.971966
17	0xbf8c2849	-1.0949794
18	0xbf4ff2f0	-0.8123007
19	0xbf6ec00c	-0.9326179
20	0xc029a618	-2.6507626
21	0xc05425fc	-3.3148184
22	0xc0878204	-4.234621
23	0xc06fdb2f	-3.747753
24	0xc01e25a2	-2.471047
25	0xc03d30d0	-2.9561043
26	0xc013c149	-2.3086722
