BirdNet_Trained_Model/trained_model_classifiers/Custom_Classifier19.tflite (tflite, 595344 bytes, 14 tensors)

sequential/dense_1/MatMul;sequential/dense_1/Relu;sequential/dense_1/BiasAdd f4 [96]
-3.7513793 2.4126544 1.0063396 3.105376 0.8618096 -1.1504873 -2.2962778 -0.59756875
-0.8046881 0.30341733 0.3729555 3.5678804 1.0283958 1.5686809 -1.8440907 -1.4054353
1.6976866 -0.5003338 -1.1516191 2.4704268 0.11784239 0.47387874 -1.0021464 0.5817868
0.8403371 3.583089 1.1309766 -1.5470327 -2.1506107 -0.073525704 0.4014769 1.1993383
0.10257668 0.5841501 -2.3206382 -1.6791625 1.0892079 2.1800213 0.37990835 -0.91684806
-3.101415 2.1873324 3.3515983 0.74193686 2.1890001 -0.7411293 -1.2823483 1.0384732
-1.563519 1.3201835 -2.9983096 0.774723 4.0105276 -0.68542874 0.7502379 1.9951338
-0.57269406 1.6273706 0.33695245 0.38694084 -1.1635967 2.9225593 1.7850499 -1.4915527
-0.5965053 1.6301762 -0.12926178 -1.5609578 0.72166115 1.4848331 -1.9583393 -4.667726
0.10222522 -0.41241533 0.20254387 -0.37034342 0.078249365 -1.7580665 -1.1310875 -3.434008
-2.4054594 2.3597622 1.596668 1.5114707 -1.2685131 2.024395 -1.9838067 2.133316
-2.7388844 -0.53672314 3.0674796 1.0184897 -1.5918815 -1.2100266 1.2623723 0.76091737
00000000: 9916 70c0 ee68 1a40 bccf 803f 7bbe 4640
00000010: 8e9f 5c3f 2b43 93bf 37f6 12c0 44fa 18bf
00000020: 0a00 4ebf 8459 9b3e 06f4 be3e 2758 6440
00000030: 79a2 833f 89ca c83f 2a0b ecbf 4ee5 b3bf
00000040: cb4d d93f e015 00bf 4168 93bf 791b 1e40
00000050: 5a57 f13d 3ca0 f23e 5546 80bf fbef 143f
00000060: 5520 573f 5551 6540 d7c3 903f 2b05 c6bf
00000070: 9ba3 09c0 a594 96bd 618e cd3e eb83 993f
00000080: b913 d23d dc8a 153f 5685 14c0 ccee d6bf
00000090: 2a6b 8b3f 7885 0b40 5983 c23e 8eb6 6abf
000000a0: 957d 46c0 41fd 0b40 9680 5640 93ef 3d3f
000000b0: 9418 0c40 a6ba 3dbf fd23 a4bf b1ec 843f
000000c0: 6421 c8bf c6fb a83f 4ee4 3fc0 3f54 463f
000000d0: 3e56 8040 4278 2fbf 970f 403f 8b60 ff3f
000000e0: 149c 12bf ae4d d03f 0885 ac3e 1c1d c63e
000000f0: bdf0 94bf 360b 3b40 847c e43f 33eb bebf
00000100: 92b4 18bf 9da9 d03f 335d 04be 77cd c7bf
00000110: c9be 383f 030f be3f ddaa fabf 035e 95c0
00000120: 755b d13d 1a28 d3be a967 4f3e a79d bdbe
00000130: 3441 a03d 5308 e1bf 7ac7 90bf c9c6 5bc0
00000140: 0cf3 19c0 5806 1740 9e5f cc3f df77 c13f
00000150: a35e a2bf b08f 0140 61ed fdbf 4088 0840
00000160: e249 2fc0 b066 09bf 9651 4440 df5d 823f
00000170: c6c2 cbbf 27e2 9abf 6a95 a13f 7bcb 423f

sequential/batch_normalization/batchnorm/mul_1;sequential/batch_normalization/batchnorm/add_1;sequential/dense_1/MatMul;sequential/dense_1/Relu;sequential/dense_1/BiasAdd f4 [96, 96]
0.051895678 -2.9334512 -0.069760166 -0.90538305 -4.175891 -0.90583515 0.22401054 -0.052014988
0.032449547 -0.06702972 2.2382455 -0.11608547 -0.07236903 0.14188313 0.34106308 4.2863607
-1.1270632 3.0295062 0.28656226 -2.0483434 3.041854 0.25097468 -0.38492617 -3.983051
-4.9566364 1.1175524 -0.11480868 -1.7310103 -1.3257881 -0.17701018 0.06532065 0.08606447
0.52522874 0.340308 -0.25294083 0.29816717 -0.20586543 0.056457344 4.7557063 1.7620924
1.1442287 0.30568156 -0.13059166 -5.1832676 5.816458 -2.7971432 -5.0579104 0.07770699
-5.4243293 -0.11481804 -4.7035747 -0.7319298 0.30335107 0.40748295 -0.17217198 2.8013265
2.6948874 0.36295986 0.061503876 -0.14849788 -0.14176652 -0.055028025 -2.4756227 -0.38429263
4.8233852 0.015649352 4.622087 -0.15550265 -0.04910425 -2.2815127 -0.1445943 0.5323243
0.13068911 0.1813615 -0.07062362 -0.09131375 -0.9554003 2.9430866 -1.6820104 1.6608316
1.6862351 0.13962254 0.99172145 0.15870403 0.40863228 2.3497689 -0.122598894 -0.05127186
0.11835952 -3.8130302 2.45019 2.1687307 0.09414598 -0.60462797 0.25764072 -2.6460843
0.17605428 2.9888775 0.45554024 -4.9382553 -2.9936514 -2.7660098 -0.26112375 -0.02183149
0.3258779 0.41811508 -2.7333329 -0.18785475 -0.15626864 0.28611475 -0.103584655 4.262203
-1.0243093 0.9365986 -0.050699558 2.3778143 2.1624086 0.0771435 0.41076955 2.279977
1.5934418 -0.9979921 -0.10779712 3.8857355 -2.4813445 0.10370305 -0.15496548 -0.033786863
-0.37295166 -0.21270095 -0.08352577 0.08179666 -0.31930804 -0.36049083 4.018974 -0.6634639
-3.1581883 -0.05627007 -0.87105507 1.00182 -2.829191 -3.2556221 0.4671066 -0.04154576
-2.9714973 0.3001991 0.8639001 5.139867 -0.1915317 -0.373492 0.2115597 -5.5533023
-1.7445252 0.18105395 0.21783927 -0.27552018 -5.3209276 -0.0029022512 -4.540609 5.3042827
0.9042093 -0.3655729 1.1914146 0.28981405 0.012134928 -3.540745 -0.10781756 -0.16413681
0.16340342 -0.25407684 -0.014266094 0.105758704 -3.4692998 4.249142 -1.6126772 0.2565719
-1.3847079 -0.17078666 -4.8787603 -0.24938454 0.16595018 1.2481471 0.08139467 -0.056351796
-0.07703146 -2.5425813 0.22527556 -2.4050114 0.065810695 -1.9575344 -0.0793724 0.7034929
-0.31388566 -3.3650491 0.15257977 1.2557784 1.7878727 -5.2479 -0.051298525 -0.16717495
0.023290198 0.094695 2.191626 0.13640869 0.12042468 -0.4421022 0.29769978 -3.1414123
-1.6193097 4.152865 -0.004272837 1.0072567 1.8870405 -0.111834645 -0.34586477 -4.7026706
3.8213577 2.154079 0.40060452 3.9711964 -5.899169 -0.1693606 -0.33870164 0.21122423
0.34883994 0.02952019 -0.37223876 0.40455326 0.13721965 -0.07022347 4.559327 -2.8108017
1.3907154 0.22159904 0.6252874 -0.58000803 -1.5268255 -3.7951112 -3.923461 -0.26922724
-0.7425501 0.07746205 -5.141904 4.6933813 -0.3988752 -0.4014477 0.3011243 -5.353573
-1.3153847 0.13433251 -0.11974129 0.07731142 -1.6925435 0.17584924 -2.663375 1.19785
00000000: 9090 543d aabd 3bc0 6bde 8ebd 2fc7 67bf
00000010: e6a0 85c0 d0e4 67bf 0563 653e ab0d 55bd
00000020: d1e9 043d e146 89bd 6a3f 0f40 38be edbd
00000030: 3736 94bd d049 113e d29f ae3e de29 8940
00000040: 9b43 90bf 6ee3 4140 4ab8 923e 0f18 03c0
00000050: bcad 4240 c17f 803e 0b15 c5be 4fea 7ec0
00000060: c49c 9ec0 f50b 8f3f d020 ebbd bf91 ddbf
00000070: 6db3 a9bf 2842 35be d5c6 853d 9242 b03d
00000080: 6475 063f da3c ae3e 7681 81be 5ea9 983e
00000090: 63ce 52be d13f 673d bf2e 9840 3e8c e13f
000000a0: 1676 923f 4b82 9c3e d2b9 05be 54dd a5c0
000000b0: 6d20 ba40 6504 33c0 67da a1c0 d824 9f3d
000000c0: 1b94 adc0 b825 ebbd af83 96c0 c05f 3bbf
000000d0: d550 9b3e 9ba1 d03e da4d 30be ef48 3340
000000e0: 0979 2c40 e0d5 b93e 7deb 7b3d d40f 18be
000000f0: 3e2b 11be 1165 61bd 9a70 1ec0 01c2 c4be
00000100: 2c59 9a40 1233 803c 23e8 9340 163c 1fbe
00000110: 8a21 49bd 4e04 12c0 8710 14be 6846 083f
00000120: 5ed3 053e d4b6 393e 1ea3 90bd b402 bbbd
00000130: 1d95 74bf 885b 3c40 1e4c d7bf 2196 d43f
00000140: 8dd6 d73f 36f9 0e3e 75e1 7d3f 4f83 223e
00000150: 4038 d13e 9d62 1640 2115 fbbd 7102 52bd
00000160: 7a66 f23d b008 74c0 eacf 1c40 7ccc 0a40
00000170: 9ccf c03d e6c8 1abf 7ce9 833e 7259 29c0
00000180: 9347 343e c549 3f40 923c e93e 3006 9ec0
00000190: fc97 3fc0 4e06 31c0 03b2 85be f4d7 b2bc
000001a0: 78d9 a63e 2e13 d63e edee 2ec0 ff5c 40be
000001b0: e304 20be a27d 923e 3124 d4bd f863 8840
000001c0: 911c 83bf edc4 6f3f 57aa 4fbd 1c2e 1840
000001d0: e764 0a40 69fd 9d3d 6350 d23e 25eb 1140
000001e0: e7f5 cb3f 697c 7fbf bdc4 dcbd e4af 7840
000001f0: 59ce 1ec0 4462 d43d 45af 1ebe 1864 0abd
00000200: 85f3 bebe 47ce 59be 8f0f abbd 0285 a73d
00000210: 587c a3be 4192 b8be 6f9b 8040 c5d8 29bf
00000220: c21f 4ac0 727b 66bd 77fd 5ebf a33b 803f
00000230: 7711 35c0 1d5c 50c0 9928 ef3e e32b 2abd
00000240: 032d 3ec0 b2b3 993e 8f28 5d3f ca79 a440
00000250: e320 44be 583a bfbe 1ba3 583e a7b4 b1c0
00000260: 9a4c dfbf 3566 393e 4211 5f3e fb10 8dbe
00000270: 0a45 aac0 b233 3ebb ab4c 91c0 afbc a940
00000280: 437a 673f 5f2c bbbe 4680 983f 8262 943e
00000290: 94d1 463c 919b 62c0 74cf dcbd 7b13 28be
000002a0: 3a53 273e 5c16 82be 56bc 69bc 0598 d83d
000002b0: 0209 5ec0 f9f8 8740 356c cebf 645d 833e
000002c0: 1c3e b1bf b3e2 2ebe ce1e 9cc0 a95e 7fbe
000002d0: d8ee 293e 49c3 9f3f 40b2 a63d 24d1 66bd
000002e0: acc2 9dbd a7b9 22c0 a3ae 663e b5eb 19c0
000002f0: c2c7 863d 7d90 fabf ff8d a2bd 1c18 343f
00000300: 9fb5 a0be f75c 57c0 df3d 1c3e 59bd a03f
00000310: 03d9 e43f ccee a7c0 671e 52bd e92f 2bbe
00000320: 16cb be3c 74ef c13d 9a43 0c40 b8ae 0b3e
00000330: 37a1 f63d 385b e2be 1b6c 983e e60c 49c0
00000340: 8a45 cfbf 45e4 8440 2803 8cbb caed 803f
00000350: 8b8a f13f 9009 e5bd 3015 b1be 477c 96c0
00000360: 2091 7440 6edc 0940 091c cd3e 1528 7e40
00000370: fec5 bcc0 dd6c 2dbe 4d6a adbe 2a4b 583e
00000380: 269b b23e 53d4 f13c 1496 bebe 9b21 cf3e
00000390: 4f83 0c3e 53d1 8fbd 02e6 9140 2de4 33c0
000003a0: f602 b23f dcea 623e d612 203f 687b 14bf
000003b0: 056f c3bf 1ae3 72c0 fc19 7bc0 27d8 89be
000003c0: c317 3ebf 6ca4 9e3d 7a8a a4c0 2e30 9640
000003d0: 5f39 ccbe 8e8a cdbe f72c 9a3e 7850 abc0
000003e0: 875e a8bf 768e 093e ec3a f5bd 7355 9e3d
000003f0: 44a5 d8bf d311 343e bc74 2ac0 2653 993f

sequential/dense_2/MatMul;sequential/dense_2/Relu;sequential/dense_2/BiasAdd f4 [96]
0.8187478 0.89556056 -0.63488954 -0.58924973 1.4982817 -0.8221131 0.30573028 0.25100833
-1.0697389 0.5913362 -0.67505157 0.38867941 0.44412896 0.65913033 -0.33953238 0.0499939
0.59295076 0.6902055 1.5632172 0.2654218 -0.13400891 -0.31933564 -0.7342556 0.26075408
0.96816725 -0.1717389 -0.44447032 0.17166637 0.02016834 0.6395942 1.4323294 0.64774394
0.6490351 -0.22013573 -0.7706654 -0.3407787 0.3189859 0.92627174 1.3228213 -0.42129824
-0.37775493 1.0600011 0.7770034 0.23525916 -1.0184292 0.418699 -0.057121933 -0.73586136
0.15891892 1.0439639 -0.17330804 0.085449986 -0.67157245 -0.6691872 0.3641125 -0.46551037
0.5884884 -0.34937727 -0.061623704 1.9480131 0.26188633 0.14968067 0.14689758 -1.4095644
0.035515554 0.21032703 -1.3206019 -0.44636297 0.427244 -0.20281653 1.0891976 -0.41406167
1.4349731 -0.3452119 0.35993704 -0.10494724 -0.3664466 0.25788242 -0.7941733 0.1851806
-0.9236104 0.48760614 0.9115717 -0.016026555 1.2863268 0.28467265 1.2715311 1.3750509
0.7558187 -0.45106736 1.3149948 0.20251517 0.2726255 -0.16875264 0.78616565 -0.3047072
00000000: 7599 513f 7543 653f 1f88 22bf 12d9 16bf
00000010: b2c7 bf3f 0176 52bf ae88 9c3e 2a84 803e
00000020: 34ed 88bf cf61 173f 2ed0 2cbf fd00 c73e
00000030: df64 e33e c4bc 283f 30d7 adbe 67c6 4c3d
00000040: 9fcb 173f 4fb1 303f 8017 c83f 5ee5 873e
00000050: a239 09be f67f a3be 2df8 3bbf 8f81 853e
00000060: cfd9 773f 52dc 2fbe 9d91 e3be 4fc9 2f3e
00000070: 1338 a53c 72bc 233f 9256 b73f 8cd2 253f
00000080: 2a27 263f 436b 61be 544a 45bf 8c7a aebe
00000090: 1f52 a33e 2520 6d3f 3552 a93f 67b4 d7be
000000a0: 1869 c1be 1eae 873f b2e9 463f c7e7 703e
000000b0: e35b 82bf b75f d63e b0f8 69bd 6961 3cbf
000000c0: a4bb 223e 9ca0 853f aa77 31be 6700 af3d
000000d0: 2cec 2bbf da4f 2bbf f46c ba3e 6057 eebe
000000e0: 2da7 163f 94e1 b2be 2369 7cbd 7e58 f93f
000000f0: f715 863e e445 193e 526c 163e 9b6c b4bf
00000100: c278 113d f85f 573e 7c09 a9bf b089 e4be
00000110: babf da3e 23af 4fbe d46a 8b3f e4ff d3be
00000120: 33ad b73f 9dbf b0be ab49 b83e 94ee d6bd
00000130: e49e bbbe 2a09 843e f14e 4bbf fc9f 3d3e
00000140: bb71 6cbf 83a7 f93e c35c 693f 1f4a 83bc
00000150: 5ba6 a43f 9dc0 913e 88c1 a23f ab01 b03f
00000160: 567d 413f 4df2 e6be c051 a83f 2360 4f3e
00000170: 9295 8b3e 7ecd 2cbe 2742 493f 9502 9cbe

sequential/batch_normalization_1/batchnorm/mul_1;sequential/batch_normalization_1/batchnorm/add_1;sequential/dense_2/MatMul;sequential/dense_2/Relu;sequential/dense_2/BiasAdd f4 [96, 96]
0.1220887 0.2619494 0.05285227 -0.02598651 0.022601157 -0.010356382 -0.33097818 -0.018894678
-0.18212369 -0.18084615 -0.26919812 -0.10231708 0.0347594 -0.14210558 0.020391395 -0.11229646
0.073959254 0.038911644 -0.2627034 -0.13760601 0.09496463 0.16198312 0.04130261 0.20306677
-0.25003433 -0.10829314 0.24571002 0.26679128 -0.10723811 -0.1336405 -0.056109343 0.24568348
-0.28244835 -0.062762946 0.22184187 0.14383985 -0.3033023 -0.14008299 -0.16328746 0.22060052
-0.06661775 0.18644245 0.068333276 -0.071600705 0.24378857 -0.05800054 0.1959217 0.22285533
-0.24790277 -0.15888308 -0.16237016 0.14718413 -0.023882443 -0.27742672 -0.20128214 0.15545778
0.10705006 -0.27295604 0.08695639 -0.16678002 0.07775377 -0.20370148 -0.1500769 0.116836876
0.10423126 0.19047375 0.0056719705 0.07319438 -0.18510334 -0.0009014927 -0.12686455 0.25603005
-0.07370672 0.03364592 -0.17570268 0.28354022 -0.25321543 -0.20357129 -0.26381847 -0.088098034
0.008666081 0.08574247 -0.17901851 0.026614869 -0.1829092 -0.08590247 0.1926804 -0.04336147
0.2989066 0.021398788 0.25255662 0.13068011 0.13497338 -0.040203117 -0.23668446 -0.25817823
-0.09148804 -0.161473 0.05170091 -0.009634922 -0.1262042 -0.152579 -0.2714721 0.046044007
-0.023128536 -0.1374802 -0.1020687 -0.2505619 -0.0745361 0.10587328 -0.037473504 0.23318358
0.050872013 0.037826527 -0.12160162 0.35561857 -0.054612454 -0.12096288 0.12459167 0.18064916
0.12621792 -0.0061579025 0.23576613 0.14197013 0.0011258473 -0.22594985 -0.072912864 -0.08741826
-0.37094164 0.08705719 -0.056488395 0.15517685 0.020312602 -0.14645907 0.2305745 -0.22741653
0.24508111 0.1130185 -0.21082398 -0.08250026 0.006962101 0.12450451 0.2005325 0.14190605
0.12614359 0.0741422 -0.07248924 -0.19579412 0.07114711 -0.0807164 -0.24570394 0.23355278
0.11033489 -0.113812715 0.28643528 0.15884991 0.026531296 -0.14286572 0.07873697 -0.15671735
-0.07723076 -0.22849378 -0.009149824 -0.28589237 0.2068925 -0.07801672 -0.29201478 -0.14418323
-0.016247436 -0.22400376 -0.13748968 0.21794316 0.16848528 -0.2832366 0.03712167 -0.19930476
0.07587758 0.1231648 -0.038240243 -0.2500769 -0.032789208 0.042260867 -0.24027131 0.24490908
-0.1743189 -0.04180494 -0.2881585 -0.051489208 0.20084801 -0.18932386 -0.050117366 0.2940476
-0.24011768 0.41129068 0.21920295 -0.065992445 -0.48454985 0.08775245 -0.11462982 -0.32626206
0.22365892 -0.11215382 0.012264444 -0.094567485 -0.13389736 0.27603358 -0.070930324 -0.19953486
0.19166507 0.054120306 0.12888071 0.24410622 -0.052136574 0.14625323 0.02669953 -0.1531361
0.26995018 -0.029692318 0.14659 0.16152155 -0.0913368 0.06200908 0.25054654 0.3099554
0.06414787 -0.19451974 -0.13076155 0.17017789 -0.25039268 0.17075615 -0.029485641 -0.2239386
-0.13106355 -0.27396864 0.2910934 -0.030064156 -0.18274082 -0.14407054 -0.22382346 0.20650186
0.17185667 0.00806636 0.1638797 -0.005419424 -0.008069775 0.16605991 0.1716481 0.034386493
0.09199948 -0.009008778 -0.23243022 0.12038621 0.094510466 -0.01482302 0.0621184 -0.09200406
00000000: a409 fa3d 3b1e 863e 9f7b 583d a9e1 d4bc
00000010: 1026 b93c d0ad 29bc f975 a9be 03c9 9abc
00000020: a27e 3abe bc2f 39be 56d4 89be 9e8b d1bd
00000030: df5f 0e3d 2084 11be db0b a73c b0fb e5bd
00000040: f377 973d d161 1f3d 0f81 86be 97e8 0cbe
00000050: d17c c23d e7de 253e ed2c 293d bcf0 4f3e
00000060: 8004 80be cbc8 ddbd 689b 7b3e de98 883e
00000070: a79f dbbd 0ed9 08be e9d2 65bd 7394 7b3e
00000080: 129d 90be dc89 80bd 842a 633e c14a 133e
00000090: 704a 9bbe ea71 0fbe d434 27be 1ae5 613e
000000a0: e36e 88bd c5ea 3e3e 51f2 8b3d 64a3 92bd
000000b0: b6a3 793e f991 6dbd b39f 483e 3034 643e
000000c0: 39da 7dbe 3fb2 22be 5d44 26be 70b7 163e
000000d0: 1da5 c3bc e00a 8ebe e81c 4ebe 5330 1f3e
000000e0: 103d db3d e5c0 8bbe 3116 b23d 62c8 2abe
000000f0: 5e3d 9f3d 1f97 50be c2ad 19be 2c48 ef3d
00000100: 3377 d53d 8d0b 433e f0db b93b efe6 953d
00000110: bb8b 3dbe 2752 6cba c8e8 01be 5f16 833e
00000120: 8cf3 96bd 4ed0 093d 67eb 33be 2f2c 913e
00000130: 74a5 81be fe74 50be 3713 87be be6c b4bd
00000140: 2efc 0d3c c099 af3d a150 37be 6d07 da3c
00000150: 8d4c 3bbe a2ed afbd 034e 453e cc9b 31bd
00000160: 490a 993e 834c af3c 1a4f 813e 02d1 053e
00000170: 7636 0a3e 06ac 24bd 695d 72be f02f 84be
00000180: 155e bbbd 2e59 25be 55c4 533d cbdb 1dbc
00000190: ac3b 01be ab3d 1cbe 64fe 8abe a498 3c3d
000001a0: 0e78 bdbc 9cc7 0cbe 6509 d1bd a649 80be
000001b0: 62a6 98bd 17d4 d83d d17d 19bd adc7 6e3e
000001c0: 2c5f 503d fdef 1a3d 450a f9bd a313 b63e
000001d0: 4fb1 5fbd 63bb f7bd eb29 ff3d 18fc 383e
000001e0: 453f 013e 3bc8 c9bb ad6c 713e 9e60 113e
000001f0: 2b91 933a 665f 67be 5753 95bd 5808 b3bd
00000200: 10ec bdbe 0a4b b23d 6060 67bd aee6 1e3e
00000210: 9d66 a63c 5ef9 15be b91b 6c3e e1df 68be
00000220: 8bf6 7a3e 3e76 e73d 3ee2 57be e5f5 a8bd
00000230: 5622 e43b 38fc fe3d 6458 4d3e d24f 113e
00000240: c92b 013e ded7 973d 3d75 94bd 417e 48be
00000250: 93b5 913d a44e a5bd d099 7bbe 7628 6f3e
00000260: 42f7 e13d a416 e9bd a5a7 923e 8da9 223e
00000270: 2958 d93c 644b 12be d940 a13d 837a 20be
00000280: 292b 9ebd 46fa 69be 25e9 15bc 7c60 92be
00000290: a1db 533e 3bc7 9fbd f682 95be c5a4 13be
000002a0: 5819 85bc 3e61 65be 18ca 0cbe 7e2c 5f3e
000002b0: 6887 2c3e 6304 91be e40c 183d 8c16 4cbe
000002c0: b465 9b3d d43d fc3d cda1 1cbd 140a 80be
000002d0: fa4d 06bd bb19 2d3d af09 76be 72c9 7a3e
000002e0: a780 32be a83b 2bbd 8389 93be 59e6 52bd
000002f0: 1aab 4d3e 1dde 41be de47 4dbd 688d 963e
00000300: 69e1 75be b194 d23e bd76 603e 0c27 87bd
00000310: eb16 f8be 8eb7 b33d 0ac3 eabd d20b a7be
00000320: d806 653e e7b0 e5bd cef0 483c 99ac c1bd
00000330: 641c 09be 4654 8d3e eb43 91bd de52 4cbe
00000340: d943 443e 41ad 5d3d 4ef9 033e fbf6 793e
00000350: 298d 55bd 68c3 153e f9b8 da3c b6cf 1cbe
00000360: e936 8a3e 4e3d f3bc b01b 163e e865 253e
00000370: ca0e bbbd 3cfd 7d3d a347 803e 79b2 9e3e
00000380: f55f 833d 2f30 47be 5be6 05be 1d43 2e3e
00000390: 7833 80be b3da 2e3e df8b f1bc 2950 65be
000003a0: 8635 06be 9e45 8cbe 320a 953e 1b49 f6bc
000003b0: 6920 3bbe 3a87 13be fa31 65be 3975 533e
000003c0: 32fb 2f3e c428 043c 14d0 273e 6c95 b1bb
000003d0: 1737 04bc 9c0b 2a3e 85c4 2f3e dad8 0c3d
000003e0: 396a bc3d 8e99 13bc 3002 6ebe 0c8d f63d
000003f0: b48e c13d 41dc 72bc dd6f 7e3d a06c bcbd

sequential/dense_3/MatMul;sequential/dense_3/Relu;sequential/dense_3/BiasAdd f4 [96]
-0.49899936 0.47013697 -0.47033617 -1.522334 0.19972767 0.18155646 0.59126806 0.02945322
1.1123916 0.55274314 -0.24189769 1.1558586 -0.11158892 0.076804824 -0.22944465 0.9497307
-0.30765885 -0.39811313 0.35895577 0.9569592 0.62723756 0.7124039 1.0740243 0.37890443
0.23412077 -0.26525235 0.4476765 -0.08474528 -0.53272945 -0.021856511 -1.2562815 0.1374406
0.22707474 1.5110172 0.018007526 -0.52147067 0.041058086 -1.1097716 0.44854307 -0.74365866
-0.40520126 1.8190491 0.20496489 0.83858764 0.6755529 0.051533252 1.0385945 -0.6299759
1.4286865 1.4786483 0.12742858 0.65073764 0.5768984 0.70600486 -0.21107592 0.16653612
-0.88057595 -0.019832488 2.3413165 0.30262223 0.067850746 1.859256 0.49706775 0.4737446
0.61665636 0.04601879 0.49040106 0.603942 -0.4314245 0.8446185 -0.32824317 -0.010405775
0.37192383 0.015834533 0.18025492 -0.23882042 0.9842282 0.016953966 0.10938125 -0.6947649
0.6727228 -0.05433724 0.45481318 -0.557902 1.2302837 -0.028068082 0.5286555 1.1360899
0.0038399957 2.0920768 0.23617254 0.45897424 0.17517704 -0.7174531 -0.48499447 -0.19319566
00000000: d87c ffbe cbb5 f03e e7cf f0be d7db c2bf
00000010: 6985 4c3e f0e9 393e 585d 173f e147 f13c
00000020: d962 8e3f 9380 0d3f 07b4 77be 2df3 933f
00000030: bb88 e4bd d94b 9d3d 8af3 6abe 8d21 733f
00000040: 7685 9dbe 7cd5 cbbe 0dc9 b73e 47fb 743f
00000050: a492 203f 1a60 363f a179 893f c3ff c13e
00000060: 5bbd 6f3e 28cf 87be db35 e53e ef8e adbd
00000070: f560 08bf 6d0c b3bc d5cd a0bf 3bbd 0c3e
00000080: 4886 683e 0369 c13f 8584 933c 1a7f 05bf
00000090: 862c 283d ff0c 8ebf 70a7 e53e 6a60 3ebf
000000a0: 8a76 cfbe 9ad6 e83f 51e2 513e aead 563f
000000b0: 09f1 2c3f 8814 533d aaf0 843f 1a46 21bf
000000c0: 33df b63f 5944 bd3f a37c 023e be96 263f
000000d0: 9daf 133f bcbc 343f 4924 58be 7288 2a3e
000000e0: 6d6d 61bf be77 a2bc 21d8 1540 4df1 9a3e
000000f0: 55f5 8a3d 1afc ed3f aa7f fe3e a78e f23e
00000100: 31dd 1d3f 337e 3c3d d915 fb3e f19b 1a3f
00000110: ace3 dcbe eb38 583f 7d0f a8be fc7c 2abc
00000120: cd6c be3e 6cb7 813c bf94 383e 578d 74be
00000130: 61f6 7b3f 0be3 8a3c 4703 e03d 1ddc 31bf
00000140: 9037 2c3f ba90 5ebd 46dd e83e aad2 0ebf
00000150: f079 9d3f 09ef e5bc f855 073f 656b 913f
00000160: 70a8 7b3b 96e4 0540 37d7 713e acfe ea3e
00000170: 9c61 333e 02ab 37bf 3251 f8be 15d5 45be

sequential/batch_normalization_2/batchnorm/mul_1;sequential/batch_normalization_2/batchnorm/add_1;sequential/dense_3/MatMul;sequential/dense_3/Relu;sequential/dense_3/BiasAdd f4 [96, 96]
-0.07299996 0.12445836 0.1313648 -0.17839205 0.11904265 0.046873122 0.06527763 -0.013536205
0.019785006 -0.059171207 -0.05594028 -0.038094893 -0.2044495 0.12164381 -0.06393264 0.056661338
0.20175931 -0.010956694 0.022900319 0.02209003 -0.07791656 -0.064222194 0.0007113733 0.15208416
0.24690957 -0.09843384 -0.09084773 0.08248204 0.14615439 -0.016876636 -0.09581689 -0.1263001
-0.08193668 0.12973602 0.20497286 0.11546753 0.09272429 -0.13769837 0.061936967 -0.0017037692
0.078264326 0.19793516 -0.06664871 0.17694965 -0.0032422575 -0.0155858435 -0.103957295 0.047771547
0.1352241 -0.19379069 -0.026900262 0.07797352 -0.018912526 0.029285772 0.1023804 0.13382787
-0.0022472693 0.13388285 -0.11569927 0.024248054 -0.04959234 0.13430168 0.12860799 0.22411957
0.08112667 -0.04198122 -0.12803152 -0.19363001 -0.1132976 -0.16497685 0.17088345 0.023866754
0.101992264 0.16880913 0.117831215 0.07468826 0.07139425 0.13705967 -0.18620273 0.12025463
0.01345378 -0.08879719 -0.13273105 -0.05396615 -0.09201494 -0.08716128 -0.02571272 -0.01353027
-0.07368533 -0.06963311 0.05254794 -0.075386696 -0.07326773 -0.12748045 -0.11475093 -0.09776774
0.1530543 -0.16964895 -0.22739315 -0.22644138 -0.159507 0.037830543 0.068595715 -0.16317144
-0.11770627 0.06774722 -0.2007049 -0.23462678 0.107716694 0.026883658 0.1495575 -0.14426577
0.035148345 -0.013252118 -0.18119915 -0.057122786 -0.005292253 -0.20469888 0.12617457 -0.13830248
0.23898156 0.12444969 0.18502149 -0.17044622 -0.027611718 -0.060435276 -0.16548875 0.16553925
0.036245286 -0.11176701 -0.22250006 0.10243053 0.020326734 -0.042180005 -0.17938499 0.018517662
0.026064523 0.1316673 -0.15736221 -0.023512525 0.10478909 0.05115443 0.10070345 -0.013996973
0.012087745 0.007789005 0.15820946 0.21499513 0.09143228 0.020087538 -0.042758565 -0.12611343
-0.13733377 0.07867553 -0.17563479 0.02869826 -0.047382765 0.07015964 0.009673868 0.13586055
-0.040347885 -0.013180552 0.086704485 0.0464042 0.07983164 -0.016435554 -0.0020375212 0.008110689
-0.055895165 0.12082607 0.115689196 -0.004779042 0.20693158 0.09965604 -0.08125417 0.19102609
-0.095161505 0.14663112 -0.049287036 -0.013913102 0.16246665 -0.1705451 -0.07199279 -0.107159324
0.027301604 -0.08750166 0.15772642 0.07982078 -0.10258772 -0.18470863 0.0074413987 0.21988107
0.18830676 -0.10280889 0.21504225 0.19070761 -0.10531066 -0.08392862 0.08229573 -0.14716211
-0.103014946 -0.008058932 -0.14128292 0.13324314 -0.043110635 0.045843113 -0.15085848 0.072566696
0.1777305 -0.019192986 -0.0584867 -0.12985736 0.072821245 -0.042120356 -0.14815764 0.09000913
-0.02875607 -0.15983935 0.12796633 -0.06368783 -0.10804218 0.07219922 0.08931824 0.08993131
0.034798875 -0.057911836 0.0027261972 0.006762 -0.086171255 0.18701734 -0.19345301 -0.12059266
-0.1740674 -0.10902827 0.26411477 -0.23276202 0.1591236 0.18779214 0.13235648 0.038853485
0.17936222 0.03947476 -0.017975172 -0.20397472 0.12670387 -0.1044774 0.09446927 0.08271601
-0.16131864 0.04239261 -0.04174675 -0.08305819 0.038400993 0.17968664 -0.032662872 0.1081905
00000000: 0181 95bd 06e4 fe3d 7e84 063e 68ac 36be
00000010: a2cc f33d 08fe 3f3d 47b0 853d f5c6 5dbc
00000020: 2a14 a23c 825d 72bd a321 65bd 6409 1cbd
00000030: 365b 51be 6420 f93d 1eef 82bd b815 683d
00000040: fe99 4e3e b583 33bc 7399 bb3c 27f6 b43c
00000050: b892 9fbd ed86 83bd 747b 3a3a f3bb 1b3e
00000060: ddd5 7c3e ae97 c9bd 600e babd 58ec a83d
00000070: 7fa9 153e df40 8abc a53b c4bd d054 01be
00000080: 6bce a7bd 85d9 043e 68e4 513e 3e7a ec3d
00000090: 3ce6 bd3d cd00 0dbe 9eb1 7d3d 0251 dfba
000000a0: 0c49 a03d 84af 4a3e 1e7f 88bd 4a32 353e
000000b0: 0e7c 54bb c45b 7fbc 90e7 d4bd 19ac 433d
000000c0: 3078 0a3e 1171 46be f05d dcbc 95b0 9f3d
000000d0: 71ee 9abc b7e8 ef3c d1ac d13d 2c0a 093e
000000e0: ec46 13bb 9618 093e bdf3 ecbd dba3 c63c
000000f0: 5621 4bbd 6186 093e d0b1 033e 9a7f 653e
00000100: bd25 a63d 80f4 2bbd b21a 03be f246 46be
00000110: 9208 e8bd b1ef 28be 12fc 2e3e 3684 c33c
00000120: 52e1 d03d 4ddc 2c3e 7e51 f13d 29f6 983d
00000130: 2637 923d 5f59 0c3e eeab 3ebe 0f48 f63d
00000140: 3e6d 5c3c 4ddb b5bd a6ea 07be 9c0b 5dbd
00000150: 5472 bcbd 9d81 b2bd 7ba3 d2bc 11ae 5dbc
00000160: 56e8 96bd ce9b 8ebd 823c 573d 5764 9abd
00000170: 640d 96bd 3c8a 02be 8902 ebbd 743a c8bd
00000180: 44ba 1c3e 74b8 2dbe c0d9 68be 40e0 67be
00000190: ce55 23be 33f4 1a3d e97b 8c3d 6a16 27be
000001a0: fc0f f1bd 0ebf 8a3d 9685 4dbe 0142 70be
000001b0: 929a dc3d 1e3b dc3c 9a25 193e 68ba 13be
000001c0: b6f7 0f3d 691f 59bc 458c 39be 95f9 69bd
000001d0: a36a adbb 959c 51be e833 013e 2a9f 0dbe
000001e0: 95b7 743e 7bdf fe3d 4676 3d3e 7489 2ebe
000001f0: f831 e2bc fb8a 77bd e275 29be 1f83 293e
00000200: f075 143d 1ae6 e4bd 0ed7 63be 19c7 d13d
00000210: 4084 a63c f1c4 2cbd b3b0 37be 5ab2 973c
00000220: 4485 d53c cbd3 063e 8f23 21be 579d c0bc
00000230: aa9b d63d 4f87 513d 9c3d ce3d 8f53 65bc
00000240: ad0b 463c e93a ff3b a901 223e af27 5c3e
00000250: d940 bb3d 9f8e a43c 9b23 2fbd e123 01be
00000260: 39a1 0cbe a320 a13d 9bd9 33be 9d18 eb3c
00000270: 6e14 42bd dbaf 8f3d 257f 1e3c 071f 0b3e
00000280: d343 25bd 3ef3 57bc 1f92 b13d 5512 3e3d
00000290: c57e a33d dba3 86bc ef87 05bb b2e2 043c
000002a0: 54f2 64bd a973 f73d 75ee ec3d 8399 9cbb
000002b0: dfe5 533e 7718 cc3d 9668 a6bd 589c 433e
000002c0: 09e4 c2bd 7826 163e 34e1 49bd c8f3 63bc
000002d0: a85d 263e 60a3 2ebe f570 93bd 5976 dbbd
000002e0: 9da7 df3c 1234 b3bd 0983 213e 1479 a33d
000002f0: 8319 d2bd 4224 3dbe fad6 f33b 8128 613e
00000300: 7dd3 403e 788d d2bd 0934 5c3e db48 433e
00000310: 1ead d7bd c5e2 abbd aa8a a83d aab1 16be
00000320: 80f9 d2bd 9c09 04bc 78ac 10be e470 083e
00000330: c794 30bd fdc5 3b3d a57a 1abe d99d 943d
00000340: fcfe 353e 9c3a 9dbc c08f 6fbd 54f9 04be
00000350: 4e23 953d 6586 2cbd a3b6 17be b556 b83d
00000360: da91 ebbc edac 23be 9b09 033e c46e 82bd
00000370: 3845 ddbd 2fdd 933d 7bec b63d e82d b83d
00000380: 4489 0e3d f634 6dbd 00aa 323b c493 dd3b
00000390: 8e7a b0bd 7981 3f3e 8c18 46be 49f9 f6bd
000003a0: b93e 32be 374a dfbd 0d3a 873e 2b59 6ebe
000003b0: 4cf1 223e 954c 403e 7588 073e d524 1f3d
000003c0: bbaa 373e 49b0 213d ab40 93bc c0de 50be
000003d0: a9be 013e 3ff8 d5bd 1b79 c13d 0367 a93d
000003e0: b730 25be e0a3 2d3d a4fe 2abd 6a1a aabd
000003f0: 5c4a 1d3d c6ff 373e 81c9 05bd fb92 dd3d

sequential/dense_4/MatMul;sequential/dense_4/Relu;sequential/dense_4/BiasAdd f4 [96]
0.8929081 0.40783197 -0.21752281 0.55200845 1.7003558 0.99917173 -0.5094679 1.7019302
0.5364677 0.005059235 -0.38937274 0.3700793 -1.0177276 -0.11126544 0.7648512 0.35395202
0.25297233 -0.16395856 1.2717619 0.8543546 -0.0089379605 0.7834104 0.49607193 -0.72912765
1.2887125 0.71737856 -0.21259482 0.27762485 1.2365261 -0.18832615 1.1213748 -0.4345991
-0.045528054 0.36240503 0.07760721 1.3745657 0.64423215 1.4094031 0.19162849 -0.65130186
0.89756584 1.2292074 -0.48849088 0.14947662 1.5391484 0.22329326 0.020882668 0.36996263
0.27987397 0.19124098 -0.5512042 0.97399145 0.5022304 -0.6731728 -0.009183886 -1.1971377
0.8936135 -0.35313082 -0.18161212 0.33437595 0.7445868 0.016950456 1.0499976 -0.07371713
0.26212895 -1.1654054 -0.53318 -0.30010727 0.64971393 -0.30937356 1.0408967 0.54855746
0.048087716 -0.32846168 -0.27210343 -0.013955811 0.8795947 0.25080538 0.02767558 -0.06437321
-0.3063212 -0.23514937 -0.17225726 -0.06530752 -0.20423545 -0.12538327 -0.31798255 -0.13445352
0.30118114 0.2661256 0.71470374 1.1256045 1.3686683 0.18301922 1.3554733 -0.1541312
00000000: a095 643f 5acf d03e 4dbe 5ebe 6d50 0d3f
00000010: 42a5 d93f b8c9 7f3f 7d6c 02bf d9d8 d93f
00000020: f255 093f f0c7 a53b dd5b c7be 097b bd3e
00000030: e644 82bf 23df e3bd 4acd 433f 3339 b53e
00000040: 9785 813e c1e4 27be 18c9 a23f fcb6 5a3f
00000050: 8670 12bc 958d 483f 24fd fd3e 1ca8 3abf
00000060: 88f4 a43f 1fa6 373f 75b2 59be d824 8e3e
00000070: 7d46 9e3f 92d8 40be 3689 8f3f c683 debe
00000080: a07b 3abd 278d b93e 87f0 9e3d c5f1 af3f
00000090: 66ec 243f 5267 b43f 423a 443e b8bb 26bf
000000a0: e0c6 653f ab56 9d3f 7a1b fabe 6610 193e
000000b0: d102 c53f fda6 643e 2112 ab3c be6b bd3e
000000c0: a44b 8f3e add4 433e b81b 0dbf 8157 793f
000000d0: 2c92 003f 0d55 2cbf 0378 16bc cf3b 99bf
000000e0: dbc3 643f 90cd b4be 87f8 39be 5333 ab3e
000000f0: 3e9d 3e3f afdb 8a3c 5266 863f 02f9 96bd
00000100: c435 863e 012c 95bf 7c7e 08bf a9a7 99be
00000110: a753 263f 3666 9ebe 1a3c 853f 436e 0c3f
00000120: a0f7 443d 212c a8be 2451 8bbe eaa6 64bc
00000130: 1e2d 613f 9069 803e e6b7 e23c 1ad6 83bd
00000140: 22d6 9cbe ffca 70be 3564 30be f3bf 85bd
00000150: 1923 51be 7964 00be 9cce a2be 2fae 09be
00000160: 6a34 9a3e 9d41 883e d3f6 363f cf13 903f
00000170: 8630 af3f 6469 3b3e 2680 ad3f 92d4 1dbe

sequential/batch_normalization_3/batchnorm/mul_1;sequential/batch_normalization_3/batchnorm/add_1;sequential/dense_4/MatMul;sequential/dense_4/Relu;sequential/dense_4/BiasAdd f4 [96, 96]
-0.10273793 0.11759727 -0.13625091 0.12235194 -0.114654064 -0.07085312 0.10689724 0.05480013
0.0484435 0.009783173 0.04825289 0.16080335 0.07276373 -0.18604025 -0.11216328 0.07231009
0.13317688 0.14623035 -0.1101299 -0.016604519 0.19045044 -0.10209815 0.0053553665 0.10221746
0.046403095 0.121780716 0.04736499 -0.024380721 -0.12654015 -0.1545545 0.08058542 -0.19474441
0.0046539367 -0.07416796 0.071080275 0.18630078 -0.0035595594 -0.022885317 -0.06462879 0.050821654
-0.07974893 0.036589548 -0.083452895 -0.10879341 -0.2033755 0.10422537 -0.10208916 0.065420516
-0.1664888 0.19352597 0.03523724 -0.17132413 -0.109724015 0.07213042 -0.19652435 -0.15342045
0.024628313 -0.18394892 0.051474787 0.19019455 -0.017202232 0.051759146 0.053545304 -0.050013684
0.049042117 -0.18801369 -0.13212222 -0.05600047 0.111251675 -0.027302599 0.15237595 0.05439249
-0.17554653 0.049884267 -0.07660871 -0.027602872 0.061493408 0.05196046 -0.16563244 -0.038152568
0.028602097 -0.061747145 0.08236608 0.092115745 -0.11371821 0.0832122 -0.11524478 -0.060253143
0.06668689 -0.06946149 -0.08092275 -0.005714684 -0.12337047 -0.13299438 -0.106747635 -0.07888786
-0.14274998 0.06837669 0.073204465 0.08554223 0.11071058 0.12633595 -0.19135572 -0.13819481
-0.006488918 0.050638724 -0.15645234 -0.20206468 -0.17123213 0.089462824 -0.14863862 0.011269326
0.0645986 0.05990662 -0.188567 0.09298319 -0.059190832 0.14453356 0.03299466 -0.097500764
-0.093762755 0.09313463 0.010066757 0.06824527 -0.11785381 0.15311594 0.07323577 -0.07501106
-0.022844018 -0.1608207 -0.16391523 -0.09268914 -0.15733589 0.0812857 0.14274542 -0.011580154
0.083768725 0.18950051 -0.09494408 -0.08323801 -0.06509626 -0.080597326 0.07964286 0.12145229
0.13709506 -0.16913813 0.11093125 0.14643325 0.19852172 -0.07365208 0.11759752 -0.1369211
0.0629677 -0.16120689 0.042011995 -0.15466042 0.14940813 -0.16570513 -0.17320563 0.1206395
0.03946754 -0.026976187 0.17423086 0.063633524 0.02332515 0.033933796 0.15234908 0.13453184
-0.0975267 -0.21469635 0.009291979 -0.10210696 0.17115217 0.17874959 -0.08730593 0.07975509
-0.042486437 0.079807684 0.078153566 -0.1640008 -0.045478396 -0.10896047 -0.11632928 0.15184116
0.1010943 0.017229259 0.08564021 0.044938426 -0.14485544 -0.06801032 0.12006861 -0.06473427
0.036444504 -0.06434391 0.094015375 -0.007219262 0.15647084 0.16620119 0.15825811 0.03809079
0.05515937 -0.020816432 -0.07388845 -0.011478998 -0.08566214 -0.030085329 -0.0007586699 -0.114945315
-0.13035892 0.13640358 -0.15049304 0.08125824 0.06504445 0.060035318 -0.036494266 0.15239908
-0.036225334 -0.118259646 -0.059106655 -0.24006261 -0.0046913624 0.22799876 -0.055036414 -0.031676084
-0.16121061 0.15736054 0.12455195 0.022159591 0.11944066 -0.03162845 0.092395104 -0.10027235
-0.12585987 -0.08215585 -0.08483305 -0.04278176 0.075624555 0.14533623 -0.02948525 -0.12786712
-0.04242434 -0.15120216 0.10776753 0.12698859 0.13075364 -0.11424922 0.14130174 0.08378956
0.05230218 0.09871604 -0.18168281 0.19518606 0.1562724 -0.031453736 0.032197077 -0.102712415
00000000: 4468 d2bd d6d6 f03d 5c85 0bbe a793 fa3d
00000010: c0cf eabd 711b 91bd f1ec da3d 1a76 603d
00000020: b16c 463d 9a49 203c d3a4 453d a2a9 243e
00000030: 2705 953d 5681 3ebe ddb5 e5bd 5017 943d
00000040: 855f 083e 69bd 153e c98b e1bd 3306 88bc
00000050: 7105 433e d618 d1bd 127c af3b 6357 d13d
00000060: 2c11 3e3d 2b68 f93d cb01 423d 14ba c7bc
00000070: be93 01be 8943 1ebe f809 a53d 146b 47be
00000080: 0d80 983b 5fe5 97bd 8992 913d a2c5 3e3e
00000090: 7f47 69bb fd79 bbbc 195c 84bd 5e2a 503d
000000a0: 6853 a3bd ecde 153d 5ae9 aabd 14cf debd
000000b0: ab41 50be 1c74 d53d 1f14 d1bd 31fb 853d
000000c0: 0a7c 2abe ac2b 463e ed54 103d 986f 2fbe
000000d0: fcb6 e0bd 1db9 933d ae3d 49be 401a 1dbe
000000e0: 51c1 c93c 1b5d 3cbe 3ad7 523d 5cc2 423e
000000f0: b2eb 8cbc 6601 543d 5252 5b3d 26db 4cbd
00000100: 63e0 483d a986 40be 0c4b 07be c060 65bd
00000110: ebd7 e33d b3a9 dfbc 7108 1c3e a9ca 5e3d
00000120: 78c2 33be 7253 4c3d 07e5 9cbd 6b1f e2bc
00000130: 83e0 7b3d 7ed4 543d 8d9b 29be de45 1cbd
00000140: f24e ea3c 93ea 7cbd 8caf a83d 2ea7 bc3d
00000150: 18e5 e8bd 286b aa3d 7505 ecbd 00cc 76bd
00000160: 2393 883d d341 8ebd d4ba a5bd 3e42 bbbb
00000170: a8a9 fcbd ae2f 08be 819e dabd f58f a1bd
00000180: 0d2d 12be 1409 8c3d 39ec 953d c430 af3d
00000190: 3bbc e23d 365e 013e c1f2 43be f182 0dbe
000001a0: fda0 d4bb 8d6a 4f3d 0b35 20be 0bea 4ebe
000001b0: 7a57 2fbe 4938 b73d b934 18be fba2 383c
000001c0: 454c 843d a560 753d b517 41be f96d be3d
000001d0: 1672 72bd 9b00 143e 6925 073d 7bae c7bd
000001e0: b006 c0bd 5ebd be3d 0aef 243c 2dc4 8b3d
000001f0: 575d f1bd 6dca 1c3e a3fc 953d 669f 99bd
00000200: 6123 bbbc 2eae 24be 65d9 27be ced3 bdbd
00000210: a91c 21be 1e79 a63d db2b 123e b0ba 3dbc
00000220: f08e ab3d 6c0c 423e 0b72 c2bd b178 aabd
00000230: 3051 85bd 3610 a5bd cc1b a33d fabb f83d
00000240: a662 0c3e 8c32 2dbe ec2f e33d 99f2 153e
00000250: 4749 4b3e e7d6 96bd f8d6 f03d 0b35 0cbe
00000260: 36f5 803d 6b13 25be c514 2c3d 4d5f 1ebe
00000270: 72fe 183e 9bae 29be d15c 31be d811 f73d
00000280: b7a8 213d 2afd dcbc 9369 323e 4b52 823d
00000290: 6314 bf3c 2afe 0a3d 6601 1c3e b7c2 093e
000002a0: 14bc c7bd 5cd9 5bbe 623d 183c 741d d1bd
000002b0: 8442 2f3e 220a 373e 74cd b2bd a356 a33d
000002c0: 4206 2ebd 3672 a33d fa0e a03d d3ef 27be
000002d0: 8e47 3abd ab26 dfbd 0c3e eebd 407c 1b3e
000002e0: 870a cf3d 6024 8d3c 2264 af3d 5b11 383d
000002f0: fc54 14be ff48 8bbd 88e6 f53d 6793 84bd
00000300: d546 153d bdc6 83bd 228b c03d 8f8f ecbb
00000310: e439 203e a530 2a3e 6a0e 223e 1705 1c3d
00000320: cbee 613d 3987 aabc d452 97bd 6812 3cbc
00000330: a26f afbd 8275 f6bc 7ae1 46ba 7368 ebbd
00000340: cf7c 05be 61ad 0b3e d91a 1abe b86a a63d
00000350: 0636 853d 98e7 753d 037b 15bd 810e 1c3e
00000360: 0461 14bd 1d32 f2bd d219 72bd f9d2 75be
00000370: 00ba 99bb 8278 693e dd6d 61bd c8be 01bd
00000380: 6514 25be 1f23 213e 1815 ff3d 0888 b53c
00000390: 4e9d f43d d58c 01bd a539 bd3d 975b cdbd
000003a0: 69e1 00be 5441 a8bd f3bc adbd ed3b 2fbd
000003b0: 0ce1 9a3d 05d3 143e 0d8b f1bc 99ef 02be
000003c0: 25c5 2dbd bdd4 1abe 39b5 dc3d 4c09 023e
000003d0: 48e4 053e 7ffb e9bd 67b1 103e dc99 ab3d
000003e0: d03a 563d a32b ca3d 0f0b 3abe dbde 473e
000003f0: df05 203e a2d5 00bd 15e1 033d e35a d2bd

sequential/dense_5/MatMul;sequential/dense_5/Relu;sequential/dense_5/BiasAdd f4 [96]
2.0823822 0.6302267 0.37372854 -0.15071917 0.30195352 -0.58666265 0.98435336 -0.3378366
0.09216203 1.6368122 0.13702764 0.22311112 1.0682325 0.5193772 0.13769609 0.60308117
1.0890429 0.45835066 0.7333183 -0.9326508 0.21096188 1.3184028 -0.32197028 -1.681531
0.1906492 -0.19160636 0.533983 0.7817255 -0.23126148 -0.024913667 -0.036467962 -0.24598789
0.82798564 0.15248589 -0.5987672 0.82274294 -0.43961757 0.6577816 0.081912026 0.604137
0.72889316 0.18483438 0.22518468 0.032444954 0.22625336 0.16048995 1.2054042 -0.2037457
0.96702373 0.49209046 0.49197748 0.06697487 0.34473044 1.1036927 -1.0255156 0.52390707
-0.16461812 0.22484091 -0.6965087 1.6021137 0.945777 1.1721563 1.1756763 0.92091745
1.5468878 1.2250997 0.70516044 0.65521145 0.76600236 -0.09441241 -0.2795894 1.452708
0.79958194 1.2550765 0.99688643 -0.21191597 0.67902285 2.0661423 1.8156257 2.041915
-0.5755117 0.5448557 0.4070745 1.2251054 0.9385526 1.5068762 0.32102418 0.9811589
0.5903363 0.15830794 1.3613001 0.20254202 -0.7897101 0.48374724 0.84218216 -0.29264125
00000000: c045 0540 8956 213f 5959 bf3e 2056 1abe
00000010: a799 9a3e 862f 16bf 95fe 7b3f ebf8 acbe
00000020: 72bf bc3d 1083 d13f f950 0c3e 3e77 643e
00000030: d8bb 883f e7f5 043f 3400 0d3e 8763 1a3f
00000040: c265 8b3f f0ac ea3e c0ba 3b3f 34c2 6ebf
00000050: 6406 583e 6cc1 a83f 4ad9 a4be 683c d7bf
00000060: 8b39 433e 7534 44be 1cb3 083f 2a1f 483f
00000070: cfcf 6cbe bf17 ccbc 6e5f 15bd 40e4 7bbe
00000080: def6 533f 4325 1c3e cf48 19bf 489f 523f
00000090: 8e15 e1be 6064 283f 7ec1 a73d b9a8 1a3f
000000a0: be98 3a3f 3945 3d3e d096 663e 00e5 043d
000000b0: f6ae 673e 7a57 243e af4a 9a3f b6a2 50be
000000c0: de8e 773f 48f3 fb3e 79e4 fb3e 1f2a 893d
000000d0: 8280 b03e cd45 8d3f 1844 83bf c61e 063f
000000e0: a791 28be b23c 663e 654e 32bf 1012 cd3f
000000f0: 711e 723f 3809 963f 907c 963f 3fc1 6b3f
00000100: 6b00 c63f 11d0 9c3f 6585 343f f0bb 273f
00000110: bb18 443f 4b5b c1bd 5826 8fbe 56f2 b93f
00000120: 67b1 4c3f 59a6 a03f f333 7f3f 8000 59be
00000130: 71d4 2d3f ad3b 0440 6c66 e83f bcae 0240
00000140: bc54 13bf aa7b 0b3f 126c d03e 41d0 9c3f
00000150: fc44 703f 52e1 c03f 485d a43e 3b2d 7b3f
00000160: 4820 173f 7a1b 223e 153f ae3f 2d67 4f3e
00000170: 712a 4abf b8ad f73e 4099 573f 13d5 95be

sequential/batch_normalization_4/batchnorm/mul_1;sequential/batch_normalization_4/batchnorm/add_1;sequential/dense_5/MatMul;sequential/dense_5/Relu;sequential/dense_5/BiasAdd f4 [96, 96]
-0.052981094 -0.09821023 -0.009286567 0.03936386 -0.1584277 -0.0017378938 0.03607359 -0.20106901
0.09334099 0.1926324 -0.12312896 -3.5748e-05 0.091622874 0.04477944 -0.12532702 -0.05526867
0.030599 0.15414377 -0.032559298 -0.24023372 0.121210404 -0.10234601 -0.12688322 -0.20137782
-0.08899718 -0.20458248 0.13880177 -0.09860671 0.0032537044 0.033429865 -0.14763442 0.039430335
-0.016006934 -0.24949785 -0.101690456 0.08345982 -0.19673413 -0.17835636 0.1730685 0.06152548
-0.0208023 -0.14484808 -0.15177044 0.106186986 -0.15187237 0.02284406 -0.06648678 -0.024268355
-0.016877264 -0.020741671 -0.09371278 0.05599528 -0.09471424 -0.09252188 0.08264282 -0.013097027
0.07710137 0.07626975 0.1556456 0.14265333 0.056199662 -0.06913084 -0.07029403 0.07071307
-0.10769811 0.011017916 -0.021987276 -0.010125016 -0.3324681 -0.02745505 -0.13130255 -0.15919836
0.028658144 -0.048673727 -0.12745397 -0.0691487 0.13646057 0.12150031 0.10917754 0.06952526
0.12320144 0.1531039 0.024389207 -0.11751408 -0.06419128 0.06471631 -0.118668824 0.10660114
-0.00033555567 -0.055186536 -0.08157448 -0.14703032 -0.19554731 -0.11327829 -0.11222925 0.06458872
-0.026409777 0.008445742 0.08339617 0.08976187 -0.13782403 0.062267944 0.02454043 0.08278984
0.0071171094 -0.04027244 0.060411453 -0.059165984 -0.19047953 0.14996432 0.07219672 -0.04301077
0.14839025 0.0031901943 0.030487504 0.07534029 0.008080191 -0.12149798 -0.026637554 0.1615584
-0.025050558 -0.17475505 -0.019770017 0.23181373 0.052499093 -0.020246629 -0.15978937 0.087540425
-0.03295615 -0.1138569 -0.1619004 -0.15341508 0.015076618 0.1675422 0.08419999 -0.2554039
0.07969996 -0.082352504 -0.12024685 -0.029317712 0.057095043 -0.016639661 -0.071767 0.11270773
-0.027117414 -0.036539316 -0.044410855 0.029832471 0.04523529 -0.14162478 -0.086616755 0.11098283
-0.063728526 0.06283135 -0.14588228 -0.15722223 0.15523802 -0.07673038 0.10063672 -0.11054546
0.019169653 0.115371116 0.03981084 -0.028263815 -0.10895898 -0.041194893 0.15210298 -0.10286189
-0.056380022 0.0040706205 0.13950562 -0.09508371 -0.19392948 0.04293583 -0.031655326 -0.12293565
0.14341348 -0.14394787 -0.14935619 -0.13534954 -0.008580756 0.009653284 0.004732738 0.1292731
-0.13590863 -0.021704279 0.121180736 -0.09746414 -0.17185867 -0.06019233 0.13112101 -0.115691215
0.12280906 0.019673688 0.03968612 0.04088192 -0.06192444 0.05023491 0.13261047 0.0829851
-0.06717937 0.08111648 -0.013708287 0.153438 -0.19107215 0.08250798 -0.12788418 0.06940846
-0.18558264 -0.0042831316 -0.15268806 0.009885408 0.094218254 -0.13228384 -0.12625368 -0.14014247
-0.008400438 -0.09745083 -0.17326549 0.20876858 -0.050474755 -0.09668238 -0.07439856 0.022231244
0.03454678 0.11430068 0.08044128 0.12052389 -0.08925964 -0.11574447 0.14148085 -0.0592446
0.084029116 -0.10479235 -0.027071133 -0.12551692 0.19039243 -0.04352099 -0.15675284 -0.13487113
0.05504209 0.13179295 -0.18518941 -0.028350282 0.028250149 -0.1259393 0.046070434 0.12006972
0.099228404 -0.093765184 -0.10917859 0.029474668 0.12919614 -0.11147159 0.025844961 -0.20381787
00000000: b402 59bd 7222 c9bd af26 18bc 003c 213d
00000010: df3a 22be 0aca e3ba e7c1 133d 09e5 4dbe
00000020: 9029 bf3d 6e41 453e 092b fcbd 1ff0 15b8
00000030: c6a4 bb3d a56a 373d ba55 00be 6761 62bd
00000040: c1aa fa3c ddd7 1d3e e65c 05bd d4ff 75be
00000050: 293d f83d c99a d1bd aded 01be fd35 4ebe
00000060: 2744 b6bd 127e 51be 0d22 0e3e 51f2 c9bd
00000070: 1a3c 553b c1ed 083d 7a2d 17be b481 213d
00000080: f920 83bc 5d7c 7fbe 1643 d0bd fbec aa3d
00000090: ac74 49be 0da3 36be de38 313e 2402 7c3d
000000a0: 9669 aabc 0e53 14be b669 1bbe 9078 d93d
000000b0: 6e84 1bbe 7723 bb3c 392a 88bd 6ece c6bc
000000c0: 3042 8abc 70ea a9bc 7cec bfbd 4f5b 653d
000000d0: 8af9 c1bd 1d7c bdbd a440 a93d ea94 56bc
000000e0: 53e7 9d3d 5133 9c3d 8f61 1f3e b713 123e
000000f0: 9e31 663d 7894 8dbd 51f6 8fbd 04d2 903d
00000100: d490 dcbd 7d84 343c a91e b4bc 65e3 25bc
00000110: 4239 aabe 6ae9 e0bc 2d74 06be e504 23be
00000120: 7cc4 ea3c 1a5e 47bd 4b83 02be d59d 8dbd
00000130: 52bc 0b3e 28d5 f83d 7998 df3d 4263 8e3d
00000140: 0951 fc3d 45c7 1c3e e0cb c73c 39ab f0bd
00000150: b876 83bd fc89 843d a408 f3bd b351 da3d
00000160: 85ed afb9 470b 62bd 8510 a7bd 1e8f 16be
00000170: 8e3d 48be 73fe e7bd 73d8 e5bd 1747 843d
00000180: 5159 d8bc 0260 0a3c 9ccb aa3d 12d5 b73d
00000190: be21 0dbe ac0c 7f3d 0309 c93c b88d a93d
000001a0: a436 e93b b7f4 24bd 0072 773d 0858 72bd
000001b0: 110d 43be 3f90 193e e0db 933d 102c 30bd
000001c0: 9df3 173e 9412 513b eec0 f93c 034c 9a3d
000001d0: c762 043c efd3 f8bd 0037 dabc 916f 253e
000001e0: d436 cdbc fdf2 32be bbf4 a1bc 9460 6d3e
000001f0: 4a09 573d 42dc a5bc d39f 23be 6548 b33d
00000200: 07fd 06bd ce2d e9bd 38c9 25be d818 1dbe
00000210: eb03 773c 2f90 2b3e 0b71 ac3d 4dc4 82be
00000220: bc39 a33d 6ea8 a8bd fb43 f6bd b32b f0bc
00000230: 7edc 693d e64f 88bc 94fa 92bd 4fd3 e63d
00000240: 5725 debc 40aa 15bd 28e8 35bd 3a63 f43c
00000250: a448 393d 1606 11be 2064 b1bd f74a e33d
00000260: 1a84 82bd b9ad 803d 2a62 15be ddfe 20be
00000270: b7f6 1e3e d124 9dbd a01a ce3d a865 e2bd
00000280: ad09 9d3c b147 ec3d b110 233d 8489 e7bc
00000290: e325 dfbd fabb 28bd e2c0 1b3e 41a9 d2bd
000002a0: bdee 66bd d762 853b 90da 0e3e 40bb c2bd
000002b0: 7395 46be 7bdd 2f3d 04a9 01bd b0c5 fbbd
000002c0: fcda 123e 1267 13be d4f0 18be 1299 0abe
000002d0: 4d96 0cbc cf28 1e3c 1515 9b3b 2b60 043e
000002e0: a22b 0bbe 2ccd b1bc 9b2d f83d 479b c7bd
000002f0: b8fb 2fbe 3c8c 76bd 9644 063e 84ef ecbd
00000300: 5183 fb3d b72a a13c ea8d 223d cd73 273d
00000310: 7ba4 7dbd 1fc3 4d3d 0acb 073e 18f4 a93d
00000320: 5695 89bd 6620 a63d b998 60bc da1e 1d3e
00000330: 6ba8 43be f2f9 a83d 12f4 02be 0626 8e3d
00000340: 6009 3ebe 8359 8cbb 425a 1cbe 68f6 213c
00000350: 80f5 c03d 6a75 07be a548 01be 8281 0fbe
00000360: fea1 09bc 4d94 c7bd 826c 31be 6ec7 553e
00000370: 9ebe 4ebd 6901 c6bd 465e 98bd 4c1e b63c
00000380: ed80 0d3d 7a16 ea3d 66be a43d 3bd5 f63d
00000390: c2cd b6bd 700b edbd 5be0 103e 77aa 72bd
000003a0: 7517 ac3d 5f9d d6bd 48c4 ddbc 8287 00be
000003b0: 3cf6 423e 1143 32bd d183 20be a81b 0abe
000003c0: d173 613d bbf4 063e 4ba2 3dbe da3e e8bc
000003d0: db6c e73c 3bf6 00be 5ab4 3c3d 1de7 f53d
000003e0: 4338 cb3d f607 c0bd 0699 dfbd dc74 f13c
000003f0: fe4b 043e 384b e4bd d0b8 d33c a2b5 50be

sequential/dense_6/MatMul;sequential/dense_6/BiasAdd f4 [27]
1.4632344 1.8475469 0.337927 1.2397449 -3.3857472 0.07401264 -1.9781854 -0.4392759
0.1750584 0.803392 -0.8578518 1.0170153 1.5051347 0.0046779434 0.9015637 0.6085527
0.6277391 2.3552482 2.2752085 2.112215 0.92556995 -0.5162387 -1.1975389 -0.4896213
1.5345438 0.5450452 -0.062553085
00000000: 444b bb3f 6b7c ec3f c504 ad3e f6af 9e3f
00000010: 15b0 58c0 f093 973d 2e35 fdbf c5e8 e0be
00000020: 8242 333e 19ab 4d3f 2d9c 5bbf 8f2d 823f
00000030: 41a8 c03f 6f49 993b e1cc 663f 1cca 1b3f
00000040: 82b3 203f 63bc 1640 049d 1140 882e 0740
00000050: 27f2 6c3f 3828 04bf f448 99bf a5af fabe
00000060: ee6b c43f 1588 0b3f d51b 80bd

sequential/batch_normalization_5/batchnorm/mul_1;sequential/batch_normalization_5/batchnorm/add_1;sequential/dense_6/MatMul;sequential/dense_6/BiasAdd f4 [27, 96]
-0.12120424 -0.105543904 0.1366116 0.11566929 -0.12782592 0.034167957 0.09419696 -0.1202176
0.16529343 -0.17621723 0.158017 0.13527961 -0.032293584 -0.17412356 -0.2858524 0.1241177
0.17583814 0.17039318 -0.009872923 -0.14780825 0.0132650295 0.08531412 -0.028835913 -0.2307931
-0.03430148 0.11823533 -0.15879138 0.0740845 0.07366455 -0.12267001 -0.035931688 -0.2190583
0.20103183 -0.0915244 -0.20799527 -0.24685328 -0.033399906 0.01700023 0.0553758 -0.21874763
-0.064242825 -0.20682375 0.07120046 -0.047433734 -0.15411675 -0.16182715 -0.0043098214 0.009538998
-0.043318618 0.21628578 -0.0817202 -0.06055915 -0.17991439 -0.05799558 -0.23267184 -0.008381368
-0.0866865 0.1289141 0.09815013 -0.009118982 -0.022506071 -0.22292021 0.028172506 0.021183416
0.16996711 -0.2175133 0.02673773 -0.058244977 0.018910108 -0.053638343 0.009991777 0.11680687
-0.05798717 0.016205652 0.16021559 -0.115985274 -0.21135254 0.123849325 -0.033047915 0.14301376
-0.2529661 0.08492714 0.16115259 -0.033598017 0.20842783 0.02016927 0.18675306 -0.1509021
0.17715654 -0.14141965 0.15250853 -0.05385886 0.19248116 0.17978379 0.019050954 0.15857297
-0.1372671 -0.14881511 -0.14933757 -0.09120649 0.1403274 0.079354204 -0.03671435 -0.07044374
0.08776833 -0.13502125 -0.20904832 0.24114013 -0.030712856 -0.14161831 -0.20531815 0.092678845
-0.11754349 0.095387176 0.17000847 -0.054821804 -0.12870333 -0.2582983 -0.121637374 0.08272384
-0.18818249 0.06469501 -0.14456464 0.22044463 -0.006064841 0.07104742 0.24214523 -0.077614956
0.07262305 -0.10052655 0.1504185 0.15534326 0.14717431 -0.20725387 0.1272049 -0.06780681
0.16376293 0.2578645 -0.15035406 -0.10521605 0.19682711 -0.13580415 0.046935175 -0.056340825
-0.16555902 0.06870475 -0.045323912 0.20608059 -0.018038737 -0.037142865 0.02269861 0.13123845
0.18683617 -0.13399479 -0.05901362 -0.28889796 -0.18203022 -0.060726687 -0.06291444 -0.16823564
0.18985789 0.013825618 -0.24168487 -0.1473869 0.006952799 -0.028417818 0.06433776 0.16283402
-0.16159616 -0.052909125 0.07772003 -0.04577064 -0.18862152 -0.21516925 0.05084641 -0.12443904
-0.05553175 0.2831655 -0.22297567 -0.19186577 0.2088935 -0.22936024 -0.023283912 0.18286736
-0.048847254 -0.1368434 -0.14852487 -0.11488999 0.1867996 -0.18184878 -0.17750028 -0.10156028
0.24915367 -0.05422993 0.10125581 -0.106763095 -0.0021100058 -0.01881672 0.0126270605 -0.057563797
0.14140879 -0.103457145 -0.07390714 -0.20402095 0.065062 0.12576161 -0.12264091 -0.090311244
-0.14440891 -0.04839274 -0.08483879 -0.15118986 0.14555772 0.014234618 -0.17385778 -0.14007938
0.2095749 -0.18563822 -0.2757922 0.022952653 0.26113832 0.06736169 0.011349167 -0.27905914
0.17374012 0.11512362 0.022465114 -0.058466926 -0.16048327 0.099741444 -0.062715985 -0.13270825
-0.026753595 -0.15074217 0.08165353 0.04395257 -0.016428415 -0.053818855 0.08396152 0.15296432
0.047340877 -0.15696798 0.050845373 -0.263837 -0.22163765 0.14262968 0.14662336 0.06378577
0.0688664 -0.008702293 -0.15295455 -0.15387057 -0.10050633 -0.26907322 0.02826066 0.12478965
00000000: ee39 f8bd 6727 d8bd e9e3 0b3e 05e4 ec3d
00000010: cce4 02be b3f3 0b3d 56ea c03d a534 f6bd
00000020: ae42 293e 4a72 34be 35cf 213e bd86 0a3e
00000030: 4746 04bd 724d 32be 3f5b 92be 6c31 fe3d
00000040: ea0e 343e 8d7b 2e3e 0ac2 21bc 0c5b 17be
00000050: 9155 593c 2bb9 ae3d 4b39 ecbc 0755 6cbe
00000060: b57f 0cbd 5d25 f23d 359a 22be 9db9 973d
00000070: 71dd 963d 6a3a fbbd 1b2d 13bd d250 60be
00000080: 4adb 4d3e 2571 bbbd b6fc 54be 1bc7 7cbe
00000090: 57ce 08bd 1144 8b3c bcd1 623d 61ff 5fbe
000000a0: be91 83bd 9bc9 53be 8cd1 913d e049 42bd
000000b0: c8d0 1dbe 04b6 25be 6739 8dbb 7549 1c3c
000000c0: dd6e 31bd 057a 5d3e ec5c a7bd df0c 78bd
000000d0: 7a3b 38be c68c 6dbd 8741 6ebe 0152 09bc
000000e0: b188 b1bd 0f02 043e ef02 c93d c867 15bc
000000f0: a75e b8bc 3245 64be 07ca e63c d888 ad3c
00000100: dc0b 2e3e cebb 5ebe 1509 db3c 4992 6ebd
00000110: 5fe9 9a3c e1b3 5bbd 8db4 233c 7138 ef3d
00000120: f483 6dbd b7c1 843c 8e0f 243e b089 edbd
00000130: cd6c 58be b7a4 fd3d 405d 07bd 3372 123e
00000140: c684 81be 48ee ad3d 2f05 253e 139e 09bd
00000150: 1b6e 553e 063a a53c 323c 3f3e 1586 1abe
00000160: 8668 353e 50d0 10be 322b 1c3e 1c9b 5cbd
00000170: c819 453e 3e19 383e bf10 9c3c f460 223e
00000180: bf8f 0cbe fd62 18be f3eb 18be 78ca babd
00000190: fcb1 0f3e 7584 a23d c961 16bd cf44 90bd
000001a0: e2bf b33d 0343 0abe c310 56be 70ed 763e
000001b0: 8799 fbbc 6404 11be ec3e 52be 68ce bd3d
000001c0: a4ba f0bd 5a5a c33d b316 2e3e d48c 60bd
000001d0: ceca 03be ad3f 84be 041d f9bd 1e6b a93d
000001e0: e9b2 40be d17e 843d c108 14be 3dbc 613e
000001f0: 93bb c6bb 4f81 913d ebf4 773e 97f4 9ebd
00000200: 65bb 943d dde0 cdbd 4f07 1a3e 4e12 1f3e
00000210: ddb4 163e 5c3a 54be 0042 023e 4cde 8abd
00000220: 78b1 273e d106 843e 6af6 19be 837b d7bd
00000230: 0c8d 493e 3e10 0bbe 193f 403d a3c5 66bd
00000240: 4e88 29be 13b5 8c3d 91a5 39bd ca06 533e
00000250: f9c5 93bc 1e23 18bd 6ff2 b93c 5f63 063e
00000260: fb51 3f3e ee35 09be 44b8 71bd 6fea 93be
00000270: 2166 3abe 8cbc 78bd 49d9 80bd f745 2cbe
00000280: 1b6a 423e d884 623c 3d7c 77be 97ec 16be
00000290: 4ed4 e33b 7ccc e8bc 84c3 833d f6bd 263e
000002a0: 7779 25be 3db7 58bd ae2b 9f3d ff79 3bbd
000002b0: 0026 41be 5455 5cbe 5344 503d e5d9 febd
000002c0: 4375 63bd 12fb 903e bc53 64be 7678 44be
000002d0: 2de8 553e 69dd 6abe e7bd bebc 9541 3b3e
000002e0: 0f14 48bd ad20 0cbe e716 18be 714b ebbd
000002f0: 6548 3f3e 9136 3abe a2c2 35be d6fe cfbd
00000300: 2422 7f3e 3420 5ebd 355f cf3d 9ca6 dabd
00000310: 0648 0abb 8625 9abc bbe1 4e3c 04c8 6bbd
00000320: 77cd 103e 57e1 d3bd a05c 97bd deea 50be
00000330: 3a3f 853d a7c7 003e 282b fbbd 1af5 b8bd
00000340: eedf 13be 7737 46bd f6bf adbd 84d1 1abe
00000350: 150d 153e 5138 693c c607 32be f870 0fbe
00000360: cd9a 563e f217 3ebe a334 8dbe 3407 bc3c
00000370: ecb3 853e edf4 893d dbf1 393c d7e0 8ebe
00000380: eee8 313e efc5 eb3d c208 b83c 047b 6fbd
00000390: ba55 24be 3e45 cc3d 3d71 80bd ace4 07be
000003a0: 5b2a dbbc 285c 1abe f739 a73d 9c07 343d
000003b0: e294 86bc 2971 5cbd 04f4 ab3d aea2 1c3e
000003c0: 82e8 413d 37bc 20be 3d43 503d a515 87be
000003d0: fbf4 62be 840d 123e 6f24 163e 1da2 823d
000003e0: d409 8d3d 1094 0ebc 1ea0 1cbe 3f90 1dbe
000003f0: 43d6 cdbd f7c3 89be e682 e73c b791 ff3d
