BirdNet_Trained_Model/trained_model_classifiers/Custom_Classifier6.tflite (tflite, 111776 bytes, 2 tensors)

sequential/dense/BiasAdd/ReadVariableOp f4 [27]
0	0xbc675f70	-0.014121875
1	0xb987488e	-0.00025803264
2	0xbccdace3	-0.025106853
3	0xbc88a641	-0.016680839
4	0xbd056675	-0.032568414
5	0xbca343ae	-0.019929733
6	0xbcf0f7d1	-0.029415043
7	0xbce09a3e	-0.027417298
8	0xbcd5a25b	-0.026078394
9	0xbba56ba1	-0.0050482308
10	0xbcc441c8	-0.023957148
11	0xbcbfe9b7	-0.023426874
12	0xbd0033d7	-0.03129944
13	0xbd00bc5f	-0.031429645
14	0xbc8cd676	-0.017192107
15	0xbc35186e	-0.011053188
16	0xbc527988	-0.012846358
17	0xbc87883a	-0.01654445
18	0xbcd091f8	-0.025460228
19	0xbcdacb26	-0.026708197
20	0xbc9d38e8	-0.019192174
21	0xbd105df2	-0.035245843
22	0xbd092719	-0.033484552
23	0xbd0a454b	-0.03375749
24	0xbc49439e	-0.012284188
25	0xbc9ba8e2	-0.019001428
26	0xbcc3637b	-0.023851147

sequential/dense/MatMul f4 [27, 1024]
0	0xbd90eefe	-0.07076834
1	0x3cb1bb20	0.021695673
2	0xba998e90	-0.001171546
3	0xbd8604d9	-0.06543893
4	0xbdc7867d	-0.097424485
5	0xbd6e4d56	-0.058179222
6	0x3d45adc4	0.04826142
7	0xbe6bff60	-0.23046637
8	0x3d10e7c6	0.035377286
9	0x3d7403d0	0.05957395
10	0x3d1b6650	0.03793937
11	0xbebca8b0	-0.36847448
12	0xb78b30e8	-1.6592865e-05
13	0x3d549915	0.051903803
14	0xbdad8c6a	-0.084740475
15	0x3e18ead9	0.14933337
16	0xbe0ba1fe	-0.13636014
17	0xbdf113bf	-0.117713444
18	0xbd18dc0c	-0.037319228
19	0xbc8a8061	-0.016906919
20	0x3e011403	0.1260529
21	0x3dbed3d9	0.093177505
22	0x3d8de4dd	0.06928418
23	0xbd6ab215	-0.05729874
24	0xbd80066f	-0.06251227
25	0x3bb11af3	0.005404824
26	0xbbea8aa4	-0.0071576405
27	0x3db480bd	0.088136174
28	0x3e3975ce	0.18111345
29	0xbd14eb0b	-0.036356967
30	0x3c5c841c	0.013459232
31	0x3df47500	0.119363785
32	0x3db527fd	0.08845518
33	0xbd12ab0a	-0.035807647
34	0xbdcf60f6	-0.10125916
35	0x3d0fd501	0.035115246
36	0xbdeb2309	-0.11481292
37	0x3e0d4d1d	0.13798948
38	0xbdee25dd	-0.116283156
39	0x3e1cd708	0.15316403
40	0xbc8a1974	-0.01685784
41	0x3d8c5290	0.06851685
42	0xbedf6080	-0.4362831
43	0xbeb84a38	-0.35994124
44	0xbd995523	-0.07486942
45	0xbe8fcb92	-0.28085
46	0x3d466d19	0.048443887
47	0x3e1ab3ac	0.15107602
48	0xbed6f6ed	-0.41985264
49	0x3d0a25f0	0.033727586
50	0x3d834a34	0.064106375
51	0x3d995ed5	0.07488791
52	0xbeb4922e	-0.35267776
53	0xbd03058e	-0.03198772
54	0x3e311b83	0.17295651
55	0x3d97e1e8	0.07416135
56	0x3a0d6c48	0.00053948583
57	0xbc720591	-0.014771835
58	0x3d0322d5	0.03201564
59	0xbe31893a	-0.17337504
60	0x3e0d269a	0.13784257
61	0xbd1e3704	-0.038626686
62	0xbc8932b1	-0.016747804
63	0x3d95a389	0.073065825
64	0xbde9dc38	-0.114189565
65	0xbd8f23ce	-0.06989251
66	0x3db540cf	0.08850252
67	0x3d9cca08	0.07655722
68	0xbe85c727	-0.26128504
69	0xbd938a46	-0.07204108
70	0xbd1e62eb	-0.038668554
71	0x3c6e8ac1	0.014559449
72	0xbe17fa86	-0.14841661
73	0x3d90f9ea	0.07078917
74	0x3c7ec848	0.01555068
75	0x3e007d54	0.12547809
76	0xbec0a8f7	-0.3762891
77	0x3c9c928e	0.019112851
78	0x3d16c591	0.036809508
79	0x3d66cc3d	0.05634712
80	0xbeda1b07	-0.42598745
81	0xbcd897bd	-0.026439542
82	0xbe7cda14	-0.24692565
83	0xbd1bf170	-0.03807205
84	0x3e83a61b	0.25712666
85	0xbde6c98c	-0.11268911
86	0xbcc30ccb	-0.023809811
87	0xbc5c34b7	-0.013440303
88	0x3e58bfca	0.21166912
89	0x3d01ae27	0.031660225
90	0xbe1e4c7d	-0.15458865
91	0xbeb17626	-0.34660453
92	0xbcfe626b	-0.031052789
93	0x3d649fdc	0.055816516
94	0x3c0fc8a0	0.00877586
95	0x3dfe4a6a	0.12416537
96	0x3d9e7985	0.07738022
97	0x3d9142ae	0.07092796
98	0xbe0f9517	-0.14021717
99	0xbb711a4c	-0.0036789356
100	0xbd58f675	-0.052969415
101	0xbe83e993	-0.2576414
102	0xbba871b0	-0.0051405057
103	0xbdf6de04	-0.12054065
104	0xbdae0746	-0.08497481
105	0x3d325c91	0.04354531
106	0xbe0f2198	-0.13977659
107	0xbd7da017	-0.06192025
108	0x3c7a73c1	0.015286387
109	0xbdad1c34	-0.08452645
110	0xbe2fdb37	-0.17173468
111	0xbdd35f6f	-0.10320937
112	0xbe0725c0	-0.13197994
113	0xbbc60ddf	-0.006044134
114	0x3df31320	0.11868882
115	0xbed3d1ec	-0.41371095
116	0xbde0d62a	-0.109783486
117	0x3d0f3a8d	0.034967948
118	0xbdbcc4f8	-0.09217256
119	0x3d5bfff3	0.05371089
120	0x3d2f7957	0.042840328
121	0xbdce47d6	-0.10072295
122	0xbddbcc9b	-0.10732385
123	0xbd26a6f1	-0.04068655
124	0xbed6cac1	-0.41951564
125	0xbd743bf5	-0.059627492
126	0x3e60754c	0.21919745
127	0x3e3075cc	0.17232436
128	0xbe7a97d1	-0.24471976
129	0x3e32043d	0.1738443
130	0x3e2a5c45	0.1663676
131	0xbeb3664f	-0.35038993
132	0x3deea036	0.116516516
133	0xbdf07deb	-0.11742767
134	0x3daa64fc	0.083200425
135	0xbcdaa4c3	-0.026689893
136	0xbdf64300	-0.12024498
137	0x3dc1d087	0.094636016
138	0xbe7ba6a2	-0.24575284
139	0xbcca74a3	-0.02471382
140	0x3dd9b4ca	0.10630186
141	0xbddd5556	-0.10807292
142	0xbe9c0b2a	-0.30477268
143	0xbebe3dc2	-0.37156492
144	0x3b73c873	0.0037198334
145	0xbdda573c	-0.1066117
146	0xbe976c8a	-0.29574996
147	0xbd5bec20	-0.053691983
148	0xbd652d81	-0.0559516
149	0x3db38b19	0.08766765
150	0x3da810ff	0.08206367
151	0x3e5868a3	0.21133666
152	0x3e1e8207	0.15479289
153	0x3afc984d	0.0019271463
154	0x3d835f2c	0.06414637
155	0xbd2dc9e7	-0.042428877
156	0xbe034aea	-0.12821546
157	0xbe342103	-0.17590718
158	0xbd082260	-0.033235908
159	0x3c4c223d	0.012459335
160	0xbe852fcc	-0.2601303
161	0xbe5562bd	-0.20838447
162	0xbe3aac90	-0.1822989
163	0xbedcd2c5	-0.43129554
164	0x3e24efdd	0.16107126
165	0xbd4cce67	-0.050001528
166	0xbbcb5330	-0.006204985
167	0x3ccb54f6	0.024820786
168	0xbd80063e	-0.062511906
169	0x3dcd1f81	0.100157745
170	0xbe09fbfd	-0.13475032
171	0xbe7dee2c	-0.24797887
172	0x3e4f02c8	0.20215905
173	0x3d4472ee	0.047961168
174	0x3c53b76c	0.012922149
175	0x3d912062	0.07086255
176	0xbd860165	-0.06543235
177	0xbe30c12e	-0.17261192
178	0xbe013897	-0.12619244
179	0xbdfafefb	-0.12255665
180	0xbdb34f0a	-0.0875531
181	0xbd235225	-0.03987326
182	0x3e2d2ce4	0.16911656
183	0xbda7a4ad	-0.08185706
184	0x3d868460	0.06568217
185	0x3e24a6ac	0.16079205
186	0xbd9637ad	-0.07334838
187	0x3d9a0152	0.07519783
188	0xbe0e8622	-0.13918355
189	0x3e0a29aa	0.13492456
190	0xbe8e02cb	-0.27736506
191	0x3e653e9c	0.22387165
192	0xbad58462	-0.0016290064
193	0x3db1800e	0.086670026
194	0x3e48a9c2	0.19596007
195	0x3e5b6915	0.21426804
196	0x3d1c22d9	0.03811917
197	0xbe5e7865	-0.21725614
198	0xbe7d2c7a	-0.24723998
199	0xbe1a41f8	-0.15064228
200	0x3bfe42d8	0.0077594332
201	0x3bd95088	0.0066319145
202	0xbded34ce	-0.11582337
203	0x3c1213b2	0.008915829
204	0x3ea57a0e	0.32319683
205	0xbd5838b3	-0.052788448
206	0xbd16d834	-0.03682728
207	0xbc7d2f40	-0.01545316
208	0xbdc3fde5	-0.09569911
209	0x3ce4c5ba	0.027926315
210	0x3cc3367c	0.023829691
211	0x3dcb35e1	0.09922386
212	0xbe949468	-0.29019475
213	0x3df214dd	0.118203856
214	0x3d9ff741	0.07810832
215	0xbe5ddf3c	-0.21667188
216	0xbd8f25c4	-0.06989625
217	0xbe6a232c	-0.2286498
218	0x3daed2a9	0.08536274
219	0xbbb60ddd	-0.005555852
220	0xbe576986	-0.21036348
221	0x39bb6a33	0.00035746544
222	0xbdd03583	-0.101664566
223	0x3cc30112	0.023804221
224	0x3d6ce98e	0.057839923
225	0x3aa8fdb9	0.0012892998
226	0xbcafb753	-0.02144972
227	0x3bdc87f3	0.0067300736
228	0x3df30c55	0.118675865
229	0x3db876fe	0.09007071
230	0xbe092c94	-0.13395911
231	0x3e28843e	0.16456696
232	0xbe0eec44	-0.13957316
233	0xbd853d7b	-0.06505867
234	0xbbc083c5	-0.005875083
235	0x3cc3a74c	0.023883484
236	0xbcc138e7	-0.023586703
237	0x3ce1de0c	0.0275717
238	0xbe36fe72	-0.178705
239	0x3e64a0f4	0.22327024
240	0x3c91849a	0.017763425
241	0x3de21494	0.11039081
242	0x3cde10ae	0.027107563
243	0xbc4f8c7d	-0.012667772
244	0xbd9b1f45	-0.075743236
245	0xbccf0eb7	-0.025275571
246	0xbd7342fc	-0.059390053
247	0x3d69298f	0.0569244
248	0xbe747dbf	-0.23876093
249	0x3dcababd	0.09898899
250	0x3d26214e	0.040559106
251	0xbca80679	-0.020510899
252	0xbf000399	-0.5000549
253	0xbda4deaa	-0.08050282
254	0xbd3d86a6	-0.04627099
255	0x3daab671	0.08335579
