BirdNet_Trained_Model/trained_model_classifiers/Custom_Classifier15.tflite (tflite, 595344 bytes, 14 tensors)

sequential/dense_1/MatMul;sequential/dense_1/Relu;sequential/dense_1/BiasAdd f4 [96]
-2.0446002 1.0857174 -0.69851553 0.78845567 -0.7030803 2.6633313 2.0957599 1.512379
-3.2393224 1.8546474 -0.3796916 2.0011115 2.750234 -1.8806158 -0.84486943 -1.3805069
0.09474275 2.0735226 -3.1297529 0.39446706 -2.772744 -1.4221636 0.93852925 0.40023634
-1.2655617 1.226807 -0.90071446 -3.3357625 -0.5672486 -1.6721951 2.9916835 2.6213045
0.39885354 -0.92074525 -0.30054444 1.5814863 -0.114420444 -1.1620133 -1.1221086 1.6901722
0.5067811 -0.19193125 -0.666593 -0.75465274 -3.2618954 -0.8229957 -2.2207196 -2.051648
0.7230408 -0.6099941 -3.0199304 0.6893738 0.5630572 2.4562316 0.999623 -0.96376824
0.34836078 0.17688015 -3.2582378 0.43249884 -2.4524693 1.872568 0.88366485 -0.4392975
1.9280187 -1.1763021 -0.93443555 -1.6395757 1.3396544 -0.58633316 0.08537023 2.8609214
-3.0718122 -0.93122387 -0.97154576 1.5164589 1.4883416 0.56833184 -2.7710197 2.8407896
-1.5694479 1.2626296 -1.7686241 1.6341146 1.3018215 -1.6760561 -0.7277437 0.49073687
-0.23905934 -1.4448825 1.366768 2.2465515 0.62610275 0.9544201 -0.46617728 -0.334827
00000000: bbda 02c0 caf8 8a3f ead1 32bf 3bd8 493f
00000010: 12fd 33bf 0574 2a40 ee20 0640 a395 c13f
00000020: 0f51 4fc0 1665 ed3f f066 c2be 3612 0040
00000030: d503 3040 05b8 f0bf 5d49 58bf 73b4 b0bf
00000040: 7d08 c23d 98b4 0440 df4d 48c0 96f7 c93e
00000050: a374 31c0 7509 b6bf 7443 703f c7eb cc3e
00000060: edfd a1bf 0308 9d3f 3995 66bf 227d 55c0
00000070: 3437 11bf 7d0a d6bf be77 3f40 74c3 2740
00000080: 8836 cc3e f6b5 6bbf f6e0 99be 256e ca3f
00000090: 4455 eabd dabc 94bf 41a1 8fbf 9057 d83f
000000a0: 68bc 013f a089 44be d7a5 2abf ec30 41bf
000000b0: e5c2 50c0 d9af 52bf 4520 0ec0 334e 03c0
000000c0: 3419 393f 9328 1cbf 8a46 41c0 cd7a 303f
000000d0: 8424 103f e632 1d40 4be7 7f3f 84b9 76bf
000000e0: 585c b23e 1220 353e f886 50c0 7d70 dd3e
000000f0: 42f5 1cc0 4fb0 ef3f dc37 623f 9aeb e0be
00000100: 51c9 f63f 1191 96bf 2b37 6fbf 9edd d1bf
00000110: cc79 ab3f ee19 16bf 96d6 ae3d 5619 3740
00000120: 9298 44c0 b064 6ebf 39b7 78bf 531b c23f
00000130: fa81 be3f 327e 113f 6358 31c0 7fcf 3540
00000140: abe3 c8bf d99d a13f 4662 e2bf ab2a d13f
00000150: 16a2 a63f 0289 d6bf 694d 3abf dd41 fb3e
00000160: f9cb 74be e9f1 b8bf 41f2 ae3f 80c7 0f40
00000170: 4548 203f e054 743f caae eebe 726e abbe

sequential/batch_normalization/batchnorm/mul_1;sequential/batch_normalization/batchnorm/add_1;sequential/dense_1/MatMul;sequential/dense_1/Relu;sequential/dense_1/BiasAdd f4 [96, 96]
0.21265748 0.08025282 0.074244276 -5.016158 -0.3845819 0.16882716 -0.07832674 2.5657413
0.08774422 4.6401973 0.26953778 -0.16265449 0.20132464 -0.86616415 0.009612968 0.09823394
-4.0743523 0.37303644 -0.07632874 -0.07094867 -0.027086772 0.14162832 0.004558083 0.21695377
-0.12013881 -5.1867456 0.18511347 0.081934415 -0.6643605 -5.2424626 0.26278007 1.8091518
0.18816394 2.4359305 0.11206818 4.982358 0.073552065 -0.35517505 3.2645452 -0.014058645
0.08256236 -0.2470976 -4.445494 0.22419192 -2.2623544 -0.076717444 -4.4934607 0.13898726
3.486126 0.58736014 0.08608189 0.25329283 0.123082615 0.7339905 0.4019435 0.081874155
0.029386664 -2.6849139 -3.4967132 0.2678151 -0.45558974 -0.066731185 -3.2256184 0.018175764
-2.6234946 -0.038401995 -4.39619 -0.21068303 4.4950113 -0.2772768 3.616449 -5.166708
-0.11310434 0.5478824 0.3449951 -0.16199706 -2.4671428 0.18323283 0.060950644 -4.077261
2.2317843 -4.4196444 3.9362264 0.19482476 -0.3211614 0.3423789 0.081848845 -3.3288963
-0.39120713 0.07652919 0.5350694 0.020571843 2.466205 -5.1056385 0.17868873 3.6540735
-0.5417669 0.018321894 -0.43928167 -4.0103383 0.04785005 -0.14103524 -0.04756175 4.725637
0.2868966 -4.2640934 -0.26569688 0.25500187 0.10396594 -3.226082 -0.13492498 0.016269613
-0.8260958 -0.044093076 0.14974715 0.053161055 -0.27293527 0.30523697 -1.4020854 0.006980951
0.23313853 5.663773 0.29542372 -0.2195228 3.593979 -3.0755281 -0.18352453 1.1292998
0.1417464 2.71237 0.112729445 1.6219923 -1.0472292 -0.08160919 -2.3752034 -0.28018838
0.1772991 -2.5245209 1.0296643 3.8811996 -1.1579051 0.025004469 -0.4786958 -0.22276878
4.2952933 -0.48630553 -2.7984705 -0.2958758 -0.27156195 0.42258537 -0.009249444 -0.22946087
0.134629 5.7138863 3.7469118 -0.25491104 -0.14669652 -0.10410785 -2.6151257 -0.039417915
-2.705355 -0.12877296 1.9362758 0.26567504 2.2669249 0.26411334 4.166076 2.3910427
-0.1991039 -0.08564869 0.1766767 -0.31440398 -5.7970943 -0.31299448 0.039652232 5.0570674
-0.6151604 -4.5556154 4.1007037 0.13721111 -0.22557147 0.15384945 -0.02900198 -4.542771
0.63868755 -0.028215902 -0.07494537 0.17650327 0.014114031 -3.8689704 0.23759502 5.777844
-0.15632558 0.26607528 0.02029034 5.393051 -0.0692812 0.15801431 0.12134359 -1.94221
0.23888077 -0.4794758 0.048682045 -0.15192197 -0.27461672 -5.146744 0.28361967 0.11969463
3.3279135 -0.08154554 -0.17678961 -0.07097079 -0.35636348 0.32050705 2.7706175 -0.2855275
0.029445508 -2.1715622 0.35338762 0.5343641 -1.326648 -1.3988264 0.20396078 -4.808004
-0.08666839 2.2007613 0.88329625 3.8340018 1.0211065 -0.07103698 -0.8518823 -0.08209151
-0.20208679 2.0537941 0.32530355 4.1608973 1.9683377 -0.13748524 -3.8748624 0.2058865
3.9340465 -0.08335057 1.4949045 -0.49525705 0.11028742 -0.38163167 -2.1171086 0.11659763
-0.11030007 -2.9271219 2.351468 -3.8823678 0.05390391 0.08806857 5.1850924 -0.23303495
00000000: e2c2 593e 975b a43d 620d 983d 5e84 a0c0
00000010: ebe7 c4be 07e1 2c3e c569 a0bd 1b35 2440
00000020: 3eb3 b33d 7f7c 9440 db00 8a3e e68e 26be
00000030: 0c28 4e3e efbc 5dbf b67f 1d3c e02e c93d
00000040: 1861 82c0 a2fe be3e 3e52 9cbd 894d 91bd
00000050: 14e5 ddbc 0407 113e f95b 953b 2129 5e3e
00000060: 560b f6bd d2f9 a5c0 638e 3d3e 3bcd a73d
00000070: 8813 2abf 41c2 a7c0 1c8b 863e 4992 e73f
00000080: 0cae 403e 49e6 1b40 0184 e53d 7a6f 9f40
00000090: 77a2 963d 81d9 b5be 4fee 5040 3b56 66bc
000000a0: 7416 a93d 2707 7dbe 7d41 8ec0 9192 653e
000000b0: 6aca 10c0 091e 9dbd 6eca 8fc0 ad52 0e3e
000000c0: b01c 5f40 3c5d 163f b44b b03d 99af 813e
000000d0: bd12 fc3d cde6 3b3f 8acb cd3e a3ad a73d
000000e0: 4dbc f03c a1d5 2bc0 26ca 5fc0 101f 893e
000000f0: 0f43 e9be 5caa 88bd 8870 4ec0 57e5 943c
00000100: 56e7 27c0 694b 1dbd 97ad 8cc0 4bbd 57be
00000110: 22d7 8f40 3af7 8dbe e773 6740 ac55 a5c0
00000120: 40a3 e7bd 0542 0c3f 33a3 b03e 8fe2 25be
00000130: abe5 1dc0 63a1 3b3e 62a7 793d ec78 82c0
00000140: 8ed5 0e40 ba6d 8dc0 22eb 7b40 2480 473e
00000150: 446f a4be 4a4c af3e 5ea0 a73d a30c 55c0
00000160: 4d4c c8be 56bb 9c3d 4ffa 083f 4886 a83c
00000170: 4dd6 1d40 6461 a3c0 2efa 363e 57dc 6940
00000180: 3cb1 0abf cc17 963c 87e9 e0be b154 80c0
00000190: 6afe 433d 8b6b 10be 1cd0 42bd 6b38 9740
000001a0: 1ce4 923e 7473 88c0 6c09 88be 9b8f 823e
000001b0: 18ec d43d 2178 4ec0 c629 0abe da47 853c
000001c0: 047b 53bf f19a 34bd 5157 193e 68bf 593d
000001d0: 2cbe 8bbe 0548 9c3e 8977 b3bf 76c0 e43b
000001e0: debb 6e3e a13d b540 c741 973e 96ca 60be
000001f0: c003 6640 74d5 44c0 dbed 3bbe e58c 903f
00000200: f825 113e 7897 2d40 b2de e63d 729d cf3f
00000210: 9b0b 86bf b822 a7bd 5503 18c0 da74 8fbe
00000220: e58d 353e c091 21c0 0acc 833f 9365 7840
00000230: 3c36 94bf 2cd6 cc3c 9e17 f5be 801d 64be
00000240: 0b73 8940 0afd f8be 241a 33c0 087d 97be
00000250: 2b0a 8bbe 1c5d d83e fb8a 17bc caf7 6abe
00000260: 2fdc 093e 28d8 b640 67cd 6f40 b383 82be
00000270: 9d37 16be 7f36 d5bd 385e 27c0 ae74 21bd
00000280: 8924 2dc0 0fdd 03be e3d7 f73f 8f06 883e
00000290: 4c15 1140 dd39 873e 7f50 8540 d806 1940
000002a0: e5e1 4bbe 9568 afbd bdea 343e 8ff9 a0be
000002b0: cc81 b9c0 d040 a0be 616a 223d 7fd3 a140
000002c0: 277b 1dbf 9ac7 91c0 f738 8340 1281 0c3e
000002d0: 35fc 66be b68a 1d3e 8f95 edbc 615e 91c0
000002e0: 0781 233f 0925 e7bc f57c 99bd 46bd 343e
000002f0: 893e 673c 369d 77c0 1c4c 733e 19e4 b840
00000300: d013 20be 053b 883e ed37 a63c e093 ac40
00000310: 4de3 8dbd 81ce 213e fd82 f83d 569a f8bf
00000320: 299d 743e da7d f5be d366 473d 6f91 1bbe
00000330: 909a 8cbe 20b2 a4c0 9936 913e 7522 f53d
00000340: 89fc 5440 5901 a7bd 5608 35be 2259 91bd
00000350: 4675 b6be 8019 a43e cc51 3140 a930 92be
00000360: b537 f13c e0fa 0ac0 39ef b43e 16cc 083f
00000370: 9acf a9bf be0c b3bf 18db 503e 2bdb 99c0
00000380: 327f b1bd 46d9 0c40 b41f 623f 4960 7540
00000390: 9eb3 823f d67b 91bd f514 5abf 981f a8bd
000003a0: d7ef 4ebe 5d71 0340 308e a63e 1226 8540
000003b0: 7df2 fb3f eec8 0cbe bffd 77c0 e9d3 523e
000003c0: 6bc7 7b40 b4b3 aabd 0859 bf3f 5592 fdbe
000003d0: 5fde e13d 3a65 c3be b57e 07c0 bdca ee3d
000003e0: 01e5 e1bd f755 3bc0 747e 1640 b778 78c0
000003f0: 59ca 5c3d 4b5d b43d 47ec a540 b7a0 6ebe

sequential/dense_2/MatMul;sequential/dense_2/Relu;sequential/dense_2/BiasAdd f4 [96]
0.9972661 0.12096042 -0.12628883 0.3223885 0.6075847 -0.43468454 -0.50850993 -0.32850996
-0.1264603 -0.18296549 0.33572742 0.23963515 -0.019419894 -0.31901076 0.12490044 -0.2078197
0.47985917 0.52633727 0.71674895 -0.041866433 -0.9983638 0.32945365 -0.66110146 -0.5464411
-0.47208598 0.22227633 0.50662774 -0.41932055 0.576445 0.08681903 -1.2399057 0.69762105
0.1024753 1.16022 -1.0224229 0.73634034 -0.12525469 0.5040549 0.81743366 0.5622621
-0.6928236 -0.46157798 0.18601866 -1.1535689 -0.4248726 0.75712943 0.20140313 -0.5029394
0.23654802 -0.047596842 0.11376077 0.6099369 0.13415089 -0.4929588 -0.21537597 0.06021638
1.0436877 -0.4569527 0.69256896 -0.32397816 0.13293351 -0.9048944 0.11627906 -1.2631205
0.24299635 0.28256607 -0.9023506 0.2463882 0.024586132 0.29746696 0.37494317 -0.14797075
-2.3554318 -0.564012 -0.23329882 -0.5280479 0.31553686 -0.17225704 -0.14643086 -0.75986654
0.027503189 0.58310854 0.14248638 0.44072247 -0.5073897 0.8081025 -0.08474908 -0.44692132
0.5530462 -1.0522453 -0.2073889 0.41671813 0.44555497 -0.11497372 0.19481537 -0.0009123994
00000000: d54c 7f3f 19ba f73d dc51 01be 1b10 a53e
00000010: ac8a 1b3f f98e debe b52d 02bf 7532 a8be
00000020: cf7e 01be 4e5b 3bbe 77e4 ab3e eb62 753e
00000030: 7816 9fbc 6155 a3be cdcb ff3d b0ce 54be
00000040: 1ab0 f53e 0abe 063f dc7c 373f 237c 2bbd
00000050: c594 7fbf 26ae a83e f23d 29bf 90e3 0bbf
00000060: 41b5 f1be 689c 633e 5bb2 013f 2fb1 d6be
00000070: e691 133f 2dce b13d 3bb5 9ebf 4b97 323f
00000080: 92de d13d 1782 943f c1de 82bf cd80 3c3f
00000090: c442 00be be09 013f 5543 513f 69f0 0f3f
000000a0: e35c 31bf f353 ecbe ad7b 3e3e 25a8 93bf
000000b0: e788 d9be 3cd3 413f 9f3c 4e3e a3c0 00bf
000000c0: a539 723e e8f4 42bd 68fb e83d d324 1c3f
000000d0: da5e 093e 1965 fcbe 858b 5cbe 73a5 763d
000000e0: 8f97 853f b4f5 e9be 334c 313f 77e0 a5be
000000f0: b91f 083e 29a7 67bf b723 ee3d efad a1bf
00000100: 09d4 783e 80ac 903e 7300 67bf 304d 7c3e
00000110: db68 c93c 974d 983e 8df8 bf3e a585 17be
00000120: 65bf 16c0 1763 10bf e3e5 6ebe 262e 07bf
00000130: 0c8e a13e 2664 30be f9f1 15be 9d86 42bf
00000140: 5e4e e13c 9a46 153f f3e7 113e 60a6 e13e
00000150: 4be4 01bf cedf 4e3f ed90 adbd dfd2 e4be
00000160: 7094 0d3f f9af 86bf c15d 54be 145c d53e
00000170: c81f e43e 5777 ebbd ae7d 473e 162e 6fba

sequential/batch_normalization_1/batchnorm/mul_1;sequential/batch_normalization_1/batchnorm/add_1;sequential/dense_2/MatMul;sequential/dense_2/Relu;sequential/dense_2/BiasAdd f4 [96, 96]
0.22214256 0.34934762 -0.025199248 -0.03389929 -0.10175653 0.058562633 -0.26302543 0.10836158
-0.12594268 -0.17560618 -0.02958974 -0.040841904 -0.08313482 -0.14618075 -0.18716317 0.049264986
-0.31748495 -0.07837006 -0.20022751 0.10050128 0.095379986 -0.14604875 -0.033654455 0.16938254
-0.11959376 -0.07410428 -0.107147805 -0.20235112 0.1749531 0.1486752 0.052533813 -0.12558998
-0.056830723 -0.33040884 -0.16153383 -0.10432684 -0.0073631257 0.034061536 -0.020739567 0.10871376
-0.3369566 -0.12118646 0.45442504 -0.07155079 0.07427925 -0.07059377 0.0078025497 0.09692099
0.20221888 0.2923927 -0.17269284 -0.23277721 -0.17730126 -0.10160035 -0.011908352 0.32180193
-0.16541143 0.31273994 0.30486608 0.039145112 -0.30330265 -0.28912914 0.04857155 -0.15281513
0.06499955 0.19722585 -0.15688182 0.20686036 0.23369099 0.12103802 -0.2253226 0.18445396
-0.2058557 -0.03483048 0.07067319 -0.015274305 -0.20894517 0.026751107 0.12248767 0.19139054
-0.113804005 0.061762746 -0.42175245 0.029206704 -0.22369497 0.0025263336 0.07258064 0.12533529
-0.3270083 -0.017793983 -0.1747109 -0.27930212 -0.22535564 0.05769193 0.048415348 0.2605204
-0.18924835 -0.06967742 0.30308023 0.031355206 0.009281561 0.010419287 -0.10167714 -0.0044906917
0.27803248 -0.10652647 -0.23352113 -0.13055405 0.2440133 -0.23310685 0.10015625 -0.29245
-0.18146116 0.24405295 -0.12289217 -0.03112836 0.31323123 0.4196594 0.026685545 0.12443882
-0.04097534 -0.1723421 0.27972135 -0.32033917 -0.13321504 -0.23376074 0.10636104 0.2551724
0.2305062 0.24115437 -0.051244456 0.08929399 0.31568873 -0.0873949 -0.25064567 -0.0076396572
-0.20765519 -0.070150614 0.2259854 -0.120016366 -0.18567033 0.13756096 -0.28499788 0.24785265
-0.023652876 -0.18964168 -0.067756474 0.28972563 -0.2942357 0.33943045 0.18481939 -0.35472757
-0.23482862 0.24436255 -0.04780866 -0.028933192 0.26978245 -0.13559084 -0.21692355 -0.10013434
0.23483996 -0.20937301 -0.20096645 0.10048373 0.10820581 0.01415497 0.053392336 0.18651363
0.18872783 -0.028583882 0.20090061 -0.024937976 -0.12583749 -0.32852373 -0.028982686 -0.11622699
0.07329101 0.058423888 -0.26277238 -0.10569359 0.2422165 -0.036007233 -0.18524413 -0.105525516
0.20235367 -0.20587593 -0.10164502 -0.16711123 -0.15322657 -0.32813865 0.3302529 0.21965519
-0.30554235 0.14861782 -0.09904371 0.22809757 -0.21492241 -0.1853036 -0.20278792 0.00488875
0.19021304 -0.10805131 0.15906903 -0.1676179 0.060734905 0.24974507 0.2095439 -0.02180016
-0.081545934 -0.12739874 -0.32105947 -0.15341352 0.051412188 0.107177645 -0.305764 -0.19054623
-0.25072277 0.12336966 -0.24848086 -0.13587268 0.16069552 0.06516351 0.053156458 0.065203406
0.2722459 -0.2939843 -0.19474974 0.18126868 -0.24284638 -0.02920145 -0.037517574 -0.034962934
0.31766257 0.07268607 -0.08808194 0.19341269 0.09076123 0.33351153 -0.014842732 0.27373984
0.08044388 0.095864825 -0.2282176 0.17730205 0.24453919 0.012110641 0.07609627 -0.369259
0.018534174 -0.077631965 0.24710032 0.007816647 0.21749482 0.14524795 -0.29664782 0.2613827
00000000: 5779 633e b1dd b23e a76e cebc fbd9 0abd
00000010: ba65 d0bd 5fdf 6f3d 45ab 86be adec dd3d
00000020: 1ef7 00be 1bd2 33be 2f66 f2bc d749 27bd
00000030: 9742 aabd 68b0 15be b4a7 3fbe 15ca 493d
00000040: 638d a2be 7b80 a0bd 7108 4dbe 9dd3 cd3d
00000050: 9556 c33d ce8d 15be 41d9 09bd 9e72 2d3e
00000060: 93ed f4bd fcc3 97bd 4f70 dbbd 2235 4fbe
00000070: e826 333e 503e 183e b22d 573d a99a 00be
00000080: 55c7 68bd 592b a9be 2069 25be 4fa9 d5bd
00000090: 6046 f1bb 1c84 0b3d 06e6 a9bc 52a5 de3d
000000a0: 9385 acbe 9b30 f8bd 66aa e83e 3889 92bd
000000b0: b81f 983d 7793 90bd 88ac ff3b 837e c63d
000000c0: 7712 4f3e 7fb4 953e 64d6 30be 265d 6ebe
000000d0: 768e 35be d813 d0bd 401b 43bc 39c3 a43e
000000e0: 9d61 29be 731f a03e 6817 9c3e a056 203d
000000f0: 7c4a 9bbe bc08 94be f6f2 463d 927b 1cbe
00000100: 7c1e 853d 93f5 493e a1a5 20be 34d3 533e
00000110: b14c 6f3e c8e2 f73d f8ba 66be 80e1 3c3e
00000120: d6cb 52be 68aa 0ebd 1bbd 903d 1441 7abc
00000130: b9f5 55be 2325 db3c d1da fa3d e2fb 433e
00000140: 1312 e9bd effa 7c3d f0ef d7be e642 ef3c
00000150: 4b10 65be d890 253b 29a5 943d e557 003e
00000160: a26d a7be b0c4 91bc 6ae7 32be b000 8fbe
00000170: a1c3 66be 604e 6c3d 2c4f 463d ee62 853e
00000180: 52ca 41be 09b3 8ebd 552d 9b3e 516e 003d
00000190: b011 183c a8b5 2a3c 1b3c d0bd a726 93bb
000001a0: 465a 8e3e 8d2a dabd 2a20 6fbe f6af 05be
000001b0: 9fde 793e 90b3 6ebe b81e cd3d 02bc 95be
000001c0: f4d0 39be 04e9 793e e4ae fbbd e700 ffbc
000001d0: d85f a03e 99dd d63e a59b da3c c8d9 fe3d
000001e0: c2d5 27bd 737a 30be a337 8f3e 7f03 a4be
000001f0: 8669 08be fa5e 6fbe d1d3 d93d f5a5 823e
00000200: d109 6c3e 2cf1 763e b5e5 51bd c4df b63d
00000210: f4a1 a13e 19fc b2bd a154 80be 1756 fabb
00000220: 90a3 54be 20ab 8fbd b768 673e 24cb f5bd
00000230: 5d20 3ebe c8dc 0c3e 3eeb 91be 16cd 7d3e
00000240: adc3 c1bc 6e31 42be e8c3 8abd eb56 943e
00000250: 10a6 96be d4c9 ad3e 4b41 3d3e da9e b5be
00000260: ea76 70be 2d3a 7a3e 03d3 43bd 4d05 edbc
00000270: ed20 8a3e 53d8 0abe 3521 5ebe 3c13 cdbd
00000280: e379 703e e165 56be 26ca 4dbe 6aca cd3d
00000290: 029b dd3d 3fea 673c ecb1 5a3d 6efd 3e3e
000002a0: de41 413e bf28 eabc e4b8 4d3e ba4a ccbc
000002b0: 8bdb 00be 4334 a8be 196d edbc 6b08 eebd
000002c0: 9919 963d e34d 6f3d 1a8a 86be e275 d8bd
000002d0: 9a07 783e 527c 13bd a3b0 3dbe c31d d8bd
000002e0: cd35 4f3e 24d1 52be 442b d0bd 351f 2bbe
000002f0: 6de7 1cbe ca01 a8be e816 a93e 4aed 603e
00000300: 0c70 9cbe 452f 183e 6ed7 cabd 6992 693e
00000310: 9f14 5cbe 3ac0 3dbe a3a7 4fbe cf31 a03b
00000320: 35c7 423e 014a ddbd fee2 223e 07a4 2bbe
00000330: 2ac5 783d 2cbd 7f3e ad92 563e 4096 b2bc
00000340: 8e01 a7bd d174 02be e861 a4be 6f18 1dbe
00000350: 9695 523d f47f db3d 198d 9cbe 8d1e 43be
00000360: bc5e 80be 3ba9 fc3d c471 7ebe 3522 0bbe
00000370: 5e8d 243e 7274 853d 96ba 593d 5d89 853d
00000380: d163 8b3e 1c85 96be 7a6c 47be 7f9e 393e
00000390: b9ac 78be e137 efbc 07ac 19bd 4b35 0fbd
000003a0: aba4 a23e 6fdc 943d 4e64 b4bd fa0d 463e
000003b0: 06e1 b93d 06c2 aa3e ee2e 73bc a127 8c3e
000003c0: c3bf a43d c754 c43d e0b1 69be ab8e 353e
000003d0: 7b68 7a3e b66b 463c 5cd8 9b3d 840f bdbe
000003e0: fbd4 973c 82fd 9ebd de07 7d3e 6511 003c
000003f0: f6b6 5e3e e1bb 143e 39e2 97be f4d3 853e

sequential/dense_3/MatMul;sequential/dense_3/Relu;sequential/dense_3/BiasAdd f4 [96]
-0.4573053 0.012011036 -0.45493472 0.09080383 -1.4860424 -0.41361362 0.5733434 -0.19686285
0.095993266 -1.4484042 -0.052462794 -0.20353924 0.29515606 0.1733572 0.6770226 -0.35411817
-1.1419797 -0.4802212 -0.8101722 0.12305273 -1.071802 -0.5864754 0.062348656 -0.9836676
-0.23777846 0.8471227 0.3299807 -0.3062869 0.49855337 0.44168735 0.035055853 0.59732425
-0.12741368 0.09050179 0.7724817 -0.0018580637 -0.66261405 -0.023759224 0.8428006 0.7837069
-0.09358979 -0.23774046 1.1315516 -0.167496 1.4711719 -1.1051263 0.8523127 0.13979772
1.3948697 -0.58118945 0.10711565 -0.3680317 0.8895056 -0.5555404 -1.2306167 -0.4916726
0.87381744 0.54121375 1.112459 0.25372377 0.21606211 0.32540882 0.11725291 -0.053000156
-0.014217815 -0.13330765 0.21189298 -0.27056238 0.03773498 -0.48999995 -0.57287747 0.059696447
-1.3504872 0.21718916 1.3112407 0.7237501 0.8226424 0.10052024 0.31733477 -0.47725224
0.7769087 -0.8534677 -1.2044173 0.08489964 0.391186 -0.49385488 -0.7884203 0.81939584
-0.44250372 -0.6559017 0.3576199 -0.014275803 0.4327144 -0.22781755 0.06332946 0.66415936
00000000: ec23 eabe f0c9 443c 34ed e8be 5cf7 b93d
00000010: a336 bebf 2ac5 d3be a2c6 123f 6a96 49be
00000020: 1e98 c43d 4f65 b9bf 3ae3 56bd 976c 50be
00000030: b21e 973e 8d84 313e 5a51 2d3f fa4e b5be
00000040: 642c 92bf 8edf f5be 7267 4fbf 1203 fc3d
00000050: cf30 89bf 4023 16bf 4e61 7f3d a4d1 7bbf
00000060: 327c 73be 09dd 583f 3bf3 a83e a3d1 9cbe
00000070: 6342 ff3e d824 e23e ba96 0f3d 3eea 183f
00000080: bb78 02be 0159 b93d 5cc1 453f 468a f3ba
00000090: 13a1 29bf b4a2 c2bc c8c1 573f 04a1 483f
000000a0: 01ac bfbd 3c72 73be afd6 903f 1284 2bbe
000000b0: 5c4f bc3f c774 8dbf 2a31 5a3f 2227 0f3e
000000c0: 178b b23f d5c8 14bf 735f db3d a76e bcbe
000000d0: a4b6 633f e537 0ebf d984 9dbf 83bc fbbe
000000e0: 80b2 5f3f fc8c 0a3f 0e65 8e3f 15e8 813e
000000f0: 633f 5d3e fc9b a63e 4b22 f03d b116 59bd
00000100: d7f1 68bc cd81 08be 79fa 583e 2787 8abe
00000110: ff8f 1a3d 46e1 fabe 19a8 12bf 4384 743d
00000120: c4dc acbf d666 5e3e bcd6 a73f b047 393f
00000130: b198 523f 8edd cd3d b479 a23e 685a f4be
00000140: 7de3 463f dc7c 5abf 592a 9abf dddf ad3d
00000150: 8849 c83e 8cda fcbe ead5 49bf edc3 513f
00000160: d98f e2be 2ce9 27bf f519 b73e 0fe5 69bc
00000170: be8c dd3e 0149 69be e0b2 813d 5906 2a3f

sequential/batch_normalization_2/batchnorm/mul_1;sequential/batch_normalization_2/batchnorm/add_1;sequential/dense_3/MatMul;sequential/dense_3/Relu;sequential/dense_3/BiasAdd f4 [96, 96]
-0.23745583 -0.12036162 0.24631122 0.13590312 -0.18839388 -0.15759498 -0.13844998 0.21966115
-0.08520734 0.081182174 0.09846498 0.085339844 -0.021063875 -0.15275972 0.23015529 -0.016833527
0.0736263 0.074260466 0.2666104 0.1624239 -0.18264945 0.039823107 -0.051456 0.08542213
0.026206948 -0.13414416 0.1842371 -0.046245173 0.09718113 0.10543463 0.074068286 -0.1662438
-0.011236005 -0.0099410005 0.007904319 -0.14011185 -0.0038288508 0.17005852 0.13982958 -0.19285436
0.011617752 -0.07284073 0.012692503 0.17976929 -0.010014188 0.22107945 0.035138667 0.08098708
0.17069328 0.18189166 -0.04413739 -0.15579452 0.010433952 0.13086437 -0.19000135 -0.21978146
-0.11998489 -0.15632592 -0.1000201 -0.2935389 -0.13575362 0.00945339 0.08768397 0.17823935
-0.14800923 0.16548178 0.11504509 0.0043272334 -0.0046360344 -0.15859573 0.16760145 -0.095639475
-0.06260647 -0.099997416 0.20718297 -0.14090887 0.13414325 0.0010717032 0.040082257 -0.083352596
0.08117082 0.22614212 0.15800352 0.17449084 0.124765925 0.05511824 0.15674292 -0.082282946
-0.05877276 0.10401595 -0.09745315 -0.02722935 -0.018634235 0.15700936 -0.10681269 0.1241279
0.27075636 -0.07389365 0.07157992 -0.114540376 0.17056888 0.23634453 -0.030427488 0.12845525
-0.14687477 -0.007396871 0.084886715 -0.21487944 -0.25515535 -0.028318726 0.11218519 -0.16119753
0.05043604 -0.16710928 0.20673484 0.17990409 0.18472482 0.054253783 -0.095143475 0.12437622
-0.18489835 0.06964855 -0.17264906 0.21217737 0.10126982 -0.18257535 0.0058998493 0.1112368
0.17477264 0.065459765 0.07905064 -0.09179304 0.16306832 0.17512536 -0.005508534 -0.05107504
-0.1435952 0.1815039 0.1553738 0.069203064 0.0518987 0.12396959 -0.1288921 -0.07069401
0.06359109 -0.043684408 0.0428189 -0.26646414 0.10700084 -0.12562211 -0.13633189 0.0073607247
-0.14524762 0.12400106 -0.08720555 -0.15202437 -0.06708042 0.068744004 0.11075197 0.17964153
-0.2150199 -0.21652949 0.07063831 -0.12024433 0.028409561 0.042142533 -0.1324164 0.17846051
-0.1282543 -0.18323165 -0.10500643 -0.15694341 0.14306198 0.19801766 0.1710481 -0.07298549
-0.05876054 -0.01054876 -0.13994935 -0.12082814 -0.086549185 0.050319906 0.2562574 0.06578523
-0.001977854 0.023383576 -0.1487549 -0.19067611 0.20600131 -0.13141194 -0.16929121 0.07321509
0.15929446 -0.046749286 -0.09358767 0.21823442 -0.097332805 0.22784962 -0.05638063 0.16872738
0.04582487 -0.04953342 0.21929994 -0.020618683 0.19884022 -0.11533575 0.24360064 0.15235928
0.036745947 -0.25016034 -0.122108154 0.072594985 0.10612464 0.14472978 0.06477761 -0.0020133918
0.14636002 -0.12569253 -0.058280673 -0.17582458 -0.09586101 -0.06094319 0.015461514 0.1360573
-0.20924887 0.06916827 0.17157668 0.019958094 0.15479156 0.01680221 -0.23441784 -0.16175693
-0.014151989 0.11984861 0.16535145 -0.25186297 -0.13131472 -0.014545057 0.089633726 -0.2082665
0.13046026 0.08276126 0.11845054 0.16953899 0.20875485 0.03817795 -0.13751811 -0.10542315
-0.053383753 -0.11179945 0.1709616 -0.109824084 -0.19048552 0.10515128 -0.12851405 0.11934453
00000000: 9f27 73be 2780 f6bd 0239 7c3e 302a 0b3e
00000010: 53ea 40be 9460 21be d5c5 0dbe daee 603e
00000020: 3081 aebd d742 a63d 02a8 c93d a8c6 ae3d
00000030: 268e acbc 0b6d 1cbe d4ad 6b3e 77e6 89bc
00000040: 63c9 963d df15 983d 2981 883e 7352 263e
00000050: 7508 3bbe 8e1d 233d 87c3 52bd ccf1 ae3d
00000060: f4af d63c 165d 09be a6a8 3c3e 946b 3dbd
00000070: e606 c73d 1cee d73d 1db1 973d d13b 2abe
00000080: 3917 38bc 94df 22bc 1e81 013c 7b79 0fbe
00000090: 75ed 7abb d223 2e3e 7c2f 0f3e 9d7b 45be
000000a0: 6258 3e3c 852d 95bd 37f4 4f3c 7115 383e
000000b0: 8c12 24bc a762 623e 90ed 0f3d 8edc a53d
000000c0: 38ca 2e3e cf41 3a3e 68c9 34bd 9988 1fbe
000000d0: 2bf3 2a3c 4f01 063e b78f 42be 640e 61be
000000e0: a3ba f5bd e713 20be 57d7 ccbd bb4a 96be
000000f0: ff02 0bbe 64e2 1a3c a793 b33d 6084 363e
00000100: bb8f 17be 0e74 293e c39c eb3d 77cb 8d3b
00000110: e0e9 97bb eb66 22be b79f 2b3e a1de c3bd
00000120: d237 80bd 72cb ccbd c627 543e 6a4a 10be
00000130: d95c 093e 6478 8c3a 4b2d 243d c4b4 aabd
00000140: e33c a63d cd91 673e adcb 213e baad 323e
00000150: 4785 ff3d aac3 613d 3781 203e f683 a8bd
00000160: b5bb 70bd 5006 d53d 8495 c7bd 1610 dfbc
00000170: d3a6 98bc 10c7 203e 9dc0 dabd c536 fe3d
00000180: 94a0 8a3e 8e55 97bd 7e98 923d 2594 eabd
00000190: 9ca9 2e3e 4d04 723e 1143 f9bc c689 033e
000001a0: 5766 16be 7461 f2bb 16d9 ad3d 5b09 5cbe
000001b0: b9a3 82be acfc e7bc 59c1 e53d f710 25be
000001c0: 0596 4e3d b21e 2bbe 4cb2 533e c738 383e
000001d0: 8128 3d3e 3739 5e3d 95da c2bd f6b8 fe3d
000001e0: fe55 3dbe e6a3 8e3d eaca 30be 0645 593e
000001f0: 8d66 cf3d 08f5 3abe 8653 c13b 1fd0 e33d
00000200: 99f7 323e c50f 863d 4de5 a13d fdfd bbbd
00000210: 62fb 263e 1054 333e ef80 b4bb 1034 51bd
00000220: 9f0a 13be 29dc 393e 4f1a 1f3e 56ba 8d3d
00000230: bb93 543d c5e3 fd3d 4afc 03be 05c8 90bd
00000240: 0c3c 823d 6cee 32bd df62 2f3d fd6d 88be
00000250: 4223 db3d 15a3 00be 969a 0bbe 3c32 f13b
00000260: cbbb 14be 45f4 fd3d d398 b2bd 47ac 1bbe
00000270: 7661 89bd a8c9 8c3d eed1 e23d f3f3 373e
00000280: 2d2e 5cbe e8b9 5dbe d1aa 903d a942 f6bd
00000290: 2bbb e83c a69d 2c3d 2a98 07be 5abe 363e
000002a0: 1855 03be 14a1 3bbe 9c0d d7bd c6b5 20be
000002b0: d77e 123e 24c5 4a3e 3c27 2f3e 6b79 95bd
000002c0: e4ae 70bd b5d4 2cbc e24e 0fbe be74 f7bd
000002d0: b340 b1bd 3f1c 4e3d 2c34 833e 68ba 863d
000002e0: e29e 01bb ea8e bf3c 3453 18be 9940 43be
000002f0: 02f2 523e da90 06be ad5a 2dbe cbf1 953d
00000300: 161e 233e 2e7c 3fbd e4aa bfbd d878 5f3e
00000310: 6c56 c7bd 6951 693e 60ef 66bd dfc6 2c3e
00000320: dcb2 3b3d 8ee3 4abd 2a90 603e 83e8 a8bc
00000330: c59c 4b3e 2635 ecbd 7272 793e 1204 1c3e
00000340: eb82 163d 0415 80be d713 fabd aeac 943d
00000350: e057 d93d 0b34 143e 20aa 843d 1cf3 03bb
00000360: 67df 153e 8bb5 00be b7b7 6ebd 5c0b 34be
00000370: c752 c4bd 919f 79bd 4a52 7d3c 9b52 0b3e
00000380: 5645 56be 18a8 8d3d ccb1 2f3e 287f a33c
00000390: ae81 1e3e caa4 893c 3b0b 70be 9ca3 25be
000003a0: bedd 67bc 3073 f53d e451 293e 2ff4 80be
000003b0: 5e77 06be 644e 6ebc e391 b73d d043 55be
000003c0: 6097 053e bc7e a93d 3296 f23d a19b 2d3e
000003d0: d5c3 553e 7b60 1c3d 8cd1 0cbe 18e8 d7bd
000003e0: eca8 5abd 1cf7 e4bd 8f10 2f3e 73eb e0bd
000003f0: a30e 43be 8e59 d73d 3099 03be e86a f43d

sequential/dense_4/MatMul;sequential/dense_4/Relu;sequential/dense_4/BiasAdd f4 [96]
0.38695878 0.7981237 -0.6902057 -0.5414152 0.15842701 0.7439093 0.3770173 -0.5464785
1.211817 0.47521126 0.7151094 -0.32237038 0.5522023 0.46401322 -0.75346285 0.8926592
0.012729918 -0.13591677 0.24799483 0.4432238 0.9909003 0.7679181 0.51327246 0.08769579
0.51365495 -1.2778246 -0.20109966 -0.38528928 -1.4158226 0.51236254 1.2803303 1.1928973
0.27990425 -0.12668142 0.23629749 1.1847169 -0.978677 0.48190883 0.38340664 -0.29995143
-0.29006264 -1.2001373 0.55721486 0.65639395 -0.31132624 0.02076079 0.38849747 1.6198738
0.22267005 0.12575255 -0.5642168 -0.30093268 -0.075994484 0.44027424 0.7303147 -0.32606515
0.86937803 0.72758496 0.33508778 1.7239196 -0.6947488 0.7769517 0.8624561 1.2108614
0.3757087 -0.33810604 1.5306841 1.5955756 -0.4423734 0.052211706 -0.55189633 -0.9596441
-0.100070976 -0.73077595 -0.01672557 -1.1908677 0.13794932 -0.1872775 0.91506004 -0.578389
-0.23448175 -0.5231418 1.2514658 -0.5916354 -0.62600917 -1.36611 -0.116476774 -0.5530348
1.1390209 -0.8259487 0.0032457504 0.6264769 1.226368 -0.34537014 -0.3936666 -1.0187423
00000000: 761f c63e d651 4c3f 52b1 30bf 309a 0abf
00000010: b13a 223e d770 3e3f 6908 c13e 04e6 0bbf
00000020: d21c 9b3f e44e f33e 6911 373f bb0d a5be
00000030: 215d 0d3f 2493 ed3e f1e2 40bf 5085 643f
00000040: 2591 503c c42d 0bbe 5bf2 7d3e 3bee e23e
00000050: a4ab 7d3f 4896 443f d365 033f da99 b33d
00000060: e47e 033f c28f a3bf 12ed 4dbe a344 c5be
00000070: ad39 b5bf 312a 033f dde1 a33f dcb0 983f
00000080: 9c4f 8f3e c6b8 01be f8f7 713e cea4 973f
00000090: 938a 7abf c1bc f63e e04d c43e 3c93 99be
000000a0: 1783 94be 199e 99bf a2a5 0e3f 6f09 283f
000000b0: 2766 9fbe 8812 aa3c 24e9 c63e 0658 cf3f
000000c0: 9e03 643e 47c5 003e 8370 10bf d913 9abe
000000d0: ffa2 9bbd a06b e13e e7f5 3a3f 03f2 a6be
000000e0: 8f8f 5e3f 0243 3a3f a090 ab3e 66a9 dc3f
000000f0: 0fdb 31bf 4ee6 463f ecc9 5c3f 82fd 9a3f
00000100: e45c c03e 3c1c adbe 75ed c33f d23b cc3f
00000110: c47e e2be f1db 553d 1449 0dbf 3cab 75bf
00000120: 03f2 ccbd 2214 3bbf 1004 89bc 5a6e 98bf
00000130: 9642 0d3e acc5 3fbe 6041 6a3f 4d11 14bf
00000140: fc1b 70be 9fec 05bf 0830 a03f 6b75 17bf
00000150: 2342 20bf b1dc aebf 608b eebd b093 0dbf
00000160: 70cb 913f 6071 53bf a8b6 543b ca60 203f
00000170: a0f9 9c3f 5bd4 b0be ab8e c9be 2666 82bf

sequential/batch_normalization_3/batchnorm/mul_1;sequential/batch_normalization_3/batchnorm/add_1;sequential/dense_4/MatMul;sequential/dense_4/Relu;sequential/dense_4/BiasAdd f4 [96, 96]
0.0056690597 0.1673174 -0.16346708 0.049323954 0.035871662 0.093154415 -0.14911392 -0.1559985
-0.06586859 0.14793605 -0.18241577 0.177981 -0.08945735 -0.1117128 -0.041773133 -0.120055586
0.15940237 0.1126533 0.16858217 0.05786511 -0.11498007 -0.071873166 -0.076615095 -0.2321949
0.071591474 -0.0062074796 0.039752383 0.10491692 -0.024072343 0.18578506 -0.07946322 0.19356993
-0.10366984 -0.1902517 -0.15922001 -0.08787835 0.09373848 -0.036123805 -0.14708866 -0.16509137
-0.009204706 0.074945986 -0.106244326 0.16786194 -0.03159533 0.05833114 -0.1886615 0.028284304
0.07466148 0.12235659 -0.100682996 -0.14802241 0.21438445 0.15846123 -0.14707664 0.23495923
0.13243327 -0.023712028 0.11303219 0.12615265 0.03168886 0.051222276 -0.05673818 0.13293889
-0.2339755 -0.065811954 -0.19513315 0.06658134 -0.0712479 0.15918513 0.2792507 -0.14152126
0.16382807 0.019744743 0.0052884384 -0.10615171 0.051046524 -0.09948511 -0.1863495 0.0029945725
-0.09686283 0.10289085 0.08471454 -0.039646383 0.035008196 0.16793542 0.019079003 0.027242139
-0.1054602 -0.018003827 -0.07561687 0.15888111 0.08643084 -0.21041054 0.036852393 -0.20425834
-0.08072573 0.24779847 0.14198466 -0.08508624 -0.14986207 0.17210156 0.20390859 -0.15261696
-0.14274772 0.17686127 0.11549008 0.13100055 -0.08942155 -0.18014297 0.053326886 -0.2406034
-0.027084364 0.012924376 -0.14023042 -0.067085706 0.056986924 -0.023667192 -0.11240305 -0.14410964
-0.1498539 -0.15119049 -0.06199485 -0.03166641 -0.025574215 -0.07996865 -0.006966817 -0.23452257
0.027349023 -0.20129669 -0.046403777 -0.13844824 0.079963826 0.117087506 -0.10653824 0.049758203
0.018772548 0.00022065268 -0.11271185 -0.044092204 0.18975201 -0.1290736 -0.11171107 -0.12764862
0.14108284 0.22550452 -0.06710538 0.061937623 0.09267577 -0.055284284 -0.09703915 0.0104837185
-0.098589726 0.12662023 -0.15519205 0.026935136 -0.08860177 -0.05600078 0.064978115 0.02623075
-0.080907315 0.05517172 -0.1475038 0.066211775 -0.12670822 0.021431334 -0.035662867 0.040125027
0.11777679 -0.025540063 -0.23762839 0.06079031 0.023848936 -0.16759571 0.100841716 0.10596973
0.1374734 -0.047059175 0.08765513 0.15256125 0.26271588 0.10087947 0.07797058 -0.09837708
-0.07438456 0.042399436 -0.011525757 -0.17533842 0.10680814 -0.036641944 -0.07697968 -0.021762982
0.011113948 -0.07924055 0.25181228 0.02248982 -0.108909525 -0.16968395 0.16569221 -0.109424606
0.018869821 0.11047572 0.07565864 -0.14046066 -0.15465827 0.05675367 0.22487482 -0.2173882
0.05086995 0.17928559 -0.07730718 0.2648857 0.14623907 -0.09675673 0.17708729 0.05979721
0.124883875 -0.085854664 -0.06543335 0.046080288 -0.07004223 0.1687192 0.2005565 -0.15773788
-0.17151111 0.14094901 0.042944834 0.06044459 0.04539366 0.08037506 -0.12743968 -0.20971912
-0.14637542 0.17910649 -0.06529052 0.15719503 0.085507326 0.13686666 0.18934612 -0.12755512
-0.1408658 -0.13304578 0.070244156 0.23360038 -0.22338654 0.21844621 0.025103077 0.017055368
0.074499294 -0.12700021 -0.1547543 0.02068883 0.12013714 0.17286809 0.10722334 -0.11861722
00000000: 85c3 b93b 4155 2b3e ea63 27be ea07 4a3d
00000010: 2aee 123d bec7 be3d 52b1 18be 12be 1fbe
00000020: 1ce6 86bd 8c7c 173e 33cb 3abe a740 363e
00000030: 6a35 b7bd aec9 e4bd 4e1a 2bbd b4df f5bd
00000040: 603a 233e c6b6 e63d cea0 2c3e f703 6d3d
00000050: ac7a ebbd 3d32 93bd 60e8 9cbd 80c4 6dbe
00000060: 8d9e 923d 1d68 cbbb 65d3 223d afde d63d
00000070: 5d33 c5bc 703e 3e3e 9dbd a2bd 3237 463e
00000080: da50 d4bd 57d1 42be 920a 23be 90f9 b3bd
00000090: f6f9 bf3d 8ef6 13bd 699e 16be b60d 29be
000000a0: 56cf 16bc 487d 993d a096 d9bd 00e4 2b3e
000000b0: 1b6a 01bd a2ec 6e3d 7b30 41be 7cb4 e73c
000000c0: 1ee8 983d 1896 fa3d e332 cebd 3093 17be
000000d0: 9987 5b3e a943 223e 429b 16be 2799 703e
000000e0: 969c 073e ba3f c2bc 6c7d e73d 292e 013e
000000f0: 2ecc 013d 73ce 513d 4b66 68bd 2221 083e
00000100: 4697 6fbe 6bc8 86bd fcd0 47be cc5b 883d
00000110: 6bea 91bd 6d01 233e f3f9 8e3e f3ea 10be
00000120: 8cc2 273e babf a13c a34a ad3b 1166 d9bd
00000130: 2916 513d d9be cbbd 67d2 3ebe 9740 443b
00000140: 0560 c6bd 70b8 d23d d17e ad3d 3f64 22bd
00000150: c164 0f3d 43f7 2b3e 924b 9c3c e82a df3c
00000160: 84fb d7bd c37c 93bc 04dd 9abd bbb1 223e
00000170: a702 b13d dc75 57be 89f2 163d 1929 51be
00000180: 8853 a5bd e2be 7d3e 6d64 113e b241 aebd
00000190: 7175 19be 643b 303e 6acd 503e 9f47 1cbe
000001a0: 752c 12be 1f1b 353e 1086 ec3d 0225 063e
000001b0: a522 b7bd 6677 38be 4b6d 5a3d bd60 76be
000001c0: 07e0 ddbc c3c0 533c 9098 0fbe 3b64 89bd
000001d0: 1f6b 693d b3e1 c1bc 9233 e6bd 7a91 13be
000001e0: 4d73 19be aed1 1abe 50ee 7dbd a3b4 01bd
000001f0: 0481 d1bc 9bc6 a3bd e649 e4bb af26 70be
00000200: 0f0b e03c b820 4ebe e311 3ebd 60c5 0dbe
00000210: 13c4 a33d 93cb ef3d b930 dabd 42cf 4b3d
00000220: e3c8 993c 015f 6739 78d5 e6bd 079a 34bd
00000230: 5a4e 423e df2b 04be c6c8 e4bd 52b6 02be
00000240: 0578 103e a8ea 663e 8c6e 89bd 4eb2 7d3d
00000250: cbcc bd3d c671 62bd 76bc c6bd e7c3 2b3c
00000260: 69e9 c9bd bca8 013e aaea 1ebe 13a7 dc3c
00000270: d874 b5bd 1361 65bd 3f13 853d dfe1 d63c
00000280: bcb2 a5bd befb 613d 3c0b 17be 0a9a 873d
00000290: cdbf 01be c490 af3c 3a13 12bd 245a 243d
000002a0: f534 f13d 6539 d1bc db54 73be 43ff 783d
000002b0: d85e c33c 369e 2bbe 1a86 ce3d a806 d93d
000002c0: d4c5 0c3e 1fc1 40bd 8884 b33d 0439 1c3e
000002d0: b282 863e e599 ce3d 0aaf 9f3d ec79 c9bd
000002e0: ef56 98bd 08ab 2d3d 87d6 3cbc ea8b 33be
000002f0: 3abe da3d dd15 16bd 86a7 9dbd 4848 b2bc
00000300: 4717 363c df48 a2bd 8aed 803e 923c b83c
00000310: f50b dfbd a1c1 2dbe 38ab 293e 021a e0bd
00000320: e294 9a3c 1841 e23d ebf2 9a3d ebd4 0fbe
00000330: bd5e 1ebe 8976 683d 9645 663e 039b 5ebe
00000340: 025d 503d a496 373e 3a53 9ebd 199f 873e
00000350: b2bf 153e 6428 c6bd 5f56 353e ebed 743d
00000360: 1ec3 ff3d 92d4 afbd ec01 86bd afbe 3c3d
00000370: 4d72 8fbd bac4 2c3e af5e 4d3e 0a86 21be
00000380: 9ca0 2fbe f054 103e ece6 2f3d bf94 773d
00000390: b4ee 393d ae9b a43d 8c7f 02be 9cc0 56be
000003a0: 70e3 15be b167 373e 09b7 85bd bcf7 203e
000003b0: 771e af3d c626 0c3e f3e3 413e cf9d 02be
000003c0: 203f 10be 273d 08be 2bdc 8f3d f034 6f3e
000003d0: 71bf 64be 5db0 5f3e f8a4 cd3c b3b7 8b3c
000003e0: 1693 983d 580c 02be e977 1ebe 9f7b a93c
000003f0: 760a f63d 5504 313e e997 db3d 96ed f2bd

sequential/dense_5/MatMul;sequential/dense_5/Relu;sequential/dense_5/BiasAdd f4 [96]
-0.44515783 -0.96326417 0.035059568 -1.2668891 -0.13641393 0.6903888 0.56991565 0.9805716
-0.6604314 -0.78300256 -0.66679645 0.34173262 0.0015597377 0.65834695 1.100295 0.73195046
-0.1517936 0.6997258 0.7100491 0.87297904 -0.96819484 0.3191396 1.6024473 1.0139999
-0.5242598 1.3762399 0.24518612 -0.6032332 -0.90455544 0.71336424 -0.15348838 -0.58842784
0.12182994 0.34121537 1.4842184 1.5439379 -1.199978 0.301442 -0.6003009 -0.6593916
-0.7049256 0.40083522 -0.39385626 -0.53595924 1.0343184 0.15423009 -0.7705917 -0.8012129
1.0021499 -0.09975966 -0.97246665 -0.015458136 -1.3190401 0.25963163 -0.4563387 -0.5079098
0.03850101 0.505383 1.0134542 0.025555799 1.2238419 -0.7158013 -1.3320462 0.46696356
-0.084576376 0.08251365 -0.56988674 -0.51891 -0.26302442 0.12848094 0.025728451 -0.16726255
-0.36591813 0.22637938 -0.76398295 0.5556993 -0.5430375 1.3957789 0.7759587 0.42273617
0.2919696 -0.365658 -0.14711697 -0.25320277 -0.12997282 -1.2878319 -1.0616269 -0.12292682
0.63332856 0.44861293 1.6334743 0.08825123 0.7867933 1.7741572 0.82003224 0.40637383
00000000: baeb e3be 7b98 76bf 9f9a 0f3d 6c29 a2bf
00000010: 18b0 0bbe 52bd 303f fee5 113f be06 7b3f
00000020: 0812 29bf db72 48bf 2cb3 2abf 94f7 ae3e
00000030: 1d70 cc3a 6d89 283f 77d6 8c3f 1b61 3b3f
00000040: c86f 1bbe 3b21 333f c7c5 353f 8e7b 5f3f
00000050: 9edb 77bf 4466 a33e fe1c cd3f c0ca 813f
00000060: e435 06bf a128 b03f 1212 7b3e 7e6d 1abf
00000070: f290 67bf 0a9f 363f 0f2c 1dbe 35a3 16bf
00000080: fa81 f93d c8b3 ae3e defa bd3f c29f c53f
00000090: e198 99bf 9b56 9a3e 52ad 19bf e3cd 28bf
000000a0: 0176 34bf 463a cd3e 87a7 c9be a034 09bf
000000b0: 8c64 843f 7eee 1d3e 7f45 45bf 4a1c 4dbf
000000c0: 7346 803f cb4e ccbd 93f3 78bf 1f44 7dbc
000000d0: 4ed6 a8bf 70ee 843e 3aa5 e9be 6006 02bf
000000e0: 3cb3 1d3d c860 013f deb8 813f 655a d13c
000000f0: daa6 9c3f c13e 37bf 7d80 aabf d915 ef3e
00000100: 6136 adbd ebfc a83d 19e4 11bf 49d7 04bf
00000110: 23ab 86be 8290 033e 79c4 d23c e046 2bbe
00000120: 9f59 bbbe ffcf 673e 6394 43bf 4f42 0e3f
00000130: 8104 0bbf e2a8 b23f 3ba5 463f e070 d83e
00000140: 0a7d 953e 8637 bbbe d5a5 16be cba3 81be
00000150: 9817 05be add7 a4bf 64e3 87bf 0ec1 fbbd
00000160: d221 223f 98b0 e53e b015 d13f 10bd b43d
00000170: 496b 493f 9517 e33f a2ed 513f 3b10 d03e

sequential/batch_normalization_4/batchnorm/mul_1;sequential/batch_normalization_4/batchnorm/add_1;sequential/dense_5/MatMul;sequential/dense_5/Relu;sequential/dense_5/BiasAdd f4 [96, 96]
-0.08582821 -0.06337249 -0.04899634 0.077865124 0.21432318 0.019130064 -0.007187783 -0.114369735
0.16969255 -0.0062694866 -0.11558544 0.045377024 -0.07807926 -0.11910628 -0.015016415 0.049637225
-0.18430902 0.01117248 0.12272003 0.1435261 -0.16103762 -0.09642377 -0.07011872 -0.11921238
0.12522088 0.0051661762 -0.09310059 0.17021213 0.19865464 -0.07634662 0.04138505 0.0351816
0.08677115 -0.05045618 0.10801809 -0.017306939 -0.06024142 -0.13560726 -0.13324651 0.17004587
0.24539357 -0.110863805 0.043601815 0.021538202 -0.19846538 -0.10547615 -0.16047065 -0.06152235
0.11781933 0.071308024 0.1375345 0.07316028 0.05551748 -0.12127425 -0.064982876 0.05665198
0.15636745 -0.15223743 0.08948188 -0.14681678 0.1913089 0.10244863 -0.1060721 0.10130061
-0.05765491 0.046565723 0.05438859 0.07774229 -0.13237019 0.009908578 -0.11523556 0.20052494
-0.026456684 0.10148134 0.019628562 -0.013562958 -0.12818454 -0.053616945 -0.07394616 0.19085138
0.11807312 0.060762078 0.1014869 0.20106538 0.24620776 0.011074005 0.038037132 -0.07871216
-0.09753478 -0.14203615 0.120482236 -0.008454768 -0.07237055 0.09009675 -0.06596909 0.19183345
0.15018903 0.19778569 0.080489375 -0.2066249 -0.04456423 0.110390626 -0.18498644 0.009216829
-0.049971346 0.01736715 -0.037657518 0.14512008 -0.11426702 0.15479393 -0.059658904 -0.06366635
-0.24613893 0.01652165 0.15031847 -0.2426421 0.014457515 0.06718528 0.16692606 0.11624766
0.10369265 0.04460868 0.05029015 -0.11088819 0.028756 -0.0017719198 0.09533125 -0.02056394
0.05983222 -0.063374616 -0.17756733 -0.1513308 -0.12776028 0.12205339 -0.024027083 0.0013910243
-0.20876159 0.02275958 -0.06658488 -0.097796686 -0.007011008 -0.07484454 0.016986981 -0.17751274
-0.051420476 0.21242079 0.050081026 -0.16020279 -0.019574465 0.062370013 0.073726386 -0.038841452
0.025124012 -0.11515585 0.1437899 0.02877715 -0.099217325 0.106824555 -0.0807491 0.030945418
0.018000398 0.0907305 0.09291493 0.18574062 0.12715954 -0.04640879 -0.20501585 0.094365366
0.25588986 -0.006312142 0.050338738 0.15570788 -0.042665035 0.059051648 0.22662105 0.16565634
0.11268146 0.045407172 -0.100131966 -0.08792051 0.122306675 0.04810413 0.16626608 0.19188762
-0.14467762 0.15216362 0.099006 -0.080557376 0.1954252 0.06625449 -0.12418729 0.13725102
0.09070931 0.015433173 -0.17312464 -0.08617121 -0.06931505 0.19612364 0.04202541 -0.01954675
0.10418072 -0.06144228 -0.029034887 -0.0024557495 0.13987349 -0.038661037 0.045694657 0.03165986
-0.028722035 0.22108586 -0.17901404 -0.2479082 -0.07096099 -0.13495168 -0.11796259 -0.106802054
-0.10485835 -0.11999573 0.18235083 -0.067612015 -0.0033604137 -0.036979638 0.07270321 0.08990616
0.2553297 0.14836016 0.1539003 0.14578667 0.20866846 0.19045968 0.029813368 0.09659119
-0.064955905 -0.05363245 0.18399455 0.028830092 0.019806892 -0.15487264 -0.18128258 -0.19156049
-0.07495379 0.13897623 -0.0919104 -0.11878966 -0.10882636 -0.10328541 0.0073473407 -0.032561224
-0.15797304 0.11709372 -0.028185956 0.07559814 0.14530773 0.1684222 0.03246355 -0.06490547
00000000: b3c6 afbd 70c9 81bd 63b0 48bd c077 9f3d
00000010: 8977 5b3e a7b6 9c3c 7e87 ebbb ae3a eabd
00000020: e2c3 2d3e 4470 cdbb 0fb8 ecbd 42dd 393d
00000030: 05e8 9fbd feed f3bd 6907 76bc 6750 4b3d
00000040: 81bb 3cbe c70c 373c a454 fb3d 82f8 123e
00000050: 0ce7 24be d379 c5bd 679a 8fbd 9f25 f4bd
00000060: e739 003e 0749 a93b 86ab bebd 174c 2e3e
00000070: 1f6c 4b3e 9e5b 9cbd 5f83 293d 951a 103d
00000080: 13b5 b13d 24ab 4ebd 9738 dd3d 48c7 8dbc
00000090: b5bf 76bd a1dc 0abe c671 08be 8120 2e3e
000000a0: 7448 7b3e 900c e3bd d197 323d e270 b03c
000000b0: 823a 4bbe e103 d8bd 6b52 24be dcfe 7bbd
000000c0: 434b f13d f109 923d d8d5 0c3e 0fd5 953d
000000d0: 4c66 633d a25e f8bd be15 85bd e80b 683d
000000e0: ca1e 203e 21e4 1bbe 4742 b73d 2357 16be
000000f0: 7be6 433e 96d0 d13d 543c d9bd b276 cf3d
00000100: 8e27 6cbd b3bb 3e3d 92c6 5e3d 5a37 9f3d
00000110: 0d8c 07be 9757 223c 9f00 ecbd 6956 4d3e
00000120: b0bb d8bc 73d5 cf3d 14cc a03c 2b37 5ebc
00000130: cf42 03be 719d 5bbd 1671 97bd 8b6e 433e
00000140: 52d0 f13d a8e1 783d 5dd8 cf3d 15e4 4d3e
00000150: e31d 7c3e be6f 353c d3cc 1b3d d733 a1bd
00000160: 51c0 c7bd ed71 11be 64bf f63d de85 0abc
00000170: 0337 94bd a584 b83d cd1a 87bd fd6f 443e
00000180: 27cb 193e 5588 4a3e 9dd7 a43d 7a95 53be
00000190: fb88 36bd 7b14 e23d 166d 3dbe 2f02 173c
000001a0: c1ae 4cbd 8e45 8e3c c53e 1abd 5c9a 143e
000001b0: d404 eabd 4d82 1e3e e55c 74bd 8163 82bd
000001c0: d80b 7cbe 6958 873c 16ed 193e 2c77 78be
000001d0: 37df 6c3c 7098 893d aaee 2a3e 4113 ee3d
000001e0: d05c d43d 97b7 363d 0bfd 4d3d 5919 e3bd
000001f0: b491 eb3c c33f e8ba 083d c33d b575 a8bc
00000200: a112 753d 8dca 81bd 36d4 35be 76f6 1abe
00000210: 97d3 02be 21f7 f93d 72d4 c4bc 0853 b63a
00000220: 99c5 55be 4c72 ba3c a75d 88bd a149 c8bd
00000230: 99bc e5bb 1848 99bd 4828 8b3c e6c5 35be
00000240: 479e 52bd d684 593e c321 4d3d 330c 24be
00000250: a15a a0bc b377 7f3d dcfd 963d 3718 1fbd
00000260: dfd0 cd3c d5d6 ebbd a93d 133e 0fbe eb3c
00000270: 7432 cbbd d5c6 da3d c95f a5bd 3f81 fd3c
00000280: 9275 933c ead0 b93d 2f4a be3d ca32 3e3e
00000290: 1c36 023e 2517 3ebd adef 51be a142 c13d
000002a0: ff03 833e 16d6 cebb fe2f 4e3d e371 1f3e
000002b0: 88c1 2ebd 24e0 713d 590f 683e d1a1 293e
000002c0: 8ac5 e63d dffc 393d fd11 cdbd ab0f b4bd
000002d0: ec7b fa3d d608 453d a841 2a3e 307e 443e
000002e0: 5f26 14be c8d0 1b3e a8c3 ca3d 44fb a4bd
000002f0: 8b1d 483e 6fb0 873d e855 febd 888b 0c3e
00000300: cdc5 b93d 6bdb 7c3c 9647 31be 887a b0bd
00000310: 0df5 8dbd a3d4 483e d622 2c3d 8120 a0bc
00000320: b45c d53d e6aa 7bbd 92da edbc a4f0 20bb
00000330: ff3a 0f3e 095b 1ebd 522a 3b3d c5ad 013d
00000340: 794a ebbc 5564 623e 754f 37be a6db 7dbe
00000350: ff53 91bd c630 0abe 5f96 f1bd 09bb dabd
00000360: f9bf d6bd 52c0 f5bd 2dba 3a3e 2b78 8abd
00000370: 633a 5cbb f677 17bd 6ce5 943d b920 b83d
00000380: 93ba 823e baeb 173e 0a98 1d3e 1a49 153e
00000390: 2fad 553e dd07 433e 2a3b f43c 9ad1 c53d
000003a0: 9a07 85bd b3ad 5bbd 1169 3c3e 162d ec3c
000003b0: 1042 a23c ef96 1ebe 24a2 39be 6f28 44be
000003c0: 5f81 99bd c94f 0e3e 853b bcbd fe47 f3bd
000003d0: 5be0 debd 4d87 d3bd f6c1 f03b eb5e 05bd
000003e0: afc3 21be d5ce ef3d 3ce6 e6bc 33d3 9a3d
000003f0: 8dcb 143e df76 2c3e 80f8 043d 29ed 84bd

sequential/dense_6/MatMul;sequential/dense_6/BiasAdd f4 [27]
-2.1888373 -2.9847105 -2.7114673 -2.835437 -4.789564 -3.0295017 -4.0290527 -3.9221482
-3.6916587 -2.458957 -2.8324504 -2.5612657 -2.4963918 -4.1244965 -2.9755924 -3.1231742
-1.8069357 -0.5067847 -1.3253558 -2.357091 -3.8626196 -4.870558 -4.168992 -3.985755
-2.514054 -3.5657604 -2.959363
00000000: e915 0cc0 7f05 3fc0 ae88 2dc0 cd77 35c0
00000010: 1c44 99c0 5be3 41c0 00ee 80c0 7a04 7bc0
00000020: 2344 6cc0 8d5f 1dc0 de46 35c0 c7eb 23c0
00000030: e2c4 1fc0 e0fb 83c0 1b70 3ec0 16e2 47c0
00000040: ab49 e7bf a4bc 01bf 42a5 a9bf 94da 16c0
00000050: 2935 77c0 9cdb 9bc0 6268 85c0 9c16 7fc0
00000060: 43e6 20c0 6b35 64c0 3466 3dc0

sequential/batch_normalization_5/batchnorm/mul_1;sequential/batch_normalization_5/batchnorm/add_1;sequential/dense_6/MatMul;sequential/dense_6/BiasAdd f4 [27, 96]
-0.080551334 -0.1464601 -0.12192883 -0.11680181 -0.1234378 0.02279285 0.015561239 -0.07967243
0.067262575 0.027035682 0.10827801 0.08554313 -0.023398748 0.066681825 0.1370922 0.14785339
0.03620844 -0.039510872 -0.18550272 -0.1046389 -0.11586311 0.17407423 0.11422442 -0.20370917
0.12628368 0.12795009 -0.042912457 -0.014810968 0.009969369 0.0062998785 0.044808418 0.042742006
0.05380056 -0.06923087 0.15027253 -0.15827672 -0.18524684 0.15978372 0.030713374 -0.009755135
0.08373162 -0.2223862 -0.0814922 0.0092148725 0.05127222 0.048311654 -0.038381204 -0.009060576
-0.09813099 0.15341721 -0.009374314 0.1265638 -0.18923889 -0.07389677 -0.117862396 -0.0088023525
-0.1864446 -0.22735094 0.12663372 -0.09730463 0.09889648 0.048421193 -0.15189281 -0.013711401
0.15077215 0.10161371 0.19230194 -0.1303243 0.03273109 -0.14981884 0.11145356 -0.29667526
-0.016145892 0.09535687 -0.06317291 -0.1353616 0.010849174 -0.0123701105 -0.11608855 -0.19519302
-0.004070518 -0.121729225 -0.0016632522 -0.06627334 0.0031882413 -0.08678963 -0.14202347 -0.06980597
0.118411876 -0.25598225 -0.14628771 0.11810254 -0.038082093 0.011423613 0.076588474 -0.20374759
0.034662742 0.007018185 -0.024531417 -0.011136888 -0.23725839 0.27989706 -0.14844288 -0.13966762
0.029243363 -0.09995828 0.22640046 0.035803325 -0.099423654 0.07887591 -0.029783064 0.18437967
0.16885558 -0.27384356 -0.19038686 0.02849684 -0.22412702 0.11555437 -0.16149156 -0.024088806
0.066043705 -0.018796382 -0.10926488 -0.15927185 -0.10578245 -0.09421272 0.19811483 0.02156179
0.03031524 -0.08073515 0.06009444 -0.07791608 -0.017969718 0.1071285 0.041847266 0.2295488
0.1550406 -0.22964735 -0.10616312 -0.13315728 -0.07791797 0.24334413 0.16578677 0.1473694
-0.14446163 0.1380348 0.1537132 0.061832726 -0.11048327 0.03978861 -0.031869613 0.14769194
-0.2273028 -0.11387781 0.04848354 -0.17752008 0.18957044 -0.045293808 -0.18038973 0.025348322
-0.002908554 0.16930358 0.076447375 0.048031565 -0.026216386 -0.08289702 0.11874467 0.03939987
-0.11980609 0.123784065 -0.010792671 -0.1481483 -0.17997271 -0.09660168 -0.23188043 -0.045675334
-0.08391202 -0.07219242 -0.056025565 -0.069138065 -0.13318874 0.086988986 -0.048782174 -0.03799408
-0.0800633 -0.002397872 -0.20542574 0.0004056696 0.15554313 -0.17654741 -0.18299364 -0.15356168
-0.15537138 -0.052629806 -0.18668142 -0.20443133 -0.02075374 0.21705191 -0.011206289 -0.26326177
-0.067008674 -0.11770141 0.18661198 0.096379116 -0.09909294 0.2314452 0.17261136 0.1674665
0.10879141 -0.032500003 -0.17618555 -0.17347056 -0.17260595 0.11891213 -0.24206336 -0.04884958
0.06707728 0.14655472 -0.17304015 -0.12027376 -0.13660157 -0.11543151 0.12589498 -0.007722428
0.03751028 -0.070508435 0.27464002 -0.18050356 -0.17514394 0.047056317 0.19249699 0.0035558841
0.14359292 -0.017546557 0.0029928898 -0.0163631 -0.18482071 0.10924001 -0.01339534 0.14202769
-0.16635807 -0.049011346 0.096563555 0.109269165 0.017371297 -0.14286591 -0.08947663 0.19492844
-0.11357935 -0.2563508 0.15650381 -0.15261085 0.040899407 -0.16057952 -0.1597542 0.06978596
00000000: 19f8 a4bd a3f9 15be d3b5 f9bd ca35 efbd
00000010: f5cc fcbd 12b8 ba3c 91f4 7e3c 4d2b a3bd
00000020: f6c0 893d ef79 dd3c dcc0 dd3d 3d31 af3d
00000030: bbae bfbc 7b90 883d e661 0c3e e166 173e
00000040: 4d4f 143d 27d6 21bd 6df4 3dbe eb4c d6bd
00000050: a349 edbd 8440 323e 7eee e93d 2399 50be
00000060: 8250 013e 5905 033e f9c4 2fbd b4a9 72bc
00000070: 9056 233c 366f ce3b 0889 373d 3e12 2f3d
00000080: fa5d 5c3d eac8 8dbd 0be1 193e 4b13 22be
00000090: 59b1 3dbe 589e 233e 9d9a fb3c 00d4 1fbc
000000a0: 7c7b ab3d 35b9 63be 62e5 a6bd faf9 163c
000000b0: d202 523d 71e2 453d 9c35 1dbd cf72 14bc
000000c0: e7f8 c8bd 6719 1d3e b996 19bc f199 013e
000000d0: d7c7 41be 3157 97bd d761 f1bd be37 10bc
000000e0: 55eb 3ebe afce 68be 45ac 013e a647 c7bd
000000f0: 3d8a ca3d 4d55 463d ca89 1bbe c9a5 60bc
00000100: 0464 1a3e d91a d03d cdea 443e bc73 05be
00000110: 0911 063d 1c6a 19be c441 e43d d2e5 97be
00000120: 6444 84bc 764a c33d cc60 81bd 3b9c 0abe
00000130: bcc0 313c 01ac 4abc d5bf edbd aee0 47be
00000140: fb61 85bb 2c4d f9bd 7c01 daba 51ba 87bd
00000150: d0f1 503b c3be b1bd 9a6e 11be 6ff6 8ebd
00000160: ed81 f23d 1b10 83be 72cc 15be bfdf f13d
00000170: f8fb 1bbd 1b2a 3b3c 6bda 9c3d 35a3 50be
00000180: 85fa 0d3d cef8 e53b 1cf6 c8bc 7e77 36bc
00000190: ddf3 72be ab4e 8f3e 6901 18be 0705 0fbe
000001a0: c78f ef3c edb6 ccbd 86d5 673e 82a6 123d
000001b0: a19e cbbd b189 a13d 9dfb f3bc 06ce 3c3e
000001c0: 7ae8 2c3e 3935 8cbe c6f4 42be 3472 e93c
000001d0: 8e81 65be c5a7 ec3d 0b5e 25be e355 c5bc
000001e0: ec41 873d dffa 99bc 44c6 dfbd 2918 23be
000001f0: 78a4 d8bd 99f2 c0bd 9dde 4a3e 5aa2 b03c
00000200: ab57 f83c 7858 a5bd 9625 763d 7792 9fbd
00000210: 3b35 93bc 3066 db3d 0a68 2b3d d70e 6b3e
00000220: f7c2 1e3e ad28 6bbe 0d6c d9bd 625a 08be
00000230: 7593 9fbd 342f 793e 02c4 293e 01e8 163e
00000240: c0ed 13be ff58 0d3e fe66 1d3e 5044 7d3d
00000250: 0d45 e2bd 62f9 223d b689 02bd 8e3c 173e
00000260: 11c2 68be c538 e9bd ad96 463d d3c7 35be
00000270: c11e 423e 0086 39bd 16b8 38be 49a7 cf3c
00000280: 709d 3ebb eb5d 2d3e 7190 9c3d bfbc 443d
00000290: bfc3 d6bc eac5 a9bd 6830 f33d c261 213d
000002a0: e55c f5bd 8082 fd3d bed3 30bc 30b4 17be
000002b0: c44a 38be 1ad7 c5bd 1072 6dbe 0f16 3bbd
000002c0: 11da abbd 9fd9 93bd 107b 65bd 4298 8dbd
000002d0: a162 08be 4827 b23d d1cf 47bd ae9f 1bbd
000002e0: 3af8 a3bd 9e25 1dbb 205b 52be 0db0 d439
000002f0: b346 1f3e d8c8 34be af62 3bbe 463f 1dbe
00000300: ad19 1fbe 5a92 57bd 6a29 3fbe 7256 51be
00000310: bf03 aabc db42 5e3e 959a 37bc 3fca 86be
00000320: d83b 89bd 700d f1bd 3617 3f3e 6a62 c53d
00000330: 3df1 cabd f8ff 6c3e 08c1 303e 577c 2b3e
00000340: 08ce de3d b91e 05bd fc69 34be 44a2 31be
00000350: 9dbf 30be 3488 f33d 75df 77be 7f16 48bd
00000360: d05f 893d 7112 163e 7031 31be 1752 f6bd
00000370: 48e1 0bbe 5b67 ecbd 9dea 003e 6c0c fdbb
00000380: 61a4 193d ba66 90bd 9e9d 8c3e edd5 38be
00000390: ef58 33be 20be 403d ee1d 453e d609 693b
000003a0: 060a 133e ccbd 8fbc 5c24 443b e80b 86bc
000003b0: a441 3dbe 3ab9 df3d 2178 5bbc b56f 113e
000003c0: c559 2abe 1fc0 48bd 1dc3 c53d 83c8 df3d
000003d0: 404e 8e3c 714b 12be 863f b7bd 529b 473e
000003e0: 4a9c e8bd 6940 83be 8942 203e 0546 1cbe
000003f0: 2386 273d f56e 24be 9b96 23be f1eb 8e3d
